v1/models/saved/dqn_cnn_1.pth (torch, 915987 bytes, 22 tensors)

conv1.weight f4 [32, 1, 5, 5]
0	0x3e16dc8c	0.1473257
1	0xbef1ce04	-0.4722749
2	0xbf4ad7d1	-0.7923556
3	0xbf0a0f7b	-0.5392987
4	0xbe5e2e89	-0.21697439
5	0xbde18e85	-0.110135116
6	0xbf124a68	-0.57144785
7	0xbf14d2e0	-0.5813427
8	0xbe1c0b6d	-0.15238734
9	0xbeda27e2	-0.42608553
10	0xbf1935dd	-0.59847814
11	0xbec4911c	-0.3839196
12	0xbe1b1226	-0.15143642
13	0xbe93e124	-0.28882706
14	0xbde6cac1	-0.11269141
15	0xbe1ee08b	-0.15515344
16	0xbed8c432	-0.42337185
17	0xbe363777	-0.17794596
18	0xbf11148f	-0.56671995
19	0xbeb8edf9	-0.3611906
20	0xbec926d2	-0.3928743
21	0xbee26b6d	-0.44222584
22	0xbecb30a2	-0.3968554
23	0xbf1bee21	-0.6091023
24	0xbdc966a4	-0.0983403
25	0xbe3198fa	-0.17343512
26	0x3ebd6343	0.36989793
27	0x3e29dfb1	0.16589238
28	0x3f58cb2a	0.84685004
29	0x3d677e92	0.05651719
30	0xbf51b0c6	-0.8191036
31	0x3dafd3db	0.0858533
32	0xbe1fe58f	-0.15614913
33	0x3f2381f1	0.6387015
34	0x3de5093d	0.11183403
35	0x3f107ac5	0.5643733
36	0x3f0641c9	0.5244413
37	0xbc43e686	-0.011956817
38	0xbf51179d	-0.81676656
39	0xbef2ed51	-0.47446683
40	0xbeaf5e87	-0.34251806
41	0xbdc44021	-0.09582544
42	0xbe129683	-0.14315228
43	0x3ed439ac	0.4145025
44	0x3d1d5e35	0.03841992
45	0x3d191122	0.037369855
46	0xbcc69dfa	-0.024245251
47	0x3ef4bc0e	0.47799724
48	0x3f1e7021	0.61889845
49	0xbf0b3b57	-0.5438742
50	0x3eee193d	0.4650363
51	0x3ed55a85	0.41670623
52	0xbec482ed	-0.38381138
53	0x3e9f58cf	0.31122443
54	0x3e6fec77	0.23430048
55	0x3f8211e8	1.0161715
56	0x3f1f2012	0.6215831
57	0x3f41fd9a	0.7577759
58	0xbf463c08	-0.7743535
59	0x3e299ca0	0.16563654
60	0xbf0fc663	-0.5616209
61	0x3f367a83	0.7128069
62	0x3eb04a9b	0.3443192
63	0xbe97a52f	-0.29618213
64	0xbeeec1e3	-0.466323
65	0xbf05f0c8	-0.5232053
66	0xbd7daec4	-0.061934248
67	0xbe303522	-0.17207769
68	0xbe790c3e	-0.24321076
69	0x3f4e317a	0.80544245
70	0x3ed0d651	0.4078851
71	0x3c7fb596	0.015607258
72	0x3e204b67	0.15653764
73	0x3e98c96b	0.2984117
74	0xbe23e643	-0.16005807
75	0x3da4d118	0.08047694
76	0x3efe7b55	0.4970347
77	0xbe0e9c0a	-0.13926712
78	0x3e13bf37	0.14428411
79	0xbdf1fde0	-0.11816001
80	0x3ca3e5e0	0.020007074
81	0x3f327d27	0.6972222
82	0x3f3aed16	0.73018014
83	0x3f36b07b	0.7136304
84	0x3d3e750a	0.046498336
85	0x3dc21899	0.09477348
86	0xbf18a68a	-0.5962912
87	0xbd1c56d2	-0.038168736
88	0xbf7f6114	-0.99757504
89	0xbea0b74d	-0.31389847
90	0xbf1003f3	-0.56256026
91	0x3ed82a0c	0.4221958
92	0xbe52a095	-0.2056907
93	0x3e5e88a3	0.2173181
94	0x3eb4aa44	0.35286152
95	0x3d3e65f4	0.04648395
96	0xbee21a34	-0.44160616
97	0x3f2e1da9	0.6801401
98	0x3b10c786	0.0022091581
99	0x3ef4c466	0.4780609
100	0xbec53a6e	-0.3852114
101	0xbec1c0fb	-0.37842545
102	0xbf1f11c1	-0.62136465
103	0xbf17ead2	-0.5934268
104	0xbe779ddd	-0.24181314
105	0xbdbb11c5	-0.09134249
106	0xbf1d40d7	-0.6142706
107	0xbecfac17	-0.40560982
108	0x3de931c4	0.11386445
109	0x3ea30aa4	0.31844056
110	0x3da1889d	0.07887385
111	0xbf53da6c	-0.8275516
112	0x3d7e0072	0.062012143
113	0x3f1d48e6	0.6143936
114	0x3ecbd4d8	0.39810824
115	0xbf006100	-0.5014801
116	0xbde4f1aa	-0.11178906
117	0x3f354fb1	0.70824724
118	0x3d8ce0d2	0.068788186
119	0xbe82db7e	-0.25558084
120	0xbf3d245c	-0.73883605
121	0x3e948233	0.29005584
122	0xbe0d47ff	-0.13796996
123	0x3c178f6c	0.009250503
124	0x3f06792e	0.52528656
125	0x3d514e8e	0.051100306
126	0xbe52e261	-0.20594169
127	0xbbcb9aae	-0.0062135076
128	0x3e36dad7	0.17856918
129	0xbd2f1d9c	-0.042752847
130	0x3c8214ee	0.01587912
131	0xbde4d520	-0.11173463
132	0xbe66bac7	-0.22532187
133	0x3de97253	0.11398759
134	0xbea0d796	-0.3141448
135	0xbdb2186d	-0.08696065
136	0x3d2c9829	0.0421373
137	0xbe022dd9	-0.12712802
138	0xbee5e0aa	-0.44897968
139	0xbef3b9cb	-0.47602686
140	0xbe8594cc	-0.26090086
141	0xbe0ddfd7	-0.1385492
142	0xbdae1aba	-0.085011914
143	0x39d45a32	0.00040502992
144	0xbe21f033	-0.15814285
145	0xbe7a32b2	-0.24433401
146	0xbe4764b2	-0.19472006
147	0xbdf94ffc	-0.12173459
148	0xbe5a64a8	-0.2132746
149	0xbd31d193	-0.043412756
150	0xbe453af1	-0.19260766
151	0xbe420e29	-0.18950714
152	0xbe46f619	-0.19429816
153	0xbddff839	-0.109360166
154	0xbf0afab7	-0.5428881
155	0xbe6d7a2e	-0.23191139
156	0xbe497d5b	-0.19676726
157	0xbe7c5409	-0.24641432
158	0xbe2bfaf0	-0.16794944
159	0xbe01878b	-0.12649362
160	0xbec15e8a	-0.3776744
161	0xbf00a19d	-0.502466
162	0xbf414873	-0.75501174
163	0xbe4dec07	-0.20109569
164	0xbf02d513	-0.51106375
165	0xbe964bc4	-0.2935468
166	0xbea9250f	-0.33036086
167	0x3e9d8488	0.30765176
168	0xbf129912	-0.57264817
169	0xbe8304b4	-0.25589526
170	0xbda50fdf	-0.08059668
171	0xbf069503	-0.52571124
172	0xbe6c952f	-0.23103784
173	0xbf2eb5dc	-0.68246245
174	0x3ead2eec	0.3382486
175	0xbf5a9b6e	-0.85393417
176	0xbcb1834c	-0.021669053
177	0x3e8142aa	0.25246173
178	0xbe0a9f3a	-0.13537303
179	0x3eb4490a	0.35211974
180	0x3ead1a3a	0.33809072
181	0xbf615790	-0.88024235
182	0xbedbf24f	-0.42958304
183	0x3e002728	0.12514937
184	0x3efc07e6	0.49224776
185	0x3f165747	0.58726925
186	0xbe135a66	-0.14389953
187	0xbefb96f0	-0.49138594
188	0xbd043445	-0.03227641
189	0xbdb75d74	-0.08953372
190	0x3eb8db44	0.36104786
191	0xbea68b0b	-0.32527956
192	0xbf2b4954	-0.66908765
193	0x3eeb0923	0.45905408
194	0xbd673e0a	-0.05645565
195	0xbee62b77	-0.44955036
196	0x3f0002ef	0.50004476
197	0x3f77d3cc	0.9680755
198	0xbeaeaae6	-0.3411476
199	0x3f057406	0.5213016
200	0xbf07d77a	-0.53063166
201	0x3f0236e5	0.5086501
202	0x3bb58d86	0.0055405525
203	0xbe97d100	-0.29651642
204	0x3ed5cbc7	0.41757032
205	0xbe53c080	-0.20678902
206	0x3deec8dc	0.11659405
207	0x3f0b110c	0.54322886
208	0x3f37d6cf	0.71812147
209	0xbdc4b7b5	-0.09605352
210	0x3e381629	0.17977203
211	0xbdf27f1d	-0.11840651
212	0x3d6e4e5a	0.05818019
213	0x3f84f3e5	1.0386931
214	0xbf7c5dc8	-0.985806
215	0xbeccf694	-0.40031874
216	0x3f2ed35b	0.6829125
217	0x3f695df7	0.91159004
218	0xbefe5cc0	-0.49680138
219	0xbeac8434	-0.33694613
220	0xbf0c2af8	-0.54753065
221	0xbf2321b3	-0.63723296
222	0xbf4233a6	-0.7586006
223	0x3e16bed4	0.14721233
224	0x3e90e828	0.2830212
225	0x3efae266	0.49000853
226	0xbd8e64d0	-0.06952822
227	0xbf012c9a	-0.5045868
228	0xbe531a89	-0.20615591
229	0xbefd4929	-0.4946988
230	0x3efd85cd	0.49516144
231	0xbebe5f9c	-0.3718232
232	0x3cc67d08	0.024229541
233	0x3ecf8853	0.40533695
234	0x3e2bc403	0.16773991
235	0x3d022428	0.031772763
236	0xbf08c64d	-0.5342758
237	0xbf142ab6	-0.5787767
238	0x3de3cf30	0.11123502
239	0xbea11f12	-0.31469017
240	0x3e35511b	0.1770672
241	0xbeec4487	-0.46146032
242	0xbe262e0a	-0.162285
243	0x3eddabd6	0.43295163
244	0x3e04b8b7	0.12961088
245	0x3e18cd48	0.14922059
246	0xbe832a0b	-0.25618014
247	0xbe2fc9de	-0.1716685
248	0x3e1bb022	0.15203908
249	0x3e8ca12e	0.2746672
250	0x3e63babd	0.22239204
251	0xbd60ebdb	-0.05491243
252	0x3dc3030a	0.09522064
253	0x3cb3fce3	0.021971172
254	0xbe13fd85	-0.14452179
255	0xbe8c7dd2	-0.27439743

conv1.bias f4 [32]
0	0xbef57a32	-0.4794479
1	0xbe756be6	-0.23966941
2	0xbe14f13c	-0.14545149
3	0xbe1bb822	-0.1520696
4	0xbe7e0fbf	-0.24810694
5	0xbec68dd4	-0.3878008
6	0xbe8fd188	-0.28089547
7	0x3e8df84f	0.27728507
8	0x3e876c8b	0.2645
9	0xbd865f09	-0.06561095
10	0xbeccdd12	-0.40012413
11	0xbee46258	-0.4460628
12	0xbedb7807	-0.4286501
13	0xbea8a59e	-0.32938856
14	0x3f232220	0.63723946
15	0x3dcacfb1	0.09902895
16	0x3e12f604	0.1435166
17	0x3e4ae9cd	0.1981575
18	0xbebe23af	-0.371366
19	0xbecd7fbe	-0.40136522
20	0xbeae0c34	-0.33993685
21	0xbd6c7692	-0.057730265
22	0xbf22f195	-0.63649875
23	0x3e1fb572	0.1559656
24	0x3d4bbac7	0.04973867
25	0xbe3478dc	-0.17624229
26	0xbe8928d9	-0.26788977
27	0xbee41b69	-0.44552162
28	0xbe98403d	-0.2973651
29	0x3ee00378	0.43752646
30	0xbe1b8a5e	-0.15189502
31	0x3d0b40a5	0.033997197

conv2.weight f4 [32, 32, 5, 5]
0	0x3e415d50	0.18883252
1	0x3ce140bd	0.02749669
2	0xbf1b609d	-0.60694295
3	0xbed10acb	-0.40828547
4	0xbbba8be7	-0.005692947
5	0x3da1799d	0.07884524
6	0x3b1e903d	0.002419486
7	0xbe07c036	-0.13256916
8	0xbe359a5c	-0.17734665
9	0xbe7ce3b7	-0.24696241
10	0xbf10b9cd	-0.5653351
11	0xbf5f0f30	-0.8713255
12	0xbe9c7e04	-0.30564892
13	0xbeb9772d	-0.36223736
14	0xbdc20909	-0.094743796
15	0xbe8f99c4	-0.28047
16	0x3ddb66b5	0.10712949
17	0xbd395814	-0.045250013
18	0xbe543a70	-0.20725417
19	0x3eb7f51a	0.35929185
20	0xbdf7bd37	-0.12096637
21	0x3bc9b74e	0.006155885
22	0xbe3ebcba	-0.18626681
23	0x3e849509	0.25894955
24	0xbefe4af1	-0.4966655
25	0xbf592d5b	-0.8483483
26	0x3d811c75	0.06304256
27	0x3eb9fab1	0.36324075
28	0x3e53f833	0.20700149
29	0xbd491267	-0.049089815
30	0x3f625fdb	0.88427514
31	0xbe7229dd	-0.23648782
32	0x3e9a951b	0.30191883
33	0x3d82fbad	0.063956596
34	0x3f033437	0.5125155
35	0xbdfa7c96	-0.12230794
36	0x3e9d6875	0.30743757
37	0x3e8af61e	0.27140898
38	0xbecca0bb	-0.39966378
39	0x3e91914e	0.2843117
40	0xbf1e995f	-0.61952776
41	0x3da69402	0.08133699
42	0xbdf98e14	-0.121853024
43	0xbe366216	-0.17810854
44	0x3dab4250	0.083622575
45	0x3e8484f1	0.25882676
46	0xbe78d489	-0.24299826
47	0x3c8b54ff	0.017008303
48	0x3df1464d	0.11780987
49	0x3f2f5ee7	0.68504184
50	0xbf20a0a6	-0.6274513
51	0x3eeeaba3	0.46615323
52	0x3e0f90b8	0.1402005
53	0xbe412d6c	-0.18864983
54	0xbe1dbb11	-0.15403391
55	0x3e7d0982	0.24710658
56	0xbe996aba	-0.29964238
57	0x3e133f29	0.14379562
58	0x3f1c94d1	0.61164576
59	0xbf001794	-0.5003598
60	0xbf1b772d	-0.6072872
61	0x3e92d3bb	0.28677163
62	0xbedf18a2	-0.4357348
63	0x3e813430	0.25235128
64	0x3f5dc032	0.8662139
65	0x3e8c48a4	0.2739917
66	0x3f07a888	0.52991533
67	0xbf5656df	-0.83726305
68	0xbf384ba2	-0.71990407
69	0xbc0e0897	-0.00866904
70	0xbeeae747	-0.45879576
71	0xbdcf00b6	-0.101075575
72	0xbf07e48f	-0.5308313
73	0x3ef1f457	0.4725673
74	0xbf06f7d4	-0.52721906
75	0x3e539d46	0.20665464
76	0x3ef657a3	0.48113737
77	0xbc2b4814	-0.0104541965
78	0x3d434259	0.047670696
79	0x3dcdc40c	0.100471586
80	0xbe3cecd0	-0.18449712
81	0x3ddd9d11	0.10820974
82	0xbebf6810	-0.3738408
83	0x3f1b7cb0	0.60737133
84	0x3ebcd2b0	0.36879492
85	0x3e09b39a	0.13447419
86	0xbf2fdd94	-0.68697476
87	0x3e3baa75	0.18326743
88	0xbee2c85b	-0.44293484
89	0x3ef76bee	0.4832453
90	0xbed3405a	-0.41260034
91	0x3f19c8eb	0.600722
92	0xbf9526b2	-1.1652434
93	0x3e560a5e	0.20902392
94	0xbe775862	-0.24154809
95	0xbf07470b	-0.5284278
96	0xbfa37cd9	-1.2772475
97	0x3e16f3d9	0.14741458
98	0xbee79091	-0.45227483
99	0x3ec99425	0.39370838
100	0x3ee1fa5a	0.44136316
101	0xbd6c2895	-0.05765589
102	0xbe6d2f50	-0.2316258
103	0xbd5f1b31	-0.05446929
104	0x3ce70917	0.028202577
105	0xbf237967	-0.6385712
106	0xbe12a34b	-0.14320104
107	0x3ed19dff	0.40940854
108	0x3e6cf7ba	0.23141375
109	0xbda2a5f0	-0.07941806
110	0x3e8b5a9d	0.2721757
111	0xbf0ffbac	-0.56243396
112	0xbe97c7f1	-0.2964473
113	0x3d38f28c	0.045153186
114	0xbf414449	-0.7549482
115	0x3daeb019	0.08529682
116	0x3e94783f	0.2899799
117	0x3e3a8ae8	0.18217051
118	0x3e9df4cb	0.30850825
119	0xbdb19cd8	-0.08672494
120	0x3e907c94	0.28220046
121	0x3f154a18	0.58316183
122	0x3f1dd3e0	0.6165142
123	0xbf718c02	-0.9435426
124	0xbe0774fb	-0.13228218
125	0xbe224146	-0.15845212
126	0xbe619192	-0.22028187
127	0x3d0dec40	0.034649134
128	0x3e03b12a	0.12860551
129	0xbd3fc20c	-0.046815917
130	0x3e658339	0.22413339
131	0xbe484534	-0.19557649
132	0xbdff908e	-0.124787435
133	0xbea45b1b	-0.32100758
134	0x3e8a9481	0.27066424
135	0xbdb54b9c	-0.08852312
136	0x3dab3da3	0.08361366
137	0xbed91766	-0.42400664
138	0x3e5cf02b	0.21575992
139	0x3baf6925	0.0053531104
140	0xbea1568c	-0.31511343
141	0xbc007cd8	-0.007842265
142	0xbd2bc854	-0.041939095
143	0x3e4eb0f7	0.20184694
144	0x3e0098f4	0.12558347
145	0xbe53599c	-0.20639652
146	0xbeeb5667	-0.45964357
147	0xbe15dc1e	-0.1463475
148	0xbe8d39b7	-0.27583095
149	0x3ce7f2f1	0.028314086
150	0xbd5e4da1	-0.05427325
151	0xbe85c512	-0.26126915
152	0xbe915f73	-0.28393134
153	0x3ebea640	0.37236214
154	0xbc0ea2c3	-0.008705798
155	0xbf1051be	-0.5637473
156	0x3e8f2281	0.27956012
157	0xbbe4abdb	-0.0069784946
158	0xbe7fee82	-0.24993327
159	0xbedc5980	-0.43037033
160	0xbf3b16c9	-0.7308164
161	0x3d07e251	0.033174817
162	0xbeec883c	-0.4619769
163	0x3e46d49e	0.19417045
164	0xbf14d84e	-0.58142555
165	0x3e19e32f	0.1502807
166	0xbe2f153d	-0.17097946
167	0xbf230b2c	-0.6368892
168	0x3d7d843c	0.061893687
169	0xbdd1f2b9	-0.10251374
170	0xbf10fe8f	-0.56638426
171	0xbdae2075	-0.085022844
172	0xbf304098	-0.6884856
173	0xbedbb168	-0.42908788
174	0xbd504611	-0.05084807
175	0xbe8e5723	-0.27800855
176	0xbf02dc3f	-0.5111732
177	0xbde8fd93	-0.113764904
178	0x3f29aeff	0.6628265
179	0x3dca919b	0.09891053
180	0xbf9d584a	-1.2292569
181	0x3f444d07	0.76680034
182	0x3d360877	0.044441666
183	0xbd3d3282	-0.046190746
184	0x3e024a07	0.12723552
185	0xbdc36a63	-0.09541776
186	0x3e88546f	0.26626918
187	0x3e9231e4	0.2855369
188	0x3e55540e	0.20832846
189	0xbf528db9	-0.822475
190	0x3e539cd8	0.206653
191	0x3ef9ea65	0.4881164
192	0xbf208633	-0.6270477
193	0xbe854ca4	-0.26035035
194	0xbe5c0d7c	-0.21489519
195	0xbf76b7f4	-0.9637444
196	0xbee8dbb4	-0.4548012
197	0x3d9125ee	0.07087313
198	0x3f1c7585	0.6111682
199	0xbda69049	-0.08132989
200	0x3f5db1f7	0.8659968
201	0x3ee17e25	0.44041553
202	0xbe1691ef	-0.14704107
203	0xbf06fd09	-0.5272985
204	0x3ed22670	0.4104495
205	0xbe390591	-0.1806853
206	0xbf5d5aa8	-0.86466455
207	0xbdae8a5a	-0.08522482
208	0x3ec99a03	0.39375314
209	0xbeab7714	-0.33489287
210	0xbf126c54	-0.57196546
211	0x3d849547	0.06473785
212	0x3ea81741	0.3283024
213	0xbe196cf6	-0.14982972
214	0xbe0f6dda	-0.14006749
215	0x3f1d5a86	0.6146625
216	0xbf339bec	-0.7015979
217	0xbcebc36b	-0.028779706
218	0x3f51c1d4	0.81936383
219	0x3ed2e1f5	0.41188017
220	0xbe113da2	-0.14183667
221	0xbe68cb7b	-0.22733872
222	0x3e7467a8	0.23867667
223	0xbdf63b5a	-0.12023039
224	0x3e1513b4	0.14558297
225	0x3f47d13e	0.78053653
226	0x3eb08c29	0.34481934
227	0xbe749bc5	-0.23887546
228	0xbe422316	-0.18958697
229	0x3e8853e6	0.2662651
230	0xbea7e018	-0.32788157
231	0xbf039b01	-0.5140839
232	0xbd4a59d4	-0.049402073
233	0xbdbb8ea2	-0.091580644
234	0xbf158e0e	-0.58419883
235	0x3d292478	0.041294545
236	0x3d2efecb	0.04272346
237	0x3efe731f	0.49697205
238	0xbe30a2ad	-0.17249556
239	0xbecf2f28	-0.40465665
240	0x3d4ed73f	0.050498243
241	0x3ebd4584	0.369671
242	0x3d7a1cc5	0.061062593
243	0xbebce1dd	-0.3689107
244	0x3e4ee9e7	0.20206414
245	0xbebe27ef	-0.37139842
246	0xbeafb0f0	-0.3431468
247	0xbf0d333e	-0.55156314
248	0xbf2e7e23	-0.6816122
249	0xbf21c5bc	-0.63192344
250	0x3c8de220	0.017319739
251	0xbebcb57d	-0.36857215
252	0xbc3266db	-0.0108887805
253	0xbea99f6a	-0.33129436
254	0xbe906a81	-0.28206256
255	0xbe20215a	-0.15637723

conv2.bias f4 [32]
0	0xbcb48467	-0.02203579
1	0x3c0c9dc2	0.008582534
2	0xbdee9187	-0.11648851
3	0x3ef4892d	0.47760907
4	0x3e9bdeee	0.3044352
5	0x3e0a068b	0.13479058
6	0x3e084927	0.13309155
7	0xbd976e48	-0.07394081
8	0xbe620a30	-0.22074199
9	0x3ea2f3e5	0.31826702
10	0xbf912bfa	-1.1341546
11	0x3df8c98b	0.12147816
12	0xbebde624	-0.37089646
13	0xbdd4fb9e	-0.10399555
14	0xbcd208c7	-0.025638951
15	0xbeb598b6	-0.35468072
16	0x3dc1f886	0.0947123
17	0xbde4ef4c	-0.11178455
18	0x3f23334f	0.63750166
19	0x3e80832b	0.25100073
20	0x3eb7ce08	0.35899377
21	0xbde37d73	-0.11107912
22	0xbe328c3f	-0.17436312
23	0x3e258117	0.16162525
24	0xbe3f53e6	-0.18684348
25	0x3edc9380	0.43081284
26	0xbd751e52	-0.05984337
27	0x3e1e3773	0.1545084
28	0x3d1d1017	0.038345423
29	0x3dcc5b40	0.09978342
30	0xbc92de8b	-0.017928382
31	0x3eaa86ce	0.33305973

conv3.weight f4 [32, 32, 5, 5]
0	0xbebef006	-0.37292498
1	0x3d41f843	0.0473559
2	0xbf009ff0	-0.50244045
3	0x3f2ccd7d	0.6750105
4	0x3e51f5ef	0.20503972
5	0xbf6c7df6	-0.923797
6	0x3e3989b4	0.18118936
7	0xbda569ec	-0.080768436
8	0xbd02b890	-0.031914294
9	0x3e81f176	0.25379533
10	0xbf395933	-0.7240173
11	0x3f395f3e	0.72410953
12	0xbf44673f	-0.7672004
13	0xbe86896d	-0.26276723
14	0xbe282bc4	-0.16422945
15	0xbe1cf3dd	-0.15327401
16	0xbe92d7f5	-0.28680387
17	0xbf2a653f	-0.6656074
18	0xbf316c5c	-0.6930597
19	0x3e7537a5	0.23947008
20	0xbe00d237	-0.1258019
21	0xbe806c88	-0.25082803
22	0xbe94dc82	-0.29074484
23	0x3dfc86e0	0.12330413
24	0x3f0c53fb	0.54815644
25	0x3ec23be2	0.37936312
26	0xbdc998f4	-0.098436266
27	0xbe197ddb	-0.14989416
28	0x3e520010	0.20507836
29	0xbe8fb6d2	-0.28069168
30	0xbe87faf4	-0.2655865
31	0x3bac6e96	0.0052622063
32	0x3d93617d	0.07196329
33	0xbe3798ee	-0.17929432
34	0x3e5f3473	0.21797352
35	0x3e98425a	0.29738122
36	0x3e0b1b3f	0.13584612
37	0x3edc911a	0.43079454
38	0xbefc5008	-0.4927981
39	0x3ef70c79	0.48251703
40	0xbe50208d	-0.20324917
41	0x3f38e737	0.72227806
42	0xbd9cbfdf	-0.07653784
43	0xbe4eee48	-0.20208085
44	0x3e985db2	0.29758984
45	0xbf50cd7f	-0.8156356
46	0xbea10096	-0.3144576
47	0x3e7f6e4c	0.24944419
48	0x3e86206e	0.26196617
49	0x3f2f03b2	0.68365014
50	0x3dc31776	0.09525959
51	0x3ea06b66	0.31331939
52	0x3e6550d9	0.22394122
53	0xbe65770e	-0.22408697
54	0x3efc1070	0.4923129
55	0xbe196c22	-0.14982656
56	0x3f19bef0	0.6005697
57	0x3f197414	0.59942746
58	0x3e1d05ad	0.15334196
59	0xbe691dd3	-0.22765283
60	0xbec14bec	-0.37753236
61	0xbee2bf02	-0.44286352
62	0x3e58a182	0.2115536
63	0x3e2d08c2	0.16897872
64	0xbe9041a9	-0.28175095
65	0xbec4f91e	-0.3847131
66	0x3e7c185c	0.24618667
67	0xbec97a1d	-0.39350978
68	0xbe6511cf	-0.22370075
69	0x3f50cc1d	0.8156145
70	0xbe6019dc	-0.21884865
71	0x3f21ffd6	0.63281
72	0x3e023933	0.12717132
73	0x3afeef88	0.0019450048
74	0x3f50e540	0.8159981
75	0x3f4ea1d5	0.80715686
76	0x3ee69402	0.45034796
77	0x3f5327d5	0.82482654
78	0xbf6472a8	-0.8923745
79	0xbef4f923	-0.47846326
80	0xbf33ff40	-0.70311356
81	0x3f267bc8	0.65032625
82	0xbe1c541d	-0.15266462
83	0xbcb7bf29	-0.02243002
84	0xbe410d6b	-0.18852775
85	0xbf1594d5	-0.58430225
86	0xbf4c5dae	-0.79830444
87	0xbe956442	-0.29178053
88	0xbea41764	-0.32049096
89	0x3da52c9c	0.08065149
90	0x3f29ca2d	0.6632412
91	0x3e56c428	0.20973265
92	0xbf035518	-0.5130172
93	0x3ed707cd	0.4199814
94	0x3e5ce290	0.21570802
95	0x3f2d9921	0.6781178
96	0x3e6670a1	0.22503902
97	0x3f4e6b4d	0.8063248
98	0xbf283493	-0.6570522
99	0xbe993bdd	-0.29928485
100	0x3dc810d5	0.097688355
101	0x3e653af7	0.22385775
102	0x3effb23e	0.49940675
103	0x3e8ed351	0.27895597
104	0x3f5a651c	0.8531053
105	0xbfa71011	-1.3051778
106	0xbf13ea3a	-0.57779276
107	0xbdb570d6	-0.08859412
108	0xbef1611d	-0.47144404
109	0x3f716308	0.94291735
110	0x3f14d3fb	0.58135957
111	0xbed9a770	-0.42510557
112	0xbdcbc0df	-0.099488966
113	0xbfb627fc	-1.4230952
114	0x3f30a6cd	0.6900452
115	0xbf00d0bf	-0.5031852
116	0xbddb6bf7	-0.10713952
117	0xbf038bdf	-0.513853
118	0xbe926948	-0.28595948
119	0x3d9c70d6	0.07638709
120	0xbebe1786	-0.37127322
121	0xbe90d013	-0.28283748
122	0xbd8a0b81	-0.067404754
123	0x3eac4e47	0.3365347
124	0x3d651928	0.055932194
125	0xbf89866a	-1.0744145
126	0xbf093ccc	-0.53608394
127	0x3e9495c4	0.29020512
128	0xbc2e8dff	-0.010653972
129	0xbf269619	-0.6507278
130	0xbeaacda2	-0.3336001
131	0xbe9e693b	-0.3093966
132	0xbd82d7c9	-0.06388814
133	0xbd04da6d	-0.03243487
134	0x3d3458b4	0.044029906
135	0xbf6e1d52	-0.9301349
136	0x3e6afeb3	0.22948723
137	0x3e292db0	0.16521335
138	0x3e26c195	0.16284783
139	0xbde5bc5e	-0.11217569
140	0xbe4f4bc1	-0.20243742
141	0xbe95ccd0	-0.29257822
142	0xbf45e199	-0.7729736
143	0x3eee2e63	0.46519765
144	0xbe8eecec	-0.27915132
145	0xbdd3a1cf	-0.10333597
146	0x3f4b5c9a	0.79438174
147	0xbf701b72	-0.9379188
148	0x3e8cc4a3	0.27493772
149	0x3eb0350d	0.34415475
150	0xbf55ac57	-0.83466095
151	0xbe111bd4	-0.14170772
152	0xbc4a2211	-0.012337224
153	0xbf320b4e	-0.695485
154	0x3f172f41	0.5905648
155	0xbe4f24a6	-0.20228824
156	0xbec450ee	-0.38342994
157	0x3eadf32d	0.3397459
158	0x3e6d9ddc	0.2320475
159	0x3c955e32	0.018233392
160	0x3db6ee95	0.08932225
161	0x3d97a1f8	0.0740394
162	0xbee4a058	-0.44653583
163	0x3edb6978	0.42853904
164	0xbeeb3dd4	-0.4594561
165	0x3f4469f2	0.7672416
166	0x3e104b23	0.14091162
167	0xbd345f84	-0.044036403
168	0x3e04c9a4	0.12967545
169	0xbe87d2a2	-0.26527888
170	0x3f362e1a	0.71164095
171	0xbf2af54a	-0.6678053
172	0xbedc3a34	-0.43013155
173	0x3dc4ae63	0.09603574
174	0xbd8bee1f	-0.06832527
175	0x3debed4e	0.11519872
176	0xbf6c277b	-0.9224774
177	0xbe68444a	-0.226823
178	0xbf19cd63	-0.6007902
179	0xbea0302f	-0.3128676
180	0x3e2e46e4	0.1701923
181	0xbe672cd8	-0.225757
182	0xbe2b2ae2	-0.16715577
183	0xbf000e31	-0.50021654
184	0x3f4d2320	0.8013172
185	0x3e2207b8	0.15823257
186	0x3ea2afba	0.31774694
187	0x3e65cea5	0.2244211
188	0x3e80083d	0.25006285
189	0x3c8bce18	0.017066047
190	0xbdf552a9	-0.11978657
191	0xbf4e0da0	-0.8048954
192	0xbe911288	-0.2833445
193	0x3e380492	0.17970493
194	0x3f21f9ba	0.6327168
195	0x3ece85e1	0.40336516
196	0x3ea6038a	0.32424575
197	0xbdf1d7d4	-0.11808744
198	0xbe882c41	-0.26596263
199	0xbeeb91ee	-0.46009773
200	0xbf5dff8a	-0.86718047
201	0xbe99f409	-0.30068997
202	0x3ddb8f0d	0.10720644
203	0x3f1ba953	0.60805243
204	0xbea06ed8	-0.31334567
205	0xbe66d105	-0.22540672
206	0xbf303eb8	-0.688457
207	0xbec7b27f	-0.3900337
208	0x3eaea1a4	0.34107697
209	0xbbfc7870	-0.007704787
210	0xbef389cf	-0.47566077
211	0xbe80d55e	-0.25162786
212	0x3d4d5eef	0.050139364
213	0xbd80fad4	-0.06297842
214	0xbe7caeeb	-0.24676101
215	0x3e83b98d	0.25727502
216	0xbdfda433	-0.12384834
217	0xbe25d9d3	-0.16196375
218	0xbe52a0e1	-0.20569183
219	0x3ee815aa	0.45329028
220	0xbd11ec69	-0.03562585
221	0x3e010276	0.12598595
222	0x3eeb3337	0.4593751
223	0xbe345c9c	-0.17613453
224	0x3f0cf4e9	0.55061203
225	0x3d4e483e	0.050361864
226	0xbee1ea27	-0.44123957
227	0x3eb53c87	0.3539774
228	0x3f47f3d3	0.7810642
229	0x3f135ca1	0.57563215
230	0xbf88a014	-1.0673852
231	0xbed851d0	-0.42249918
232	0xbe82b571	-0.25529054
233	0xbe89f967	-0.2694809
234	0xbd84b3b5	-0.06479589
235	0x3e0e97f2	0.1392515
236	0x3eca480d	0.39508095
237	0x3dd5f826	0.10447721
238	0xbe030008	-0.1279298
239	0x3e65b0a5	0.22430666
240	0xbe9ab519	-0.30216292
241	0x3f52f65e	0.82407176
242	0xbe09a5b1	-0.13442113
243	0xbee04cb5	-0.43808523
244	0xbf137538	-0.57600737
245	0xbf45890f	-0.7716226
246	0xbee6f22a	-0.45106632
247	0xbe72a8ab	-0.23697154
248	0xbf04124a	-0.51590407
249	0xbe8e9ad7	-0.27852508
250	0xbd733f85	-0.05938675
251	0x3d1f3efe	0.038878433
252	0xbeaef314	-0.3416983
253	0xbd9a1824	-0.07524136
254	0xbeb796ce	-0.35857242
255	0xbf1b5734	-0.60679936

conv3.bias f4 [32]
0	0x3e447982	0.19186977
1	0x3e20e6d1	0.1571305
2	0x3f365c66	0.7123474
3	0x3eb00250	0.34376764
4	0x3e8f678c	0.28008687
5	0x3d5d3a22	0.054010518
6	0x3f346197	0.7046141
7	0x3f3cd187	0.73757213
8	0x3e6a7705	0.22896965
9	0x3f5d6cbf	0.8649406
10	0x3f37a7e6	0.7174057
11	0x3f2f92a8	0.68583155
12	0x3f56352e	0.83674896
13	0x3f2d3b72	0.6766883
14	0x3edfa256	0.4367854
15	0x3f2439cd	0.64150697
16	0x3efd5da2	0.494855
17	0xbdff5f3e	-0.12469338
18	0x3eea97fa	0.45819074
19	0x3f436391	0.763238
20	0x3ee16b0b	0.4402698
21	0x3eefa238	0.4680345
22	0x3f321f00	0.6957855
23	0x3ee49565	0.4464523
24	0x3eb9dfba	0.36303502
25	0x3f1e3e2b	0.6181361
26	0x3f041411	0.5159312
27	0x3f4b69de	0.79458416
28	0x3f1ef090	0.6208582
29	0x3f133d5e	0.57515514
30	0x3e29b33b	0.16572277
31	0x3e5eefe3	0.21771197

conv4.weight f4 [32, 32, 5, 5]
0	0xbf97f312	-1.1871054
1	0xbf13d931	-0.5775328
2	0xbfaa1e3c	-1.3290477
3	0xbf58ebf9	-0.84735066
4	0xbf8fd96d	-1.1238228
5	0xbf1f0d94	-0.62130094
6	0xbf44ab80	-0.7682419
7	0xbf93cb93	-1.1546501
8	0xbd374b96	-0.04474982
9	0x3d1f0e63	0.03883208
10	0xbeffa065	-0.4992706
11	0xbdd425b2	-0.10358752
12	0xbf7a4e0f	-0.9777536
13	0x3f1dc187	0.61623424
14	0xbf07c2e8	-0.5303178
15	0xbecc18ac	-0.39862573
16	0x3e303cbf	0.17210673
17	0xbe3c36cd	-0.1838028
18	0x3f11bf7f	0.56932825
19	0x3ee0d436	0.43911904
20	0x3eb51026	0.35363883
21	0xbeb77eab	-0.35838827
22	0xbfbaa61d	-1.4581944
23	0x3f8600fb	1.0469049
24	0x3eb1d939	0.3473604
25	0xbf8b6c39	-1.0892402
26	0x3e5636ee	0.20919392
27	0x3e7c8ea2	0.24663785
28	0xbe848ea4	-0.25890076
29	0xbf1165ea	-0.56796134
30	0xbeaa8f8d	-0.33312646
31	0x3f1dcae0	0.6163769
32	0x3f3abbb2	0.7294265
33	0xbe06652b	-0.1312453
34	0xbf2a7cc9	-0.6659666
35	0x3f5e8755	0.8692525
36	0xbf68e3dc	-0.90972686
37	0xbeb8abf2	-0.36068684
38	0xbf161aed	-0.58634835
39	0x3e470f5e	0.19439456
40	0x3ed6bcf8	0.41941047
41	0xbf9141f0	-1.1348248
42	0xbeb0a00d	-0.3449711
43	0xbebb2e40	-0.36558723
44	0xbf94f0de	-1.1636007
45	0xbec4e689	-0.38457134
46	0xbe950538	-0.29105544
47	0xbf023432	-0.50860894
48	0xbeea5555	-0.45768228
49	0xbe517628	-0.2045523
50	0xbf14e3dc	-0.58160186
51	0xbeae9598	-0.34098506
52	0xbf17e958	-0.5934043
53	0x3f221493	0.63312644
54	0xbe9ae8ba	-0.3025568
55	0xbd9ef71a	-0.07761975
56	0xbe98190a	-0.29706603
57	0xbde96cad	-0.113976814
58	0x3e7f4b85	0.24931152
59	0xbeaa3aae	-0.33247894
60	0xbf8e6fff	-1.1127928
61	0x3f366c56	0.7125906
62	0x3e98a373	0.29812202
63	0xbf7d92b4	-0.99051976
64	0x3f102bc3	0.56316775
65	0xbe66c411	-0.22535731
66	0x3f7aafc5	0.97924453
67	0x3d846625	0.06464795
68	0xbe9057e1	-0.28192046
69	0xbf16a90e	-0.58851707
70	0x3f6b14bd	0.9182852
71	0xbde2125b	-0.11038657
72	0xbf92076c	-1.1408515
73	0xbf234233	-0.63772887
74	0xbc3f6610	-0.011682048
75	0x3efc6784	0.49297726
76	0xbeac5ac3	-0.33662996
77	0xbf22c341	-0.63579184
78	0xbe1a6baa	-0.15080133
79	0x3de9215a	0.113833144
80	0x3f3de063	0.7417051
81	0xbea28c07	-0.31747457
82	0xbf387eb9	-0.72068363
83	0x3d88e6d8	0.06684655
84	0xbe6f55d4	-0.23372585
85	0x3f2d3b20	0.6766834
86	0x3dda2dcf	0.106532685
87	0x3f0ef766	0.5584625
88	0x3ee1056c	0.4394945
89	0x3f538dde	0.8263835
90	0xbf10c266	-0.5654663
91	0x3e344f58	0.17608392
92	0x3edfbb61	0.43697646
93	0x3f36458c	0.7119987
94	0x3f90d2a5	1.1314284
95	0x3f3ee57b	0.7456891
96	0xbf1f73a4	-0.6228583
97	0x3ebfc10a	0.37451965
98	0xbee53674	-0.44768107
99	0xbe857ce2	-0.2607184
100	0xbe9610cc	-0.2930969
101	0x3f130a5d	0.5743769
102	0x3ece0394	0.40237105
103	0xbf267cee	-0.6503438
104	0xbf4e8e2e	-0.806857
105	0xbf83890d	-1.02762
106	0xbd7fadaf	-0.062421497
107	0xbf110485	-0.5664752
108	0x3dd7b2c5	0.105321445
109	0xbf359ca9	-0.7094217
110	0xbe4afd3a	-0.19823161
111	0xbe684f38	-0.2268647
112	0x3d9d54a5	0.0768216
113	0xbed39f03	-0.41332254
114	0xbf05ad1f	-0.52217287
115	0xbe8c077e	-0.27349466
116	0x3cac4d5a	0.021032978
117	0x3d3a6431	0.045505706
118	0xbe8bcd3b	-0.27305016
119	0xbeca315e	-0.3949079
120	0x3d744b6d	0.059642244
121	0x3d17a9b8	0.03702709
122	0x3ee52d98	0.44761348
123	0xbe6f7fba	-0.23388568
124	0xbe6d354c	-0.23164862
125	0xbed71a87	-0.42012426
126	0xbf3cca36	-0.7374605
127	0x3e1fcc3d	0.15605254
128	0xbe0bfbbe	-0.13670251
129	0xbe06999a	-0.13144532
130	0xbebdb992	-0.3705564
131	0xbe9736b3	-0.2953392
132	0x3f3f9f13	0.74852103
133	0xbf8670de	-1.0503194
134	0xbdf3bbc5	-0.119010486
135	0x3f278acd	0.6544617
136	0x3f0d334d	0.55156404
137	0xbf7b407d	-0.98145276
138	0xbfa47817	-1.2849149
139	0x3e980356	0.29690045
140	0x3dc7c5ea	0.09754546
141	0xbf407de1	-0.75192076
142	0xbf404c7b	-0.751167
143	0xbf5668dc	-0.8375375
144	0xbf13314f	-0.57497114
145	0xbee7ee1b	-0.45298848
146	0x3d5be839	0.05368826
147	0xbf1c4958	-0.61049414
148	0x3e887a15	0.2665564
149	0xbf456a40	-0.7711525
150	0xbf71a07e	-0.94385517
151	0xbd11acd9	-0.03556523
152	0xbf29053c	-0.6602361
153	0xbec550e0	-0.38538265
154	0xbf36164a	-0.7112776
155	0x3dcac633	0.09901085
156	0xbf0e6ea4	-0.55637574
157	0xbf4bf351	-0.79668146
158	0x3e71dc6e	0.23619244
159	0x3e43039f	0.1904435
160	0xbecd20be	-0.40064043
161	0x3ef990d1	0.487433
162	0x3f7e86c1	0.9942437
163	0xbe8ba1e9	-0.27271965
164	0xbea39a23	-0.31953534
165	0x3e156316	0.1458858
166	0xbef565a1	-0.479291
167	0xbb0e6555	-0.002172788
168	0xbee0af0a	-0.43883544
169	0x3e06547d	0.13118167
170	0xbd952a19	-0.0728342
171	0xbef4a3a0	-0.47781086
172	0x3f423f02	0.7587739
173	0xbeea3bf2	-0.4574886
174	0xbf1c73cb	-0.61114186
175	0xbf59f6b3	-0.8514206
176	0xbe4cd9e8	-0.20005
177	0xbe1140d6	-0.14184889
178	0xbd9a923a	-0.07547422
179	0xbdeb2868	-0.11482316
180	0x3e53f531	0.20699002
181	0xbf3bccc2	-0.7335931
182	0xbc8369bd	-0.01604163
183	0xbf2b216b	-0.66847867
184	0xbedf68ff	-0.43634793
185	0xbf0c4f1d	-0.5480822
186	0x3ead6137	0.33863232
187	0x3b6eab16	0.0036417893
188	0xbf4b1381	-0.79326636
189	0xbe8896c2	-0.2667752
190	0x3ea491b6	0.3214242
191	0x3ed7b373	0.42129096
192	0xbeee2454	-0.4651209
193	0xbf5eaa0f	-0.8697824
194	0x3f08a383	0.533745
195	0xbe76c985	-0.24100311
196	0xbe9e035d	-0.3086194
197	0xbde77ae0	-0.113027334
198	0x3efc4865	0.49273983
199	0x3f696e3d	0.91183835
200	0xbf848743	-1.0353779
201	0x3d914f25	0.07095174
202	0x3e7df97d	0.24802203
203	0xbf04f86b	-0.51941556
204	0xbe9b0752	-0.30279022
205	0xbf1d6932	-0.6148864
206	0x3f2c535a	0.67314684
207	0x3be8dffe	0.00710678
208	0x3e2edf2f	0.17077325
209	0x3e2ed68a	0.17074028
210	0xbec92434	-0.39285433
211	0xbf76fb11	-0.96476847
212	0x3d76defa	0.06027124
213	0xbebd202f	-0.36938617
214	0x3eea8f7f	0.45812604
215	0x3f8b11cc	1.0864806
216	0xbf1b1823	-0.60583705
217	0xbe33d098	-0.17560041
218	0xbf200694	-0.6251004
219	0xbe5b136f	-0.21394132
220	0x3e717234	0.23578721
221	0x3e80e285	0.2517282
222	0xbeaa6fb0	-0.33288336
223	0xbf325148	-0.69655275
224	0xbf79fb1e	-0.976488
225	0xbf455c1c	-0.7709367
226	0xbf9d3254	-1.2280984
227	0x3e90de6a	0.28294688
228	0xbf6e1a3d	-0.93008786
229	0xbf2845e9	-0.65731674
230	0xbe6cefa5	-0.23138292
231	0x3c6659e0	0.014059514
232	0x3ee00b0b	0.43758425
233	0xbef76c2d	-0.4832472
234	0x3d3f167c	0.046652302
235	0xbc37431c	-0.011185434
236	0x3e8c22de	0.27370352
237	0xbed0e3ce	-0.407988
238	0xbf20d452	-0.62823975
239	0xbf46608d	-0.77491075
240	0xbcf39d29	-0.029738026
241	0x3e2258b1	0.15854146
242	0xbe7e83bf	-0.24854945
243	0xbf074c87	-0.52851146
244	0xbf3359a3	-0.7005865
245	0x3eebb4e0	0.46036434
246	0x3f19a4fe	0.60017383
247	0x3d6ba4b1	0.05753011
248	0xbe489fef	-0.1959226
249	0x3e5e23f3	0.21693401
250	0x3e067af0	0.13132834
251	0xbd17d46c	-0.037067816
252	0xbe6798d2	-0.2261689
253	0xbf729c27	-0.9476952
254	0x3e6b61ca	0.22986522
255	0xbf0ff340	-0.56230545

conv4.bias f4 [32]
0	0x3ec7f553	0.39054355
1	0x3f7d8104	0.9902499
2	0xbf48eb8f	-0.78484434
3	0x3fe00237	1.7500676
4	0x3db6f149	0.0893274
5	0xbf4b30e1	-0.7937146
6	0x3f5e3932	0.86806023
7	0xbf3b8657	-0.7325186
8	0xbf3e4990	-0.74331
9	0xbf37bd73	-0.7177345
10	0xbfa5c5d1	-1.2950994
11	0xbf2fc497	-0.6865935
12	0xbfbaf6ca	-1.4606564
13	0x3f57f35b	0.84355706
14	0x3e355cb5	0.17711146
15	0xbe77f4ed	-0.24214526
16	0x3ef322c1	0.47487453
17	0xbee8dc56	-0.45480603
18	0xbdc51489	-0.096230574
19	0xbfaeb4a8	-1.3648882
20	0xbf024c1b	-0.5089738
21	0xbf967d94	-1.1757073
22	0xbf8b2f6f	-1.087385
23	0x3f5786aa	0.84189856
24	0xbfd3b957	-1.6540936
25	0x3f0f9409	0.5608526
26	0xbefcaaa6	-0.49348944
27	0xbfcbf082	-1.5932772
28	0x3ce4fbd7	0.027952118
29	0xbf66e8ea	-0.9019915
30	0x3e86534b	0.26235422
31	0x3f2e308e	0.6804284

conv5.weight f4 [32, 32, 5, 5]
0	0xbf47e097	-0.7807707
1	0xbe7bcb45	-0.2458926
2	0x3e6642e3	0.22486453
3	0x3e9dc95a	0.30817682
4	0x3f1347fb	0.5753171
5	0x3d9bb130	0.07602155
6	0xbeaaffc7	-0.33398268
7	0xbf7ab139	-0.9792667
8	0x3c06a607	0.008218295
9	0x3edd7f33	0.43261108
10	0x3ea01f7c	0.3127402
11	0xbe6a3c9a	-0.2287468
12	0xbf37a7ae	-0.71740234
13	0xbf09d5c8	-0.5384183
14	0xbdd7e882	-0.10542394
15	0x3eab35e1	0.33439544
16	0xbbdb78d8	-0.0066977553
17	0xbea00a31	-0.31257775
18	0xbf42dedb	-0.761213
19	0xbc05e519	-0.008172297
20	0xbf934f0b	-1.1508497
21	0xbf15eb77	-0.58562416
22	0xbea19690	-0.31560183
23	0xbf09e217	-0.5386061
24	0x3f1a5f4f	0.6030168
25	0x3f3c0e1a	0.7345902
26	0x3db874f7	0.09006684
27	0x3dee72b6	0.11642973
28	0x3e751a30	0.23935771
29	0xbec42484	-0.3830911
30	0x3eedd458	0.46451068
31	0x3d451c7f	0.04812288
32	0x3e51741c	0.20454448
33	0x3f1ee607	0.62069744
34	0x3e6d6c15	0.23185761
35	0x3b420efc	0.0029610982
36	0xbec1817e	-0.37794107
37	0xbe5cba6f	-0.21555494
38	0xbea75d01	-0.32688144
39	0xbe815b44	-0.25264943
40	0x3ebc6840	0.36798286
41	0xbee9d510	-0.45670366
42	0x3ef30fd5	0.47473016
43	0xbe7e66a7	-0.24843846
44	0x3c17bcbe	0.009261308
45	0x3edc68ac	0.43048608
46	0x3eae2b6a	0.34017497
47	0x3f035b32	0.5131103
48	0x3ec5ed88	0.38657784
49	0xbdb05ca0	-0.08611417
50	0xbf1e0e1c	-0.6174028
51	0xbeb62f62	-0.35583025
52	0x3e002445	0.12513836
53	0x3be656cd	0.0070293904
54	0xbf20af57	-0.6276755
55	0x3e96038f	0.2929959
56	0x3f0e7899	0.5565277
57	0xbd9ee512	-0.077585354
58	0x3d09d761	0.033652667
59	0xbeec9412	-0.4620672
60	0x3ed843ac	0.4223913
61	0x3e4590c8	0.19293511
62	0xbea9115c	-0.33021057
63	0x3eb07a9b	0.3446854
64	0xbe4c3747	-0.19942962
65	0x3f4e1ff3	0.805175
66	0xbfa964bf	-1.323387
67	0x3e667307	0.22504817
68	0xbe86682a	-0.26251346
69	0x3ea98c8a	0.33115035
70	0xbfade6aa	-1.3586018
71	0xbf64d044	-0.8938029
72	0x3ecd9235	0.4015061
73	0xbda2182d	-0.079147674
74	0x3f218226	0.63089216
75	0xbece71d1	-0.4032121
76	0x3f3ef5c8	0.7459378
77	0x3fc6275b	1.548076
78	0x3f8bcb3d	1.0921398
79	0x3ec35bb6	0.38155907
80	0xbe8e162e	-0.27751297
81	0xbe02d8fa	-0.12778082
82	0x3edfbb30	0.436975
83	0xbd234943	-0.03986479
84	0xbdeddc82	-0.11614324
85	0xbf4c2c74	-0.7975533
86	0xbf131882	-0.5745927
87	0xbda53ec9	-0.08068616
88	0xbed20553	-0.41019687
89	0xbd8ccdf3	-0.06875219
90	0xbeb9507a	-0.3619421
91	0xbecd684b	-0.40118632
92	0x3f5d1a07	0.8636784
93	0x3e48dd9e	0.1961579
94	0xbeb7ffb3	-0.3593727
95	0x3f028682	0.5098649
96	0xbc622d16	-0.013804695
97	0x3f8c2390	1.0948353
98	0x3f0896e3	0.53355235
99	0x3d30a51d	0.043126214
100	0x3d4cb59c	0.049977884
101	0x3f3e9fca	0.7446257
102	0xbd6722bf	-0.05642962
103	0xbf5f4d2c	-0.8722713
104	0x3e6e84be	0.23292825
105	0x3e96d0fa	0.2945631
106	0x3f785381	0.97002417
107	0x3f2c819b	0.6738526
108	0xbe736dae	-0.23772308
109	0x3e520448	0.20509446
110	0x3e94978d	0.29021874
111	0x3ec43810	0.38324022
112	0xbe305784	-0.17220885
113	0xbeaaa793	-0.33330974
114	0x3eadf2a1	0.33974174
115	0xbe8ded30	-0.27720022
116	0x3e9dc921	0.30817512
117	0xbf2fbb4a	-0.68645155
118	0xbf6e3881	-0.9305497
119	0xbde715e6	-0.11283474
120	0xbf4ea658	-0.8072257
121	0x3f1225ef	0.5708913
122	0xbdcd234d	-0.10016499
123	0x3eabf7a8	0.33587384
124	0xbed575c4	-0.4169141
125	0x3d4be093	0.049774718
126	0xbe978042	-0.2959004
127	0xbf6dd973	-0.92909926
128	0xbf8db069	-1.1069461
129	0xbf231a36	-0.6371187
130	0xbefb105f	-0.49035928
131	0xbe27a8dc	-0.16373008
132	0x3e7a94ec	0.24470872
133	0xbf1a4e7d	-0.60276014
134	0xbcb35127	-0.021889282
135	0xbfb65bcc	-1.4246764
136	0x3e781327	0.24226056
137	0xbf0c03fa	-0.5469357
138	0xbf54d15b	-0.8313195
139	0x3c8efb1d	0.017453725
140	0xbec6c611	-0.38822988
141	0xbf7f6d10	-0.9977579
142	0xbdb90d46	-0.09035735
143	0x3f14f52d	0.5818661
144	0x3b4dbe87	0.003139408
145	0x3e9077e5	0.28216472
146	0xbf195eaa	-0.5991007
147	0x3e7bacc8	0.2457763
148	0x3f46eeb0	0.7770796
149	0x3ef14f8e	0.47131008
150	0x3f368fd8	0.7131324
151	0x3ed71a57	0.42012283
152	0x3e4da480	0.20082283
153	0x3e50215e	0.20325229
154	0xbea7d21b	-0.32777485
155	0x3f3b6107	0.73194927
156	0x3f499182	0.7873765
157	0x3e9e08ae	0.30865997
158	0xbeb50b38	-0.35360122
159	0xbdd1bb37	-0.102407865
160	0xbf0f7026	-0.560305
161	0xbfb41bc9	-1.4070979
162	0xbe8b9cdd	-0.27268115
163	0x3f2829a7	0.65688556
164	0xbe5c9c15	-0.21543916
165	0x3da3ada4	0.07992104
166	0xbf4ab7da	-0.79186785
167	0xbec8f206	-0.3924715
168	0xbe08c9be	-0.13358209
169	0xbd9ec326	-0.07752065
170	0x3f3e8418	0.7442031
171	0xbbffc6e7	-0.0078056934
172	0x3d5907e1	0.05298603
173	0xbf0f9e32	-0.5610076
174	0x3ee631ee	0.44959968
175	0xbdcfce75	-0.101468004
176	0xbda49227	-0.08035689
177	0x3ec0617a	0.3757437
178	0x3f0ed6ae	0.55796325
179	0xbf2d70bd	-0.6775015
180	0xbefa72a0	-0.48915577
181	0xbf0ef5ba	-0.558437
182	0xbdc9e647	-0.09858375
183	0xbec561a2	-0.3855105
184	0xbe94ce44	-0.29063618
185	0xbf7a5164	-0.9778044
186	0xbeee04b7	-0.46487972
187	0xbd267a25	-0.04064383
188	0xbec92724	-0.39287674
189	0x3e1fe1ef	0.1561353
190	0xbf00ce20	-0.5031452
191	0xbe8bdb3d	-0.27315703
192	0xbe95a602	-0.29228216
193	0xbf365893	-0.71228904
194	0xbedbc17c	-0.42921054
195	0xbf33d0d5	-0.7024053
196	0xbf2f2946	-0.68422353
197	0xbd2100b7	-0.039307322
198	0xbecb32b7	-0.3968713
199	0xbddbb374	-0.10727587
200	0x3ea7f380	0.32802963
201	0xbf7554c5	-0.95832473
202	0xbf2fdaff	-0.68693537
203	0xbfab89d7	-1.340144
204	0xbfa89705	-1.3171088
205	0x3f020e18	0.50802755
206	0x3c2ab1d1	0.010418371
207	0xbf12538b	-0.57158726
208	0xbea85b98	-0.3288238
209	0x3dea5b44	0.11443189
210	0x3ee6cea9	0.45079544
211	0x3ed1ee4b	0.41002116
212	0xbd71dbe8	-0.05904761
213	0xbeea5b24	-0.4577266
214	0xbefcf867	-0.49408266
215	0xbf040279	-0.5156627
216	0xbf3cd9a2	-0.7376958
217	0xbf838c36	-1.0277164
218	0xbe242972	-0.16031435
219	0xbf33c591	-0.7022334
220	0x3ef69ace	0.48164982
221	0xbf1a0cf5	-0.6017602
222	0xbf1776b0	-0.5916548
223	0xbdb7acf9	-0.08968539
224	0x3e3ad51b	0.18245356
225	0x3e8f1b00	0.27950287
226	0xbe5c0294	-0.21485358
227	0xbf82a431	-1.0206357
228	0xbef8ab3a	-0.48568135
229	0xbe995cd3	-0.29953632
230	0x3f1a7e5b	0.60349053
231	0x3e0cde80	0.13756752
232	0xbdcc8ca5	-0.09987763
233	0xbcf9b786	-0.030483019
234	0x3e30d63d	0.17269225
235	0x3f21d94e	0.63222206
236	0x3e14d9e4	0.14536244
237	0xbebeb01c	-0.37243736
238	0xbf2b9e62	-0.6703855
239	0xbdc9b2fd	-0.098485924
240	0xbf1545cb	-0.5830962
241	0x3e595369	0.21223225
242	0x3decd4b4	0.115640074
243	0xbe8853b2	-0.26626354
244	0xbf4afe90	-0.7929468
245	0xbf699273	-0.9123909
246	0xbf190a72	-0.59781563
247	0x3ec829de	0.39094442
248	0xbe94324e	-0.2894463
249	0xbf004131	-0.50099474
250	0xbe412b00	-0.1886406
251	0xbf9839b1	-1.1892606
252	0xbf1e2a67	-0.6178345
253	0xbed34ee0	-0.41271114
254	0xbf006a11	-0.50161844
255	0xbe971388	-0.2950709

conv5.bias f4 [32]
0	0x40161e72	2.3456082
1	0x4026a8de	2.6040568
2	0xbe962934	-0.2932831
3	0xbe2303b5	-0.15919383
4	0x3f9c90bf	1.2231673
5	0xbf715d98	-0.9428344
6	0xbea0d2f4	-0.31410944
7	0x3ea2e2cd	0.3181366
8	0x3d2c09ff	0.04200172
9	0x4002e6af	2.0453298
10	0xbefe996d	-0.4972643
11	0x3ffdb177	1.9819783
12	0x3fad4471	1.3536512
13	0x3ead2e6b	0.33824477
14	0xbf4393d1	-0.76397425
15	0x4020a9e1	2.5103686
16	0xbf920c25	-1.1409956
17	0x3f131a15	0.57461673
18	0x3fd15cc3	1.6356434
19	0x3f33aa0d	0.7018135
20	0xbdc41c8a	-0.09575756
21	0x3fd2b71a	1.6462128
22	0xbf58121f	-0.8440265
23	0x40211521	2.5169146
24	0x401154c6	2.2707992
25	0x3eed37cb	0.4633163
26	0xbf544bbb	-0.82928056
27	0x3ffd664f	1.9796847
28	0x3f42b0b0	0.76050854
29	0x3f8fcd1c	1.123447
30	0xbf23a6e2	-0.6392652
31	0x3e91a9b9	0.284498

conv6.weight f4 [32, 32, 5, 5]
0	0xbe804dfc	-0.25059497
1	0xbf3d2fcf	-0.73901075
2	0xbf614d67	-0.8800873
3	0xbf6b44a8	-0.91901636
4	0xbf773702	-0.9656831
5	0xbede0e13	-0.43370113
6	0xbf20d0d3	-0.6281864
7	0xbf739f0e	-0.95164573
8	0xbf9ad791	-1.2097036
9	0xbf960653	-1.172068
10	0xbea849af	-0.32868716
11	0xbf1364d9	-0.57575756
12	0xbf5dce17	-0.86642593
13	0xbf598327	-0.8496575
14	0xbf5e285d	-0.8678034
15	0xbf15baac	-0.58487964
16	0xbf19c880	-0.60071564
17	0xbf55b891	-0.8348475
18	0xbf899f54	-1.0751748
19	0xbf99c1df	-1.201229
20	0xbef76daa	-0.48325855
21	0xbf1902b5	-0.59769756
22	0xbef159d8	-0.47138858
23	0xbf3c3ce3	-0.73530406
24	0xbf7bb49c	-0.98322463
25	0xbece5e06	-0.4030611
26	0xbf0e2f8d	-0.55541307
27	0xbf65b983	-0.89736193
28	0xbf1c5d6d	-0.61080056
29	0xbf1d72fb	-0.6150357
30	0xbeed2931	-0.4632049
31	0xbee56dbc	-0.44810283
32	0xbf39ee82	-0.7262956
33	0xbf2aa89c	-0.6666353
34	0xbf4b5b68	-0.7943635
35	0xbefd3ce4	-0.49460518
36	0xbf4a9587	-0.7913441
37	0xbf7b7d52	-0.982381
38	0xbf681cd0	-0.90668964
39	0xbf5ccb6a	-0.86247885
40	0xbf55b187	-0.8347401
41	0xbf874513	-1.0567955
42	0xbf6bc227	-0.9209313
43	0xbf83fef4	-1.031218
44	0xbf84feab	-1.0390218
45	0xbf0aea97	-0.54264206
46	0xbf39703c	-0.7243688
47	0xbf33856e	-0.7012547
48	0xbf26ad05	-0.65107757
49	0xbf3b9023	-0.7326681
50	0xbe736b00	-0.23771286
51	0xbe568293	-0.20948248
52	0xbeaad004	-0.33361828
53	0xbe968d53	-0.29404697
54	0xbf0fb39f	-0.56133455
55	0xbeca2971	-0.39484742
56	0xbf6288b8	-0.88489866
57	0xbf21b4d6	-0.6316656
58	0xbf1012cd	-0.5627869
59	0xbeb3cacc	-0.3511566
60	0xbf0ec49b	-0.55768746
61	0xbf25ef7d	-0.64818555
62	0xbf7772b1	-0.9665938
63	0xbf27a911	-0.6549235
64	0xbf3c6f85	-0.73607665
65	0xbee24cfd	-0.44199362
66	0xbeb77df7	-0.3583829
67	0xbeddd2ea	-0.43324977
68	0xbef0cce2	-0.47031313
69	0xbf91afbe	-1.1381757
70	0xbf6fe527	-0.93709034
71	0xbf003d57	-0.500936
72	0xbf8d5c5c	-1.1043811
73	0xbf4be869	-0.79651505
74	0xbf8fc356	-1.1231487
75	0xbefca8ef	-0.49347636
76	0x3d182459	0.03714404
77	0xbef5733c	-0.4793948
78	0xbe95aaa4	-0.2923175
79	0xbef84545	-0.48490348
80	0xbf153fc5	-0.5830043
81	0xbea2c3f7	-0.31790134
82	0xbee5d4e2	-0.4488898
83	0xbf156448	-0.5835614
84	0xbec7ec4a	-0.39047462
85	0xbf3c9d48	-0.7367749
86	0xbeb9bcc6	-0.36276835
87	0xbe80fa31	-0.2519088
88	0xbf31e3bb	-0.69488114
89	0xbf126db1	-0.57198626
90	0xbe4e97b9	-0.20175065
91	0xbe86e7ed	-0.2634882
92	0xbec2cd80	-0.3804741
93	0xbf146757	-0.57970184
94	0xbecaaee9	-0.3958657
95	0xbf267ee6	-0.6503738
96	0xbec6d777	-0.38836262
97	0xbef133d6	-0.4710986
98	0x3d6d1ed9	0.057890747
99	0xbf5f34e8	-0.87190104
100	0xbe38ab0e	-0.18034002
101	0xbf42fdec	-0.76168704
102	0xbf08f301	-0.53495795
103	0xbe8990e6	-0.2686836
104	0xbea0cc5d	-0.31405917
105	0xbec84fc7	-0.39123365
106	0xbe786302	-0.24256518
107	0xbea377b0	-0.31927252
108	0xbe3c92f7	-0.18415438
109	0xbe9c9a5f	-0.30586526
110	0xbf03fc23	-0.51556605
111	0xbf174dab	-0.59102887
112	0xbf208306	-0.62699926
113	0xbeb5dcd5	-0.35520044
114	0xbf275e2e	-0.6537808
115	0xbf194107	-0.5986485
116	0xbf2722c1	-0.65287405
117	0xbecb634e	-0.397242
118	0xbf06e7da	-0.5269753
119	0xbf160b9a	-0.5861145
120	0xbeee1131	-0.4649749
121	0xbefb0ab9	-0.49031618
122	0xbe25832f	-0.16163324
123	0xbf6f2eb3	-0.9343063
124	0xbf89d2a5	-1.0767409
125	0x3ea0b5d5	0.31388727
126	0x3e809d33	0.25119933
127	0x3f0484d6	0.5176519
128	0x3f16ce32	0.5890838
129	0x3e0dc4cd	0.13844605
130	0x3dc41b39	0.09575505
131	0xbe014c3f	-0.12626742
132	0xbdd02049	-0.10162408
133	0xbd85931e	-0.06522201
134	0xbf5f4328	-0.8721185
135	0xbec83f90	-0.39110994
136	0xbefedac6	-0.49776286
137	0xbf1a64aa	-0.6030985
138	0xbf5437da	-0.8289772
139	0xbf8438fd	-1.0329891
140	0xbe8e5b89	-0.2780421
141	0xbe87aaea	-0.26497585
142	0xbf111986	-0.5667957
143	0xbebad0cd	-0.36487427
144	0xbf97852a	-1.1837513
145	0xbf76c4f0	-0.9639425
146	0xbec99ea6	-0.39378852
147	0xbefd4cf3	-0.4947277
148	0xbf4bf060	-0.7966366
149	0xbf59dd97	-0.85103744
150	0x3c9a5a2c	0.018841825
151	0xbdfbb501	-0.12290383
152	0xbeb37f83	-0.3505822
153	0xbecaa740	-0.39580727
154	0xbf2e750b	-0.68147343
155	0xbeb027e4	-0.34405434
156	0xbebe72d1	-0.37196973
157	0xbf25da1d	-0.6478594
158	0xbf3319ce	-0.6996125
159	0xbf1b6e52	-0.6071521
160	0xbf20f0bc	-0.6286733
161	0xbf116050	-0.56787586
162	0xbebc9685	-0.36833587
163	0xbf0e20f2	-0.5551902
164	0xbefcc3c8	-0.4936812
165	0xbf1904a5	-0.5977271
166	0xbf57cae2	-0.8429395
167	0xbf1d139c	-0.61358047
168	0xbf1052d0	-0.5637636
169	0xbf539afd	-0.8265837
170	0xbf16f298	-0.5896392
171	0xbf101b8e	-0.56292045
172	0xbf2755d9	-0.6536537
173	0xbea3d85f	-0.32001016
174	0xbf729548	-0.94759035
175	0xbe76bce2	-0.2409549
176	0xbef8cc27	-0.48593256
177	0xbf0bc109	-0.54591423
178	0xbc776ab9	-0.015101128
179	0xbea383a0	-0.3193636
180	0xbf2d98db	-0.67811364
181	0xbf22d0af	-0.63599676
182	0xbf3783e4	-0.71685624
183	0xbf538c92	-0.8263637
184	0xbf7f5a07	-0.99746746
185	0xbf1bec3a	-0.6090733
186	0xbe544583	-0.20729642
187	0xbe87b59f	-0.26505753
188	0xbef66414	-0.4812323
189	0xbeabc27c	-0.33546817
190	0xbef27d63	-0.47361287
191	0xbf111e11	-0.566865
192	0xbf3015be	-0.68783176
193	0xbf00532b	-0.50126904
194	0xbf4f90da	-0.810804
195	0xbf373c61	-0.71576506
196	0xbf392d3b	-0.7233464
197	0xbf3006d3	-0.6876041
198	0xbf36fcc3	-0.71479434
199	0xbf5ee8dc	-0.87074065
200	0xbf175e37	-0.59128135
201	0xbed24278	-0.41066337
202	0xbf1cf2ef	-0.6130819
203	0xbecf376e	-0.40471977
204	0xbe7d48bc	-0.24734777
205	0xbebebcc3	-0.3725339
206	0xbe15e8a0	-0.1463952
207	0xbe2b1b7c	-0.16709703
208	0xbe267d48	-0.16258729
209	0xbdf4b840	-0.119492054
210	0xbf02c1d0	-0.51076984
211	0xbf112e1a	-0.5671097
212	0xbd8c1fe8	-0.06842023
213	0xbdc78604	-0.09742358
214	0x3dcda1ff	0.10040664
215	0xbdc0909c	-0.09402582
216	0x3d25735b	0.040393215
217	0xbf166df9	-0.58761555
218	0xbe1d423a	-0.15357295
219	0x3d9d592c	0.07683024
220	0xbf16fa14	-0.5897534
221	0xbeec4bba	-0.46151525
222	0xbf2847a9	-0.65734345
223	0xbf4e5164	-0.8059294
224	0xbe7ab0b8	-0.24481475
225	0xbf1b84f9	-0.60749775
226	0xbf44eec2	-0.76926816
227	0xbf821f3b	-1.0165781
228	0xbf49b118	-0.7878585
229	0xbf4a2640	-0.78964615
230	0xbeec43ec	-0.4614557
231	0xbe6edb25	-0.23325785
232	0xbf2cfd4c	-0.67574
233	0xbf07166d	-0.52768594
234	0xbef164ec	-0.4714731
235	0xbf702243	-0.9380228
236	0xbf38d66f	-0.722022
237	0xbf4f2d74	-0.8092873
238	0xbe601733	-0.2188385
239	0xbf1fcd58	-0.62422705
240	0xbf7dc79b	-0.991327
241	0xbf619f77	-0.8813395
242	0xbf2980f0	-0.6621237
243	0xbf43e11c	-0.76515365
244	0xbedae215	-0.42750612
245	0xbf87fed9	-1.0624648
246	0xbf26f8f2	-0.6522361
247	0xbf1f142d	-0.6214016
248	0xbf4ad2db	-0.7922799
249	0xbf08f82b	-0.53503674
250	0xbe91ef2d	-0.2850279
251	0xbef87d23	-0.48532972
252	0xbf506666	-0.8140625
253	0xbf2d853f	-0.6778144
254	0xbf1d58d5	-0.6146367
255	0xbf66465e	-0.8995112

conv6.bias f4 [32]
0	0xc0515439	-3.2707655
1	0x3d88bd6f	0.066767566
2	0xbf920bf1	-1.1409894
3	0x3d94dd8d	0.0726882
4	0xc02852e7	-2.63006
5	0x404f9bb8	3.2438793
6	0xbfce8a61	-1.613598
7	0xbe4f643b	-0.20253079
8	0xbfc29f3d	-1.5204846
9	0xbfcdf175	-1.6089312
10	0xc04d0bda	-3.2038484
11	0x40220b19	2.5319273
12	0x3d8267cf	0.06367456
13	0x3ff33ed5	1.900355
14	0xc054abcc	-3.3229856
15	0x3f68b881	0.9090653
16	0x3f445dc8	0.767056
17	0x40074736	2.1137214
18	0x4036255f	2.846031
19	0x403a6412	2.9123578
20	0xc00d7e59	-2.2108366
21	0xbe909de2	-0.28245455
22	0x4024c73d	2.5746605
23	0xc053aa72	-3.3072782
24	0xc02a935f	-2.6652448
25	0xbfb1d2ea	-1.3892491
26	0x3f9c6544	1.2218404
27	0x401391d4	2.3057756
28	0xbfb0286b	-1.3762335
29	0xbd752a0d	-0.059854556
30	0xbe4dadea	-0.20085874
31	0xbf9440c2	-1.1582263
