v1/models/saved/dqn_cnn_2.pth (torch, 919059 bytes, 22 tensors)

weight f4 [32, 1, 5, 5]
0	0x3efe2098	0.49634242
1	0xbf106cef	-0.5641622
2	0xbfcc89d7	-1.5979565
3	0x3ed031c9	0.40662983
4	0xb89a76ea	-7.365442e-05
5	0x3f4336cd	0.76255494
6	0xbf808080	-1.0039215
7	0xbf9dfb79	-1.2342368
8	0xbcbfabd6	-0.023397367
9	0x3e14dcbc	0.14537328
10	0xbe865517	-0.26236793
11	0xbf527c19	-0.8222061
12	0xbf804146	-1.001992
13	0x3eb5d9f5	0.3551785
14	0x3dedf459	0.11618871
15	0x3f449a23	0.76797694
16	0xbeebd934	-0.4606415
17	0xbf31decf	-0.69480604
18	0x3f2b374f	0.6688127
19	0x3f1a7934	0.6034119
20	0x3faa1b28	1.3289537
21	0x3eef6347	0.4675543
22	0xbe6b691b	-0.22989313
23	0x3efb4b99	0.49081114
24	0x3f75f3a4	0.9607489
25	0xbe831806	-0.25604266
26	0xbe9f1c9c	-0.31076515
27	0xbfca417b	-1.5801233
28	0x3efb23ba	0.49050695
29	0x3f19e363	0.6011259
30	0xbf219ae4	-0.6312697
31	0xbe56b28d	-0.20966549
32	0xbf4ba99a	-0.79555666
33	0x3e85529c	0.26039588
34	0x3ef28c28	0.47372556
35	0xbf4b007f	-0.7929763
36	0x3ec2ffcc	0.38085783
37	0xbeaeb262	-0.3412047
38	0xbf4e69c4	-0.80630136
39	0x3e54fb92	0.20799091
40	0x3fcc5d8c	1.5966048
41	0xbe205add	-0.15659662
42	0xbe9b9890	-0.30389833
43	0xbf302d7a	-0.6881939
44	0x3be36b5f	0.00694029
45	0x3d82b939	0.06382985
46	0x3f69f1f3	0.9138481
47	0xbf8672ea	-1.0503819
48	0xbfaca211	-1.3486959
49	0xbe86465f	-0.26225564
50	0xbf05577e	-0.5208663
51	0xbc8358a3	-0.016033476
52	0xbe302349	-0.1720096
53	0xbfa1f70d	-1.2653519
54	0x3f02374f	0.50865644
55	0xbf8a388b	-1.0798506
56	0x3f189efb	0.59617585
57	0xbe4c01aa	-0.1992251
58	0xbf84cd24	-1.0375104
59	0x3ec0657f	0.37577435
60	0xbdf95bb7	-0.12175696
61	0x3e3469f4	0.17618543
62	0xbeb735e3	-0.357833
63	0xbf8a781b	-1.0817903
64	0xbe230356	-0.15919241
65	0x3e4831c9	0.19550242
66	0xbf268fec	-0.6506336
67	0xbea740e1	-0.32666686
68	0x3f2090cc	0.6272094
69	0xbed3c61f	-0.41362092
70	0x3e9fb739	0.31194475
71	0x3dc8f9c0	0.09813261
72	0xbee02fcb	-0.43786463
73	0x3e91ada7	0.284528
74	0x3e50bf4e	0.20385477
75	0xbf334582	-0.70027936
76	0xbf41c2ab	-0.75687665
77	0xbdfed708	-0.12443358
78	0xbf28bbc1	-0.6591149
79	0xbdd0c25f	-0.10193323
80	0xbd281eda	-0.041045047
81	0xbfba43f5	-1.4551989
82	0xbca7c037	-0.020477397
83	0xbf06d7fa	-0.52673304
84	0xbf057791	-0.5213557
85	0xbfa5eba3	-1.2962536
86	0x3e953e02	0.2914887
87	0xbf84169c	-1.03194
88	0x3f339ad7	0.7015814
89	0xbf29f087	-0.6638264
90	0x3df60611	0.12012876
91	0xbd89a8f1	-0.06721676
92	0xbdeb62cf	-0.114934556
93	0x3ea83223	0.3285075
94	0xbfa248c4	-1.2678456
95	0xbd9faeef	-0.07797038
96	0x3f675590	0.90364933
97	0x3ceff856	0.02929322
98	0x3e8c8bdf	0.27450463
99	0xbf486873	-0.78284377
100	0xbffc50cb	-1.9712156
101	0x3e7f2a45	0.24918468
102	0x3edee2b6	0.43532342
103	0x3f68e36b	0.9097201
104	0x3f1e24e2	0.6177503
105	0xbfe07e4c	-1.7538543
106	0x3ce6464e	0.028109696
107	0x3f2237d3	0.6336643
108	0x3e97b0d1	0.29627088
109	0xbf3e8905	-0.74427825
110	0x38006584	3.0612122e-05
111	0xbf4d2582	-0.8013536
112	0x3e3119ef	0.17295049
113	0x3b2f94a7	0.0026791485
114	0xbfb34ab0	-1.4007168
115	0xbf456043	-0.7710001
116	0x3d7bab36	0.061442576
117	0xbeb9418e	-0.36182827
118	0x3e71e271	0.23621537
119	0xbfb456c6	-1.4088981
120	0xbf1a32a1	-0.60233504
121	0x3ed7f667	0.42180178
122	0x3f233ac6	0.63761556
123	0x3f26381c	0.64929366
124	0xbe6751cd	-0.22589798
125	0xbf7deb0b	-0.9918677
126	0xbf312fba	-0.6921345
127	0xbe5080d1	-0.2036164
128	0x3c306227	0.010765589
129	0xbe51c89c	-0.20486683
130	0x3f9d754d	1.2301422
131	0x3f4611d9	0.77370983
132	0x3f0c4d01	0.54805
133	0x3f74bac8	0.95597506
134	0xbdef0533	-0.116709135
135	0x3f88f4dc	1.0699725
136	0x3f03c6e9	0.5147539
137	0x3f8644b6	1.0489719
138	0x3fac12bb	1.3443216
139	0x3f2bad55	0.6706136
140	0xbee6d48c	-0.45084035
141	0xbf6201a1	-0.88283736
142	0xbef79175	-0.48353162
143	0x3e909b28	0.28243375
144	0x3eb2cea6	0.34923285
145	0xbdfe0ab3	-0.124043845
146	0xbd4cc4ed	-0.04999249
147	0xbf56586c	-0.8372867
148	0xbe8607fa	-0.2617796
149	0x3e7409c2	0.23831847
150	0x3e19e96e	0.15030453
151	0x3e9c5225	0.3053142
152	0x3e65fe9e	0.2246041
153	0x3ea0ec90	0.31430483
154	0x3e5e656c	0.21718377
155	0xbf2a7530	-0.66585064
156	0xbe8d4850	-0.27594233
157	0xbe295693	-0.16536932
158	0xbebef8c9	-0.37299183
159	0xbe85ffa3	-0.26171598
160	0xbf34e21c	-0.70657516
161	0xbf0e45ba	-0.55575144
162	0xbf80a708	-1.0050974
163	0xbf25b309	-0.6472631
164	0xbecfe41d	-0.40603724
165	0x3f0938f8	0.5360255
166	0x3e780e7b	0.24224274
167	0xbf086d9b	-0.53292245
168	0xbe567d53	-0.20946245
169	0xbee5d4a4	-0.44888794
170	0x3dd3962c	0.103313774
171	0x3e486ffc	0.19573969
172	0x3c986490	0.01860264
173	0x3e287325	0.16450174
174	0xbc99a04a	-0.01875319
175	0xbf3ee2e4	-0.7456496
176	0x3ef7f18c	0.48426473
177	0x3f29197e	0.66054523
178	0xbfca57e3	-1.5808071
179	0xbee3d17c	-0.4449576
180	0x3ec104c7	0.37698957
181	0xbf937f20	-1.152317
182	0x3e443d05	0.19163902
183	0xbf9ef84b	-1.2419523
184	0x3ef5c052	0.4799829
185	0xbf9d2236	-1.2276065
186	0xbcf5b324	-0.029992647
187	0x3e824832	0.25445706
188	0x3c876866	0.016529273
189	0x3e580ae9	0.21097912
190	0xbf8e341c	-1.1109653
191	0x3f35b491	0.7097865
192	0x3f52aac2	0.82291806
193	0x3d95ec50	0.07320464
194	0xbe86d253	-0.2633234
195	0xbf2e85bc	-0.6817281
196	0xbf1d726c	-0.6150272
197	0xbeb9711c	-0.36219108
198	0xbe023d43	-0.12718682
199	0x3da354a3	0.079751275
200	0xbec7fccd	-0.3906006
201	0xbf2327a4	-0.6373236
202	0x3f597618	0.8494582
203	0xbf0701d6	-0.52737176
204	0xbf6f939e	-0.9358462
205	0x3f80e50e	1.0069902
206	0xc003dfe0	-2.0605392
207	0xb9ad607e	-0.00033069024
208	0x3eab8321	0.3349848
209	0xbe6ccabc	-0.23124212
210	0x3e95c490	0.29251528
211	0xbf783bfc	-0.9696653
212	0x3e45976a	0.19296041
213	0xbf24ea94	-0.6442044
214	0x3d075975	0.033044297
215	0x3ce2bf0a	0.027678985
216	0x3f40bb0d	0.75285417
217	0x3e20510f	0.15655921
218	0xbf2e8bfc	-0.6818235
219	0x3e70d9d3	0.23520593
220	0x3de89a37	0.11357539
221	0x3f159384	0.58428216
222	0xbe59d134	-0.21271211
223	0x3f5648b7	0.83704704
224	0x3df492a4	0.11942032
225	0xbf17f815	-0.5936292
226	0x3e9b3427	0.30313227
227	0xbf538708	-0.82627916
228	0x3e491ad0	0.19639134
229	0x3d3fdaca	0.046839513
230	0x3f2dbdc9	0.67867714
231	0xbd9d2f4c	-0.07675037
232	0xbf46d5e9	-0.7767015
233	0xbf287d1b	-0.65815896
234	0xbd16b558	-0.036794037
235	0x3ef9596f	0.48701045
236	0xbc735db0	-0.01485388
237	0xbfc90f80	-1.5707855
238	0xbe11d616	-0.14241824
239	0x3f0e0a94	0.5548489
240	0xbf83b627	-1.0289963
241	0xbe689b85	-0.22715576
242	0xbf964197	-1.1738766
243	0x3f2e2e37	0.6803927
244	0x3e1347c9	0.14382853
245	0xbf2d4028	-0.6767602
246	0x3d0fe3c3	0.03512932
247	0xbf62829d	-0.8848055
248	0x3f29d05e	0.6633357
249	0x3eb32567	0.34989473
250	0xbf4c6102	-0.7983552
251	0xbe91dfd4	-0.2849108
252	0xbf3a063e	-0.72665775
253	0xbe95067e	-0.29106516
254	0x3f440782	0.76573956
255	0xbfcef294	-1.6167779

bias f4 [32]
0	0x3f854714	1.0412316
1	0x3e14baf4	0.14524442
2	0x3e264f78	0.16241252
3	0x3f109f3a	0.5649296
4	0x3df7abdd	0.12093327
5	0xbfb341b7	-1.400443
6	0xbed0a147	-0.40748045
7	0xbf083f21	-0.5322133
8	0x3f07f3f8	0.5310664
9	0xbc90faaa	-0.017697651
10	0xbf911436	-1.1334293
11	0xbf500068	-0.8125062
12	0xbe43e9a8	-0.19132102
13	0x3ec080a3	0.37598142
14	0x3f1b8a3b	0.607578
15	0x3eb2050f	0.34769484
16	0xbeb46e45	-0.3524038
17	0xbe045af6	-0.12925324
18	0x3ea4df48	0.322016
19	0x3e169624	0.14705712
20	0x3dfe0a82	0.12404348
21	0xbf1359a4	-0.57558656
22	0x3f016927	0.50551075
23	0xbf9cd3c8	-1.225213
24	0x3e8a7e8f	0.27049682
25	0x3f8b9b61	1.0906793
26	0x3eadac4d	0.33920518
27	0x3e90004a	0.2812522
28	0x3e93ba83	0.28853235
29	0xbf1ff0b1	-0.6247664
30	0x3e798934	0.24368745
31	0xbf67808a	-0.9043051

weight f4 [32, 32, 5, 5]
0	0xbf8f719b	-1.1206545
1	0xc021db30	-2.5290031
2	0xc01983c5	-2.3986676
3	0xc0115253	-2.2706497
4	0xc0146c21	-2.3190997
5	0xbfe44249	-1.7832729
6	0xbf88432d	-1.06455
7	0xc001b17f	-2.0264585
8	0xbfba3931	-1.4548703
9	0xbfe835bb	-1.8141397
10	0xbf064a1f	-0.5245685
11	0x3f53888d	0.82630235
12	0x3fb030de	1.3764913
13	0x3fac5c01	1.3465577
14	0x3e92c358	0.2866466
15	0x3c543ee4	0.012954447
16	0x3f74e365	0.95659477
17	0x3ed4f10d	0.41590157
18	0xbded7c26	-0.11595945
19	0x3e788617	0.24269901
20	0xbede3dc6	-0.43406504
21	0x3f833eb8	1.0253515
22	0x3e9de317	0.30837318
23	0x3d1f3bfa	0.038875557
24	0x3e2831e9	0.16425289
25	0xbe069bc2	-0.13145354
26	0xbe2a99b5	-0.16660197
27	0xbf834ed8	-1.0258436
28	0xbf128aaf	-0.57242864
29	0xbfbbb055	-1.4663187
30	0x3de60468	0.11231309
31	0x3e37c33d	0.17945571
32	0xbfc7dc93	-1.5614189
33	0x3d7d9758	0.06191191
34	0xbfadaf43	-1.3569111
35	0x3f4cfed1	0.8007632
36	0x3eeea120	0.46607304
37	0x3ed12461	0.40848067
38	0x3f8accd9	1.0843765
39	0xbf388762	-0.7208158
40	0xbe790ded	-0.24321719
41	0xbe8afd75	-0.27146497
42	0x3e63f681	0.22262003
43	0x3f306cac	0.6891582
44	0xbce35f51	-0.027755411
45	0xc0159110	-2.336979
46	0xbfabe032	-1.3427794
47	0x3f263d7f	0.64937586
48	0xbf143bf2	-0.5790397
49	0xbd1c434f	-0.038150128
50	0x3eda464a	0.4263175
51	0x3dae2fa5	0.08505181
52	0xbdcd204b	-0.10015925
53	0xbf215d71	-0.63033205
54	0xbd41563b	-0.047201376
55	0xbdcb8873	-0.09938135
56	0xbf0c4a27	-0.5480065
57	0x3d8cbfe7	0.0687254
58	0xbf8ac99d	-1.0842777
59	0xbf0e274d	-0.5552872
60	0xbf2b62b7	-0.669475
61	0xbf116fc3	-0.5681116
62	0xbe0ac5f8	-0.13552082
63	0xbf36695c	-0.71254516
64	0xbf14d897	-0.5814299
65	0xbf988f48	-1.1918726
66	0xbf549590	-0.83040714
67	0xbf86e3dc	-1.0538287
68	0xbe6bb00a	-0.23016372
69	0xbc8b4f33	-0.017005539
70	0xbf739b1b	-0.9515855
71	0xbfc8fdd3	-1.5702461
72	0xbf5548cc	-0.83314204
73	0xbf4edc9a	-0.8080536
74	0xbeefc3b7	-0.46829006
75	0xbf459c97	-0.7719206
76	0xbfb36c44	-1.4017415
77	0xc001ba2a	-2.0269876
78	0xbfd6cb3d	-1.6780773
79	0xbfb2c054	-1.3964944
80	0xbedf83f9	-0.43655375
81	0xbebd2aee	-0.36946815
82	0xbf1c6d30	-0.61104107
83	0xbf5e4982	-0.86830914
84	0x3ebd6901	0.36994174
85	0xc0044557	-2.0667322
86	0xbef07f07	-0.46971914
87	0x3f040a47	0.5157818
88	0xbf808e63	-1.0043453
89	0x3f0d179d	0.55114156
90	0xbf2f0786	-0.68370855
91	0xbfb30f3f	-1.3989028
92	0xbf736e1d	-0.95089895
93	0xbfb4ce6b	-1.4125494
94	0xbdf25997	-0.11833494
95	0xbfbda5b9	-1.48162
96	0xbff07937	-1.8786992
97	0xbf8d8315	-1.1055628
98	0xc00e85f8	-2.2269268
99	0xbfa84218	-1.314517
100	0xc013b2aa	-2.3077798
101	0xbfbab894	-1.4587579
102	0xbf3082ae	-0.689494
103	0xbfb082bb	-1.3789896
104	0xbf24a513	-0.64314383
105	0xbf396a09	-0.7242742
106	0xbf7dec8b	-0.9918906
107	0xbfe3dc60	-1.7801628
108	0xbfb84851	-1.4397069
109	0x3dd72d31	0.105066665
110	0xbe2e9778	-0.17049968
111	0x3ea46895	0.3211104
112	0x3e7327f4	0.2374571
113	0xbfa573cd	-1.2925965
114	0xbe2e407d	-0.17016788
115	0xbf959b04	-1.1687932
116	0xbf8d25c0	-1.1027145
117	0xbf1f8883	-0.62317675
118	0xbf9d84d7	-1.2306165
119	0x3e62533e	0.22102067
120	0xbf366b2d	-0.7125729
121	0x3f6f3f0c	0.93455577
122	0x3e91582b	0.2838758
123	0xbfa00c6f	-1.2503794
124	0xbfbcb0c6	-1.4741447
125	0x3eb3eea3	0.35143003
126	0x3dc9a961	0.098467596
127	0xbe649322	-0.22321752
128	0x3f40e1b2	0.75344384
129	0x3d9b5738	0.07584995
130	0xbf2da49d	-0.67829305
131	0xbf435c47	-0.7631268
132	0xbebd8ddf	-0.37022302
133	0xbdf90e00	-0.121608734
134	0x3eb26835	0.3484513
135	0xbe8da9f5	-0.2766873
136	0xbf9797aa	-1.1843159
137	0xbfba3f7d	-1.4550625
138	0xc00dcd6b	-2.2156627
139	0xbf35d45c	-0.7102716
140	0x3f622f70	0.88353634
141	0x3ef89113	0.48548183
142	0x3ee0947a	0.4386328
143	0xbe9bfda5	-0.30466953
144	0x3dd00665	0.1015747
145	0x3f642193	0.8911373
146	0x3f3c3db1	0.73531634
147	0x3f954532	1.1661742
148	0x3fbd5262	1.4790766
149	0x3ecd5c3b	0.4010943
150	0xbccde2c0	-0.025132537
151	0xbe8cfab1	-0.27535012
152	0xbc1da70d	-0.009622348
153	0x3e851452	0.25992066
154	0x3e1fd9b8	0.15610397
155	0x3e90e71b	0.2830132
156	0x3e0c22a9	0.13685097
157	0xbf0505c2	-0.5196191
158	0xbefd8893	-0.4951826
159	0xbe6bc9c3	-0.23026185
160	0xbeaa2f04	-0.33238995
161	0xbf2fe99b	-0.6871583
162	0x3f3e02ca	0.74223006
163	0x3ed2f80a	0.41204864
164	0x3f8f2b50	1.1185093
165	0xbf530508	-0.8242955
166	0xbfae5471	-1.361952
167	0xbf66b8af	-0.90125555
168	0xbf111aee	-0.56681716
169	0x3dbfe246	0.0936933
170	0xbf3f056e	-0.7461766
171	0xbf4f5b62	-0.80998814
172	0x3d81f928	0.06346351
173	0xbdbb17e5	-0.09135417
174	0x3f18ca60	0.596838
175	0xbd3bb6d3	-0.04582865
176	0x3c2776bc	0.01022118
177	0xbbf5452a	-0.0074850516
178	0xbf503445	-0.81329757
179	0x3f1e2f4c	0.6179092
180	0xbf6e3aac	-0.93058276
181	0xbf3e38d6	-0.74305475
182	0xbf3d37b6	-0.73913133
183	0xbe565e97	-0.2093452
184	0xbf413fbc	-0.75487876
185	0x3bbd09ac	0.0057689752
186	0x3f314490	0.69245243
187	0x3e471596	0.19441828
188	0x3ed6abb7	0.41927883
189	0xbf6f21be	-0.9341086
190	0xbd3ccfbc	-0.04609655
191	0xbe178d87	-0.14800082
192	0x3e9751ba	0.2955454
193	0xbfd9a8fa	-1.7004693
194	0xbf6041a8	-0.87600183
195	0xbf18c2b1	-0.59672076
196	0xbfad1a96	-1.3523738
197	0x3e3d5e57	0.18493019
198	0xbecad89b	-0.39618382
199	0xbeea17b7	-0.45721218
200	0xbfbd9cd3	-1.4813484
201	0xbf92046b	-1.1407598
202	0xbf3fc0f1	-0.7490378
203	0xbfbae09d	-1.4599797
204	0xbf2172fe	-0.6306609
205	0xbf99e7ef	-1.2023906
206	0xbf54e976	-0.83168733
207	0xbf911878	-1.1335592
208	0xbf8fcec8	-1.123498
209	0xbff83d2a	-1.9393666
210	0x3f0bbb47	0.5458264
211	0xbf930f05	-1.1488959
212	0x3f96a430	1.1768856
213	0x3f49d636	0.78842485
214	0xbe84921d	-0.25892726
215	0x3f898eaf	1.0746669
216	0xbe63f9c2	-0.22263244
217	0x3f21b932	0.6317321
218	0x3f68dffd	0.9096678
219	0x3f40f5e2	0.7537519
220	0x3de4d023	0.111725114
221	0x3f9382e9	1.1524326
222	0x3f69661e	0.91171443
223	0x3ee50758	0.44732165
224	0x3f5fca5e	0.8741816
225	0xbf12896b	-0.57240933
226	0xbf5c4fb9	-0.8605915
227	0xbecbbaf7	-0.3979108
228	0x3e6ffc61	0.23436119
229	0xbdba8c95	-0.09108845
230	0xbf3dbf14	-0.7411969
231	0xbed72c84	-0.4202615
232	0xbe94bc8e	-0.29050106
233	0x3e3a8734	0.18215638
234	0x3f11e500	0.5699005
235	0x3f2eb2c2	0.6824151
236	0xbe190c5d	-0.14946122
237	0xbf2a9939	-0.6664005
238	0xbd058af5	-0.032603223
239	0xbddc70b1	-0.10763682
240	0x3efbeb9c	0.49203193
241	0xbca0ca8d	-0.019627834
242	0xbf15379f	-0.58287996
243	0xbf3d01b0	-0.738307
244	0x3e68a59a	0.22719422
245	0xbfdc2118	-1.71976
246	0xbf8a94b3	-1.0826629
247	0xbf538c05	-0.8263553
248	0x3e65a736	0.22427067
249	0xbfb1e306	-1.3897407
250	0x3f2589e7	0.6466355
251	0x3e979b47	0.29610655
252	0x3e42cc55	0.19023259
253	0xbf87b2ff	-1.06015
254	0x3dcd7d61	0.1003368
255	0xbf7e3dd0	-0.9931307

bias f4 [32]
0	0x3f375632	0.716159
1	0x3eaab8b4	0.33344042
2	0x3e749d52	0.23888138
3	0xbf936d45	-1.1517721
4	0x3ef4c7c7	0.47808668
5	0x3fe8bc9f	1.8182563
6	0xbea7b23b	-0.32753167
7	0x3f924a64	1.1428952
8	0x3f4fd8ad	0.81189996
9	0xbf2545dc	-0.6455972
10	0x3edcfee4	0.43163216
11	0x3dfc38d2	0.12315525
12	0x3eb90b1b	0.36141285
13	0x3e7c59aa	0.24643579
14	0xbf1c2a58	-0.6100211
15	0xbec59a6d	-0.3859438
16	0xbf3e390b	-0.7430579
17	0xbf89c5d3	-1.0763496
18	0xbef562e6	-0.47927016
19	0xbd635b31	-0.05550689
20	0xbe4273f6	-0.18989548
21	0x3d471bd8	0.04861054
22	0xbfa98576	-1.3243854
23	0x3ef574bd	0.47940627
24	0x3f35fb6d	0.7108677
25	0x3f80e75b	1.0070604
26	0x3e5544e2	0.20827058
27	0xbf96bc9f	-1.1776313
28	0x3f2c5e8a	0.67331755
29	0xbf311383	-0.691704
30	0xbe7c397d	-0.24631305
31	0x3edac4c1	0.42728236

weight f4 [32, 32, 5, 5]
0	0xbf4959d5	-0.786527
1	0xbffc3b72	-1.9705641
2	0xbfc1d38b	-1.5142683
3	0xbfd6c52d	-1.6778923
4	0xbf860b08	-1.0472116
5	0x3fd2c224	1.6465497
6	0x3d8fd5ed	0.07023225
7	0xbe7fb031	-0.24969555
8	0xbea70c7e	-0.32626718
9	0xbf48d7bd	-0.7845419
10	0x3e4e8b19	0.20170249
11	0x3ef886b5	0.48540273
12	0x3e1acac0	0.15116405
13	0x3f061d8d	0.5238884
14	0x3f85d385	1.0455176
15	0xbfc5f914	-1.5466638
16	0xbfa1fd98	-1.2655516
17	0xbfbf681f	-1.495365
18	0xbf9047eb	-1.1271948
19	0x3f0847e4	0.53234696
20	0xbf98f46b	-1.194959
21	0xbd44e7a1	-0.04807246
22	0xbf44aa07	-0.7682194
23	0xbe788c3b	-0.24272244
24	0x3e40fc23	0.18846183
25	0xbe6016cd	-0.21883698
26	0xbd97cc38	-0.074119985
27	0xbf26010b	-0.6484534
28	0xbf99b08b	-1.2007002
29	0xbf81f780	-1.0153656
30	0xbf3d0262	-0.7383176
31	0xbf4b5bbe	-0.7943686
32	0xbf10a723	-0.5650503
33	0xbf9621a9	-1.1729022
34	0xbf83fc4f	-1.0311373
35	0xbf01981e	-0.5062274
36	0xbf80fa55	-1.0076395
37	0xbf8bca3d	-1.0921093
38	0xbfb2d0fd	-1.3970028
39	0xbf42e6a4	-0.7613318
40	0xbf7a64e2	-0.97810185
41	0xbf8eb817	-1.114993
42	0xbfc92258	-1.5713606
43	0xbfa20374	-1.2657304
44	0xbe2972ef	-0.1654775
45	0xbf768701	-0.9629975
46	0xbf7e0d7a	-0.99239314
47	0x3e57f22d	0.21088476
48	0xbcec401f	-0.02883917
49	0xbf36c9be	-0.71401584
50	0xbe7c85ab	-0.24660365
51	0x3e2efbb1	0.170882
52	0x3f2999ad	0.66250116
53	0xbf8ca103	-1.0986637
54	0xbdb934e9	-0.09043295
55	0xbf2a53e4	-0.66534257
56	0x3e45c94d	0.19315071
57	0x3f6490ac	0.8928325
58	0x3d79f4e2	0.061024554
59	0x3ee2a437	0.4426591
60	0xc0032393	-2.0490463
61	0xc0128408	-2.2893085
62	0x3f39fc78	0.7265086
63	0xbf9edb4c	-1.2410674
64	0xbe4a952a	-0.19783464
65	0xbf095458	-0.53644323
66	0xbfb92966	-1.4465759
67	0x3f845b92	1.0340445
68	0xbeb17b7d	-0.34664527
69	0x3f392d5e	0.7233485
70	0xbf2292b1	-0.63505083
71	0xbf5614b5	-0.83625346
72	0x3e3654d8	0.17805803
73	0x3f49abf6	0.78778017
74	0xbe94ab4d	-0.29036942
75	0x3c467c78	0.012114637
76	0xbef3848f	-0.47562072
77	0x3d7c6b1f	0.061625596
78	0x3f30acba	0.6901356
79	0x3f18fe08	0.5976262
80	0x3e6c8235	0.23096545
81	0xbf8b8a74	-1.0901628
82	0xbee9f5e8	-0.45695424
83	0xbeafe906	-0.3435747
84	0xbe917ff0	-0.2841792
85	0xbe3efe3e	-0.18651673
86	0xbe9f8ace	-0.31160587
87	0x3e09ef8b	0.13470285
88	0xbe320b09	-0.17387022
89	0xbecbeec7	-0.3983061
90	0x3dc15b51	0.09441245
91	0x3e29a5e3	0.16567187
92	0x3dc25693	0.09489169
93	0x3e067054	0.13128787
94	0x3ee83974	0.45356333
95	0xbfeaa500	-1.8331604
96	0xbf11a676	-0.56894624
97	0xbf20bd69	-0.62789017
98	0xbf6dcc99	-0.92890316
99	0xbf2eac8c	-0.68232036
100	0x3e9edfa5	0.31030002
101	0x3eb88e89	0.36046246
102	0x3f4e331e	0.8054675
103	0x3fbd9358	1.4810591
104	0x3fc78bf3	1.5589584
105	0xbffee25d	-1.991283
106	0xbf867fe6	-1.0507782
107	0xbf423146	-0.75856435
108	0x3df55164	0.11978415
109	0x3ef6ace4	0.4817878
110	0x3f3c56ef	0.7357015
111	0x3dd9b4a0	0.106301546
112	0x3be6e65e	0.007046505
113	0x3f06cb6f	0.52654165
114	0x3f5fb898	0.8739104
115	0x3fdb0580	1.7111053
116	0x3ffaf413	1.9605736
117	0x3f667a6d	0.90030557
118	0x3f7cc451	0.98737055
119	0x3fba70f0	1.4565716
120	0x3cdea997	0.027180476
121	0x3fe7f1df	1.8120688
122	0xbe58762c	-0.21138829
123	0x3e920424	0.28518784
124	0x3f5e9500	0.86946106
125	0xbfb88b6a	-1.4417546
126	0xbfd06ed5	-1.6283823
127	0xbf8524cf	-1.0401858
128	0xbfa651a2	-1.2993662
129	0xbfb4b333	-1.4117187
130	0x3f8bf192	1.0933096
131	0x3f238e89	0.63889366
132	0x3ed65157	0.41858932
133	0xbf1c4821	-0.6104756
134	0xbf608205	-0.87698394
135	0x3fc61b70	1.5477123
136	0x3fe15bad	1.7606102
137	0xbe93c747	-0.28862974
138	0x3fae7193	1.362841
139	0x3df1405f	0.11779856
140	0x3f4066e2	0.75156987
141	0x3e8a5617	0.27018806
142	0xbf1a4a48	-0.60269594
143	0xbf895a35	-1.0730654
144	0xbfb22da8	-1.3920183
145	0xbfa9dd16	-1.3270595
146	0xbf321653	-0.69565314
147	0xbec10b31	-0.3770385
148	0xbee3b4c4	-0.4447385
149	0xbefd17ac	-0.49432123
150	0x3f466760	0.7750149
151	0xbe5582fc	-0.20850748
152	0xbecf0b69	-0.40438393
153	0xbf3d42d1	-0.7393008
154	0xbf2e0473	-0.6797554
155	0xbdb7bdbd	-0.089717366
156	0xbe7374f8	-0.23775089
157	0x3f04ff92	0.5195247
158	0xbf612b56	-0.8795675
159	0xbf00ed86	-0.5036243
160	0xbfa5e867	-1.2961549
161	0xbed4a999	-0.41535643
162	0xbddb3fe8	-0.107055485
163	0xbfa8fb78	-1.3201742
164	0x3ec843d6	0.39114255
165	0xbf9988db	-1.199489
166	0xbea802c8	-0.32814622
167	0xbe632172	-0.22180727
168	0xbfaf8633	-1.3712829
169	0xbf71afcc	-0.9440887
170	0xbfa4f2d0	-1.28866
171	0xbec89f63	-0.39184102
172	0x3ea8df6e	0.32982963
173	0xbf4d962b	-0.80307263
174	0xbf8073cd	-1.003534
175	0xbfa1bafe	-1.263519
176	0xbfe264df	-1.7687033
177	0xbfee8c41	-1.8636552
178	0xbf948ae7	-1.160489
179	0xbf4e5129	-0.8059259
180	0xbe2a88d9	-0.16653766
181	0xbc8a4e44	-0.016883023
182	0xbf58cbe2	-0.846861
183	0xbf0efaad	-0.5585125
184	0xbfb6fa25	-1.4295088
185	0x3f253b8e	0.64544
186	0x3fd2af2d	1.645971
187	0xbeee15b3	-0.4650093
188	0x3e1f8e26	0.15581569
189	0xbebece5e	-0.3726682
190	0xbefd9330	-0.49526358
191	0xbe87bf47	-0.2651312
192	0xbe4be383	-0.19911008
193	0xbf548ab7	-0.8302416
194	0xbfe72c35	-1.8060366
195	0xbfea2aca	-1.8294308
196	0xbf47421e	-0.7783526
197	0xbe265cfd	-0.1624641
198	0xc0169bf7	-2.3532693
199	0xbe05fe51	-0.13085295
200	0xbe833126	-0.25623435
201	0xbf785618	-0.9700637
202	0xbe8f0640	-0.27934456
203	0x3e808ba7	0.25106546
204	0x3d65ceff	0.05610561
205	0x3f5ac3dc	0.8545511
206	0xbf21f09f	-0.63257784
207	0xbf52540b	-0.8215949
208	0xbe900812	-0.28131157
209	0xbd152880	-0.036415577
210	0xbf9ba1d7	-1.2158765
211	0xbfa478c6	-1.2849357
212	0xbea5ef65	-0.32409206
213	0xbea6b8cc	-0.32562864
214	0xbf36c087	-0.71387523
215	0xbecdd4ab	-0.40201315
216	0xbf3e0a3b	-0.7423436
217	0xbef17933	-0.4716278
218	0xbd16719c	-0.03672944
219	0xbf0937f7	-0.5360102
220	0xbe88297f	-0.2659416
221	0x3d4c3d60	0.04986322
222	0xbed8b3f0	-0.4232478
223	0xbe8442cd	-0.25832215
224	0xbf17fe8b	-0.59372777
225	0x3fbbb407	1.4664315
226	0x3f15cc39	0.58514744
227	0x3dfe2c43	0.12410786
228	0xbf077d73	-0.52925795
229	0x3eaba339	0.33522967
230	0x3e9ae0c0	0.30249596
231	0x3dc38ccc	0.09548339
232	0x3e027052	0.1273816
233	0xbd9b0b68	-0.07570535
234	0xbedca9e2	-0.4309836
235	0xbfb172d0	-1.3863163
236	0xbf2c5626	-0.6731895
237	0xbf184e2c	-0.5949428
238	0xbf80f979	-1.0076133
239	0xbf5349b7	-0.82534355
240	0xbe78fd88	-0.24315464
241	0xbe66b403	-0.22529607
242	0xbe995c70	-0.29953337
243	0xbeb5379e	-0.35393995
244	0xbf8f27c9	-1.1184016
245	0x3e84c505	0.25931564
246	0x3d7ade70	0.06124729
247	0x3d22dc36	0.03976079
248	0xbe8abec0	-0.27098656
249	0xbf80d71f	-1.006565
250	0xc0107805	-2.2573254
251	0xbf249e41	-0.64303976
252	0xbf81350e	-1.0094316
253	0x3f1f5da3	0.62252253
254	0xbeb983b1	-0.36233285
255	0x3ecc8869	0.39947823

bias f4 [32]
0	0x3fffd092	1.9985526
1	0xbe119541	-0.14217092
2	0x3e5f03fa	0.2177886
3	0xbdbe0c16	-0.09279649
4	0xbf248a96	-0.64273965
5	0xbf0676d7	-0.52525085
6	0xbc7e1425	-0.0155077325
7	0x3f0978ba	0.5369984
8	0x3f3d40ca	0.73926985
9	0x3eac5f5c	0.33666503
10	0x3f5d9188	0.8655019
11	0x3f47dd9f	0.7807254
12	0x3f4673e6	0.77520597
13	0x3e41d31e	0.18928191
14	0x3f49b998	0.7879882
15	0x3cce2447	0.025163783
16	0x3f3e4e1d	0.7433794
17	0xbe8d0821	-0.27545264
18	0x3ec50830	0.3848281
19	0x3fa619ca	1.297662
20	0x3f635e71	0.8881598
21	0x3f6ba354	0.92046094
22	0xbe6a2f24	-0.22869545
23	0xbeec339a	-0.4613312
24	0x3fb56e2f	1.417425
25	0x3f6495a5	0.8929084
26	0x3db91db6	0.0903887
27	0x3e4b77dd	0.19869943
28	0x3f60fb0c	0.8788307
29	0x3fdbf7e8	1.718503
30	0x3f1158b8	0.56776
31	0x3fb8da63	1.4441646

weight f4 [32, 32, 5, 5]
0	0xbf4b0cbc	-0.79316306
1	0x3fbe8efb	1.4887384
2	0xbfcc3f5f	-1.5956839
3	0xbfbae032	-1.4599669
4	0xbfaa7ddf	-1.3319663
5	0x3dfa98a9	0.12236149
6	0x3fe50c9e	1.7894475
7	0x3fc92256	1.5713603
8	0xbf3cf636	-0.7381319
9	0x3f1f8ae0	0.6232128
10	0xbeb9fb49	-0.36324528
11	0x3f230626	0.63681257
12	0xbf3628ec	-0.7115619
13	0xbf09ebf0	-0.5387564
14	0xbebd352a	-0.36954623
15	0xbfb90ee0	-1.4457664
16	0x3ed53bcc	0.41647184
17	0x3f3b1fb7	0.7309527
18	0xbeabaae3	-0.33528814
19	0x3ffff06c	1.9995246
20	0xbf23e915	-0.6402753
21	0xbf808b71	-1.0042554
22	0xbf82966b	-1.0202154
23	0xbf915047	-1.1352624
24	0xbf242959	-0.6412559
25	0xbf2c00fb	-0.67188996
26	0xbffba479	-1.9659568
27	0xbf1b4c1a	-0.60662997
28	0xbf8ca2ef	-1.0987223
29	0xbfbd3102	-1.4780581
30	0xbe253f70	-0.1613748
31	0xbf01f5bc	-0.50765586
32	0x3ea0ea3b	0.31428704
33	0x3e94dd04	0.29074872
34	0xbdb44ca4	-0.088036805
35	0xbf7a5b3c	-0.9779546
36	0xbf106adf	-0.5641307
37	0x3e60dd39	0.2195939
38	0xbf01ccbb	-0.5070302
39	0xbf9942af	-1.1973475
40	0xbf05954f	-0.5218095
41	0xbf98effb	-1.1948236
42	0xbe9864af	-0.29764315
43	0xbee8492c	-0.45368326
44	0xbf8bdf45	-1.0927511
45	0x3f1dfe5b	0.6171624
46	0x3d910c17	0.07082384
47	0xbcf952da	-0.030435015
48	0xbe9e8e8c	-0.3096813
49	0xbee75b96	-0.45187062
50	0xbf8660cf	-1.0498294
51	0xbf51d69e	-0.81968105
52	0x3e9e52e4	0.30922616
53	0xbfbae76b	-1.4601873
54	0xbf97766e	-1.1833017
55	0xbf5e4d5c	-0.8683679
56	0xbfe26083	-1.7685703
57	0x3f63b340	0.8894539
58	0x3e97b005	0.2962648
59	0x3f2bcd53	0.67110175
60	0x3e80b8c9	0.2514098
61	0x3e9f85aa	0.31156665
62	0x3c0877ab	0.008329312
63	0xbe6a785b	-0.22897474
64	0xbd99d4b2	-0.075112715
65	0xbfdb6937	-1.7141484
66	0xbf358950	-0.7091265
67	0xbe5fae58	-0.2184385
68	0xbeb9790c	-0.36225164
69	0xbe33668b	-0.17519586
70	0x3ef81aeb	0.48458037
71	0xbee9fda0	-0.45701313
72	0xbf906410	-1.1280537
73	0xbfbb584a	-1.4636319
74	0xbfeb7a0e	-1.8396623
75	0xbf3fdfba	-0.74950755
76	0xbf0afa24	-0.54287934
77	0xbf9a47f5	-1.205321
78	0x3fddddf0	1.7333355
79	0x3db75aaf	0.089528434
80	0xbf875f52	-1.0575964
81	0xbf8e8900	-1.1135559
82	0xbf4fb3d1	-0.81133753
83	0x3d6afe31	0.057371322
84	0xbdae9c94	-0.08525959
85	0xbf5c749b	-0.86115426
86	0xbf179d97	-0.5922484
87	0xbffa4506	-1.9552314
88	0x3f14d3a5	0.58135444
89	0xbdfdb186	-0.123873755
90	0x3fd137c2	1.6345141
91	0x3e94b2e4	0.29042733
92	0x3efa9eaa	0.48949176
93	0x3eff2a46	0.4983694
94	0xbdd29576	-0.10282414
95	0xbf2328fa	-0.637344
96	0xbf32e6ed	-0.69883615
97	0xbe8c839f	-0.2744417
98	0x3f2a4889	0.6651693
99	0xbe8bb95d	-0.27289858
100	0xbd60b6e6	-0.054861926
101	0x3f11e7de	0.56994426
102	0x3e832048	0.25610566
103	0xbf8672b7	-1.0503758
104	0xbeedc8b9	-0.46442202
105	0xbf430fd4	-0.76196027
106	0xbeef35f4	-0.4672085
107	0xbf2bbffb	-0.67089814
108	0xbf9469b6	-1.159476
109	0xbebc984f	-0.36834952
110	0xbf039fce	-0.5141572
111	0x3e3a1b69	0.18174519
112	0x3e47f51c	0.19527096
113	0xbf3ec283	-0.7451555
114	0x3eff5201	0.49867252
115	0x3eb715af	0.3575873
116	0x3f0db14d	0.55348665
117	0x3d63be30	0.0556013
118	0xbe8ae528	-0.27127957
119	0xbe8c1e13	-0.27366695
120	0xbfa723dc	-1.3057818
121	0x3f22a6a3	0.6353552
122	0xbf5dd895	-0.866586
123	0x3f0db6ab	0.55356854
124	0xbf343773	-0.7039711
125	0xbfd71767	-1.6804017
126	0xbe6d26dc	-0.23159355
127	0x3f41a774	0.7564614
128	0xbc0af5d2	-0.00848146
129	0xbf2f46da	-0.68467486
130	0x3def3fe7	0.1168211
131	0x3f93ed75	1.1556841
132	0x3eee8929	0.4658902
133	0xbeefb515	-0.46817842
134	0xbcdd1372	-0.026986811
135	0x3bdb9fa2	0.0067023793
136	0xbf026ac1	-0.50944144
137	0xbf12cca1	-0.5734349
138	0xbf46c518	-0.7764449
139	0xbfaf0f58	-1.3676558
140	0xbed5bfcc	-0.41747892
141	0x3edf9258	0.4366634
142	0xbe81c222	-0.25343424
143	0x3d8eb9d9	0.069690414
144	0xbf8cf7af	-1.1013087
145	0xbdf26305	-0.11835293
146	0xbe0e16a7	-0.13875829
147	0xbf9bddef	-1.2177104
148	0xbf9dd7ac	-1.2331443
149	0xbf9c78c7	-1.2224358
150	0xbe85f81e	-0.2616586
151	0x3f27f758	0.6561179
152	0xbf941dd2	-1.15716
153	0xbe30fe62	-0.1728454
154	0xbfc68ea2	-1.5512278
155	0x3f8abb4c	1.0838408
156	0x3f7610bf	0.961193
157	0x3ec3f3ed	0.38272038
158	0xbf36619c	-0.7124269
159	0xbebb5541	-0.3658848
160	0xbf000776	-0.50011384
161	0xbdc59918	-0.09648341
162	0x3d3d075b	0.046149593
163	0xbf1222af	-0.5708417
164	0x3e1ff5fe	0.15621182
165	0x3fa7765d	1.3082997
166	0x3f5a00e8	0.8515763
167	0x3f600710	0.87510777
168	0x3eb76301	0.3581772
169	0x3e89f26c	0.26942766
170	0x3f95e8a1	1.1711618
171	0x3f1bf1dc	0.60915923
172	0x3f3d1076	0.7385324
173	0x3f255f5f	0.6459865
174	0x3f816971	1.0110303
175	0x3f29c869	0.66321427
176	0xbfa2dc57	-1.2723492
177	0xbfd13c27	-1.6346482
178	0xbf4ebdda	-0.8075844
179	0xc0257701	-2.5853884
180	0x3f1615d7	0.58627075
181	0x40013339	2.0187514
182	0x3e3c1b35	0.18369754
183	0x3f2a093e	0.6642035
184	0xbe904a52	-0.28181702
185	0xbf4da1e4	-0.8032515
186	0x3f7b586c	0.98181796
187	0xbfbbb9bf	-1.466606
188	0xbf2c7520	-0.6736622
189	0x3f2b6882	0.6695634
190	0x3f9a3065	1.2046019
191	0xbf27f2c5	-0.6560481
192	0xbf1742e3	-0.59086436
193	0x3df701db	0.12060901
194	0x3e805f47	0.2507269
195	0xbdbd8ea9	-0.09255726
196	0xbd93383d	-0.07188461
197	0xbef70a4d	-0.48250046
198	0x3f245442	0.6419107
199	0x3f8be9a8	1.0930681
200	0xbf87f604	-1.0621953
201	0xbf98344d	-1.1890961
202	0xbf9e3c91	-1.2362233
203	0xbfda1526	-1.7037704
204	0xbf967f4b	-1.1757597
205	0xbdc6dd20	-0.09710145
206	0x3e2291db	0.15875952
207	0x3f4d231a	0.80131686
208	0x3f628e54	0.88498425
209	0x3fa7d042	1.311043
210	0x3f6a89c3	0.9161646
211	0x3e8719c8	0.26386857
212	0x3e914c82	0.28378683
213	0xbe7f8430	-0.2495277
214	0x3f5d69e2	0.8648969
215	0xbec6b662	-0.38811022
216	0xbd9a26f1	-0.07526959
217	0x3f6ae763	0.9175932
218	0x3f979c6d	1.1844612
219	0x3fd17ef7	1.6366872
220	0xbebd3b9c	-0.3695954
221	0xbf71d81b	-0.94470376
222	0xbfa26bd3	-1.2689155
223	0x3ed3fe01	0.41404727
224	0x3d8e0dcd	0.06936226
225	0xbf11293d	-0.5670355
226	0xbec4ee85	-0.38463226
227	0xbefb51e8	-0.49085927
228	0xbe938308	-0.28810906
229	0xbf5b6a1f	-0.857088
230	0xbfa35ebf	-1.2763289
231	0xbe8bcd9c	-0.27305305
232	0x3ea6a4c7	0.3254759
233	0x3f8cf659	1.1012679
234	0x3fa04438	1.2520819
235	0xbf7276a9	-0.9471231
236	0xbf8700df	-1.0547141
237	0x3f1459ea	0.579497
238	0x3f031321	0.51201063
239	0x3f03eb91	0.5153132
240	0xbeb6a1c9	-0.35670307
241	0xbe5c786d	-0.21530314
242	0x3eac8ecb	0.33702692
243	0x3f8325e0	1.0245934
244	0x3f0ffdcb	0.5624663
245	0xbf610ef2	-0.8791343
246	0xbf45c624	-0.77255464
247	0xbf7f808f	-0.9980554
248	0xbf31b573	-0.69417495
249	0x3ddea79f	0.10871815
250	0x3dbf11c1	0.09329558
251	0xbf48ecdc	-0.7848642
252	0xbf88b322	-1.0679667
253	0xbfdae275	-1.7100359
254	0xbf89bf18	-1.0761442
255	0xbeb27616	-0.34855717

bias f4 [32]
0	0x3f61a7df	0.88146776
1	0xba2946c0	-0.0006457381
2	0x3f933541	1.1500627
3	0x3ef02890	0.46905947
4	0xbd0f0a49	-0.034921918
5	0x3f97c7c9	1.1857845
6	0x3fd68547	1.6759423
7	0x3e10be66	0.14135131
8	0x3f776eee	0.9665364
9	0xbdff7df9	-0.12475199
10	0x3f1c548b	0.610665
11	0x3f76f432	0.9646636
12	0xbf80ae40	-1.0053177
13	0x3f28a6b2	0.65879357
14	0xbdd16367	-0.102240376
15	0xbf92dca5	-1.1473585
16	0x3ebd7a26	0.37007254
17	0x3eea46c3	0.45757112
18	0x3f8bd3dc	1.0924029
19	0xbfebca13	-1.8421043
20	0x3dc6d3e9	0.097083874
21	0xbfe44d97	-1.7836179
22	0x3f3af456	0.7302908
23	0xc01544d4	-2.332326
24	0x3e5640cd	0.20923157
25	0x3f15eedb	0.5856759
26	0x3fce9ad7	1.6141003
27	0xbd46e0e9	-0.048554335
28	0xbf90355b	-1.1266283
29	0xbf9cd68c	-1.2252975
30	0x3fb09640	1.3795853
31	0x3fcc161c	1.5944247

weight f4 [32, 32, 5, 5]
0	0x3e88ff6e	0.26757377
1	0xbed1dd2e	-0.4098906
2	0xbe318183	-0.17334561
3	0xbe09d2e5	-0.13459356
4	0xbd89d4e1	-0.067300566
5	0xbe927a70	-0.28609037
6	0x3f336777	0.7007975
7	0x3f315801	0.6927491
8	0x3ea9fe9b	0.3320206
9	0x3cf79e1f	0.030226765
10	0xbeeaa000	-0.45825195
11	0xbe455d06	-0.19273767
12	0x3ef023c1	0.46902278
13	0xbf552340	-0.8325691
14	0x3fe5133b	1.7896494
15	0x3eaa389f	0.33246323
16	0xbd869226	-0.06570844
17	0xbe902be8	-0.28158498
18	0x3ebc524c	0.36781538
19	0x3f8bbe30	1.0917416
20	0xbff2a0c8	-1.8955317
21	0xbf556168	-0.83351755
22	0xbf3dd98a	-0.74160063
23	0xbc922299	-0.017838763
24	0x3fbce76f	1.4758128
25	0xbf620e4b	-0.8830306
26	0xbec4d0bb	-0.384405
27	0xbf431f00	-0.7621918
28	0xbf2ac0cf	-0.6670045
29	0x3e5585f2	0.20851877
30	0x3f377af2	0.71671975
31	0x3f0446ba	0.5167042
32	0x3f00cde0	0.5031414
33	0x3e444f8a	0.19170967
34	0xbef6a7f8	-0.48175025
35	0xbd78d261	-0.060747508
36	0x3cf04302	0.029328827
37	0x3ef7f192	0.4842649
38	0x3e9cf085	0.30652252
39	0x3f67362e	0.90317047
40	0xbe549ed9	-0.2076372
41	0x3f8669e9	1.0501071
42	0x3eb488e0	0.35260677
43	0x3f758ead	0.9592083
44	0x3e23e518	0.16005361
45	0xbf61b792	-0.8817073
46	0x3fa24fc4	1.2680593
47	0xbf3cd41a	-0.7376114
48	0x3f28d9d6	0.6595739
49	0x3e9c0059	0.30469015
50	0xbe40dec5	-0.1883498
51	0xbedfa960	-0.4368391
52	0x3ee04cbc	0.43808544
53	0xbe81f24f	-0.2538018
54	0xbf091611	-0.53549296
55	0xbeff440c	-0.49856603
56	0xbf50930b	-0.8147437
57	0xbfc67318	-1.5503874
58	0xbf314d3a	-0.69258463
59	0xbfaf35ba	-1.3688271
60	0xbf3591c4	-0.70925546
61	0xbef23148	-0.47303224
62	0xbfc6d878	-1.5534811
63	0xbefb4374	-0.490749
64	0xbf2d1d7a	-0.676231
65	0xbf81a2e8	-1.012784
66	0xbed93409	-0.42422512
67	0xbfedea5c	-1.8587146
68	0xbef08567	-0.46976778
69	0xbffb13e5	-1.9615446
70	0xbf762fe4	-0.96166825
71	0xbf4f4d02	-0.8097688
72	0x3fa7b54a	1.31022
73	0xbe1c10d6	-0.15240797
74	0x3f484002	0.7822267
75	0xbe757c42	-0.23973182
76	0xbd9e8449	-0.07740075
77	0x3eab5e53	0.334704
78	0x3eb42016	0.3518073
79	0xbdcb4966	-0.09926109
80	0x3c1da9bb	0.009622986
81	0xbed99e1c	-0.4250344
82	0xbe783c34	-0.24241716
83	0xbe33c2c8	-0.17554772
84	0xbf02ae11	-0.51046854
85	0x3e99f5bb	0.3007029
86	0xbeb0a30f	-0.34499404
87	0x3f2ad909	0.6673742
88	0xbef9730a	-0.4872058
89	0x3d33a9e6	0.0438632
90	0xbe11ae2a	-0.14226595
91	0x3f06a96d	0.52602273
92	0xbf8cd488	-1.1002359
93	0x3e924ee7	0.28575823
94	0xbe9b17e2	-0.3029166
95	0xbe42170a	-0.18954101
96	0xbe135cdd	-0.14390893
97	0x3da6af3f	0.08138894
98	0xbe8f4eba	-0.2798975
99	0x3f2ac74e	0.66710365
100	0xbe6f1cae	-0.23350784
101	0xbf7d5a6b	-0.9896609
102	0xbe238f8d	-0.15972729
103	0xbf52b05e	-0.82300365
104	0xbf357aba	-0.7089039
105	0xbeec622c	-0.4616865
106	0xbf6e6084	-0.9311602
107	0xbe8f7c28	-0.2802441
108	0xbe72b292	-0.23700932
109	0xbf33334a	-0.70000136
110	0xbf201926	-0.62538373
111	0xbf25171e	-0.644884
112	0x3dfab406	0.12241368
113	0xbf4e9b21	-0.8070546
114	0xbf159ffc	-0.5844724
115	0xbf283c3b	-0.65716904
116	0xbfbcc32f	-1.4747065
117	0xbdf4f2d0	-0.11960375
118	0xbeee7a2a	-0.4657758
119	0x3e23c9ef	0.15995
120	0xbe86d769	-0.2633622
121	0xbfc3e649	-1.5304652
122	0xbe7e471e	-0.24831817
123	0xbe49edac	-0.19719571
124	0xbe6cdf63	-0.2313209
125	0xc002dc4a	-2.0446954
126	0xbf7b2b72	-0.9811317
127	0xbf279dfc	-0.6547544
128	0xbf076c3b	-0.5289952
129	0xbf6b0927	-0.9181084
130	0xbf8992d1	-1.074793
131	0x3d61304c	0.0549777
132	0xbf2a24c8	-0.66462374
133	0xbe89f2a0	-0.2694292
134	0xbf5b300c	-0.8562019
135	0x3de68e60	0.112576246
136	0xbc5d5fe7	-0.013511634
137	0x3e95655b	0.2917889
138	0x3e5dcff1	0.21661355
139	0xbfa22993	-1.2668937
140	0xbfa2de3c	-1.272407
141	0x3d2f3f43	0.04278494
142	0x3fcc664d	1.596872
143	0x3f792bcc	0.97332454
144	0xbfb7dd40	-1.4364395
145	0xbf75b30a	-0.95976317
146	0x3dc9e9b0	0.098590255
147	0x3f5f0e0a	0.87130797
148	0xbe98e74f	-0.29863974
149	0xbf642233	-0.89114684
150	0x3f21534e	0.6301774
151	0x3fdb1e15	1.7118555
152	0x3f96531c	1.1744113
153	0x3f617724	0.8807242
154	0xbc9f7916	-0.019466918
155	0xbed91bff	-0.42404172
156	0x3f097d88	0.5370717
157	0x3f955d84	1.1669164
158	0x3ed073ce	0.40713352
159	0xbe89ef45	-0.2694036
160	0xbe6c2fc1	-0.23065092
161	0x3eea4ea8	0.45763135
162	0x3e9f44cc	0.31107175
163	0xbf046896	-0.51722085
164	0x3e2f0487	0.17091571
165	0xbe58f524	-0.21187264
166	0xbee4913e	-0.4464206
167	0xbe33fc7b	-0.17576782
168	0x3ea9cd02	0.3316422
169	0x3f33e2ab	0.7026774
170	0x3f2ef478	0.6834178
171	0x3f1340b6	0.57520616
172	0x3e75cb07	0.2400323
173	0x3f28baf0	0.65910244
174	0x3ea9fdeb	0.33201537
175	0xbeb97f54	-0.36229956
176	0xbdd5c4e6	-0.10437946
177	0xbe5a3603	-0.21309666
178	0xbf5e5b11	-0.86857706
179	0xbf5fabaf	-0.87371343
180	0xbe418fc4	-0.18902498
181	0xbe144ae8	-0.144817
182	0xbf2a0f6d	-0.6642979
183	0xbf7e4b3f	-0.99333566
184	0xbf9025b2	-1.1261504
185	0xbe22560e	-0.1585314
186	0x3e433a13	0.19065122
187	0x3a9f31a9	0.0012145537
188	0xbec36a40	-0.38167
189	0xbf19f183	-0.6013414
190	0xbf424929	-0.75892884
191	0xbe012a92	-0.12613896
192	0xbd0f531b	-0.034991365
193	0x3e4a464b	0.19753377
194	0x3f244aa6	0.64176404
195	0xbf24dfea	-0.64404166
196	0x3e3c3a95	0.18381722
197	0xbedee085	-0.4353067
198	0x3f86c6bb	1.0529398
199	0x3f0dbee7	0.5536942
200	0xbf9cf162	-1.2261164
201	0xbeae75bd	-0.34074202
202	0x3dc9bb8a	0.09850223
203	0xbf8c3a2b	-1.0955251
204	0xbf281f35	-0.6567262
205	0xbe9c917f	-0.30579755
206	0xbf11d15f	-0.569601
207	0xbf0164d7	-0.50544494
208	0x3eea7b0d	0.45797005
209	0xbec06e4d	-0.37584153
210	0x3e82af10	0.25524187
211	0xbeab7256	-0.3348567
212	0x3eb5efc4	0.3553449
213	0xbf125cde	-0.57172954
214	0xbe58dfb5	-0.21179087
215	0xbf44b9fe	-0.768463
216	0x3b77b2fa	0.0037795887
217	0x3e98e22a	0.2986005
218	0xbf6f3fa9	-0.9345651
219	0xbe3c05c9	-0.18361582
220	0x3f0e50fe	0.55592334
221	0x3d9252db	0.0714471
222	0x3e548a2e	0.20755836
223	0xbf525936	-0.82167375
224	0xbf08948d	-0.5335167
225	0xbf849523	-1.0358013
226	0xbee9fe0d	-0.45701638
227	0xbe65c78e	-0.22439405
228	0xbdde0424	-0.108406335
229	0xbfd3cb49	-1.6546413
230	0xbf225b90	-0.63420963
231	0x3f61045c	0.87897277
232	0xbf912935	-1.13407
233	0xbf5b9789	-0.857781
234	0xbfa0bbf8	-1.2557364
235	0xbe033795	-0.12814172
236	0x3f564b16	0.8370832
237	0xbf87f558	-1.0621748
238	0xbf4d1567	-0.8011078
239	0xbe5abbb2	-0.21360663
240	0xbf1ae90b	-0.60511845
241	0xbebbdc7e	-0.3669166
242	0xbe8d7c38	-0.27633834
243	0xbe400762	-0.18752816
244	0xbe3be352	-0.18348435
245	0xbe787785	-0.24264343
246	0xbfb6a55e	-1.4269216
247	0xbd64e45f	-0.055881854
248	0x3f2c8225	0.67386085
249	0xbf42793e	-0.7596625
250	0xbf0db07b	-0.5534741
251	0xbfbf4360	-1.4942436
252	0xbf7a299a	-0.9771973
253	0x3ea1a3df	0.31570336
254	0x3f0999cd	0.53750306
255	0xbfc23111	-1.5171224

bias f4 [32]
0	0x3efba5cd	0.49149933
1	0x3fc380b1	1.5273649
2	0xbe8ae5e5	-0.2712852
3	0x40123822	2.284676
4	0x3bc0ae3b	0.005880145
5	0x3fc9076c	1.570539
6	0xc00e585c	-2.224143
7	0x3f6caacb	0.9244811
8	0xbfd369a2	-1.6516612
9	0x3fed5eab	1.8544515
10	0x403698fb	2.8530872
11	0xbf5068fa	-0.8141018
12	0x3f223c39	0.6337314
13	0x3f96dd1d	1.1786228
14	0x3fc57291	1.5425588
15	0xbf904879	-1.1272117
16	0x3ea5d784	0.32390988
17	0x3f808202	1.0039675
18	0xbf914b1c	-1.1351047
19	0x3fb3733d	1.4019543
20	0x3f0e7bda	0.5565773
21	0x3fa6fe7a	1.304641
22	0x3f9eb04e	1.2397554
23	0x3f84da41	1.0379106
24	0xc012b4b9	-2.2922804
25	0x3f6d8301	0.9277802
26	0x3f9f192f	1.242956
27	0x3e8d1b87	0.27560064
28	0x3f944e6d	1.1586434
29	0x400fcb50	2.2467842
30	0x3f63cf90	0.8898859
31	0x3e274465	0.16334684

weight f4 [32, 32, 5, 5]
0	0x3f0f567c	0.5599134
1	0x3e9583a0	0.29201984
2	0xbc02898a	-0.007967362
3	0xbe76e198	-0.24109495
4	0xbed23a75	-0.41060224
5	0x3ed563c6	0.41677684
6	0x3d721ec9	0.05911139
7	0xbe27fca8	-0.16404974
8	0xbd3fdc61	-0.04684103
9	0xbd4812c1	-0.04884601
10	0xbf8a2984	-1.079392
11	0xbec162c3	-0.37770662
12	0xbefa219a	-0.4885376
13	0xbe8021e2	-0.2502585
14	0xbef6d552	-0.48209625
15	0xbea31588	-0.31852365
16	0x3e3e4b7c	0.18583483
17	0xbe134b4f	-0.14384197
18	0x3ead4ff7	0.3385007
19	0xbf56db38	-0.8392825
20	0x3ea16daf	0.31528994
21	0x3e476d2a	0.19475237
22	0xbeb1e0db	-0.34741864
23	0x3f27bb33	0.6552002
24	0x3f28aa4d	0.6588486
25	0x3deafcf0	0.11474025
26	0xbe0abb27	-0.13547955
27	0x3e994f53	0.29943332
28	0xbc7d70e1	-0.015468807
29	0xbf066928	-0.52504206
30	0xbe16fe15	-0.14745362
31	0xbf820d96	-1.0160396
32	0xbf03e1be	-0.5151633
33	0x3db667dd	0.08906529
34	0xbeba9c50	-0.36447382
35	0xbec8eb25	-0.392419
36	0xbf96db4b	-1.1785673
37	0xbf4d3f31	-0.8017455
38	0xbef82ded	-0.4847254
39	0xbd387b95	-0.045039732
40	0xbee0874e	-0.4385323
41	0xbfa7bd12	-1.3104575
42	0xbf8a2634	-1.0792909
43	0xbe9e67c2	-0.30938536
44	0xbe6afa4b	-0.22947042
45	0xbebbb7a4	-0.36663544
46	0xbf937743	-1.1520771
47	0xbf2db4f1	-0.6785422
48	0xbed0c5f2	-0.4077602
49	0xbf0b4fe4	-0.5441878
50	0x3e42c6f4	0.19021207
51	0x3ec4db2b	0.38448462
52	0x3fb96203	1.4483036
53	0x3f946f4a	1.1596463
54	0x3f927601	1.1442262
55	0x3f0d40ed	0.55177194
56	0x3f6bf420	0.9216938
57	0x3ed2c1ad	0.41163388
58	0x3e9bebe3	0.30453405
59	0xbe9d2091	-0.3068891
60	0x3f7110ae	0.94166076
61	0x3f1c27e0	0.60998344
62	0x3dc9d739	0.098555036
63	0x3eee316b	0.46522078
64	0xbf80a8fe	-1.0051572
65	0x3f45c465	0.772528
66	0x3e5348aa	0.20633188
67	0x3f0323d4	0.51226544
68	0x3f1630bd	0.5866812
69	0xbfa8d1ff	-1.3189086
70	0x3f8ca428	1.0987597
71	0x3e751c63	0.2393661
72	0x3e8875da	0.26652414
73	0x3e13d4a7	0.14436589
74	0xbf1a688b	-0.6031577
75	0xbee4fca1	-0.4472399
76	0x3f16e9f1	0.58950716
77	0x3f27a9e0	0.65493584
78	0x3fd028ee	1.6262491
79	0x3f71a1e9	0.9438768
80	0x3e48f19d	0.19623418
81	0x3f1fd6e6	0.62437284
82	0x3ed959bd	0.42451277
83	0xbe4c7e31	-0.19970013
84	0xbed294c8	-0.41129136
85	0x3eca3356	0.3949229
86	0x3e839d84	0.25706112
87	0x3e88a218	0.26686168
88	0xbf64a988	-0.89321184
89	0xbe17cc85	-0.14824112
90	0x3eef5dd0	0.4675126
91	0xbbb916dc	-0.005648477
92	0x3e57a5be	0.2105932
93	0xbf0d7c19	-0.55267483
94	0xbf2c82cd	-0.67387086
95	0x3ea528e7	0.3225777
96	0x3edf6d34	0.43638003
97	0xbc84e403	-0.016222006
98	0xbf25438a	-0.6455618
99	0xbf08dd4a	-0.5346266
100	0xbf52e759	-0.8238426
101	0xbe8640da	-0.26221353
102	0xbd069c8c	-0.03286414
103	0x3e3b2b52	0.18278244
104	0x3f444c15	0.7667859
105	0xbe2dfa9e	-0.16990134
106	0x3f042b79	0.51628834
107	0x3ebcf4d6	0.36905545
108	0xbeec6cff	-0.46176907
109	0x3fc4b2ef	1.5367106
110	0xbeaf4a59	-0.3423641
111	0x3d02fb49	0.031977925
112	0x3f6e4889	0.9307943
113	0x3ee3fa6b	0.4452699
114	0x3f3ee0b1	0.745616
115	0xbe89c83e	-0.26910585
116	0x3df4fdbf	0.11962461
117	0x3f50e549	0.8159986
118	0x3f0f97ac	0.5609081
119	0x3f8e2efa	1.1108086
120	0x3e478688	0.19484913
121	0x3de4a90f	0.11165058
122	0x3e4a5d88	0.19762242
123	0x3e023cf5	0.12718566
124	0x3e0bb814	0.13644439
125	0x3ee875a0	0.4540224
126	0xbe267f36	-0.16259465
127	0x3dec9654	0.1155211
128	0x3eb69a5c	0.35664642
129	0xbdc6a5a5	-0.09699563
130	0x3c03f9bc	0.008055147
131	0xbf6e542f	-0.93097204
132	0xbf1339e2	-0.575102
133	0xbea56f17	-0.32311317
134	0xbe850399	-0.25979307
135	0x3d84f7eb	0.06492599
136	0xbf1603e7	-0.58599705
137	0xbec44529	-0.38334015
138	0xbf5934b9	-0.84846073
139	0xbf09e139	-0.5385929
140	0xbc33d146	-0.010975188
141	0xbf34daf9	-0.70646626
142	0xbe77a3f9	-0.24183644
143	0xbf46c47b	-0.77643555
144	0xbef24659	-0.47319296
145	0x4008eeca	2.1395745
146	0xbf10f7f0	-0.5662832
147	0xbec0a2fb	-0.37624344
148	0xbf41dc99	-0.7572723
149	0xbe9ed6cb	-0.3102325
150	0x3f3f6444	0.7476237
151	0x3f865a4b	1.0496305
152	0x3f7c776c	0.98619723
153	0x3f646ead	0.8923138
154	0x3e011f11	0.12609507
155	0x3e423c36	0.18968281
156	0x3ef7084a	0.48248512
157	0x3ee99f39	0.4562929
158	0x3f7fb78f	0.99889463
159	0x3f38125b	0.7190301
160	0x3f2619cf	0.6488313
161	0x3f26952e	0.6507138
162	0x3e893428	0.26797605
163	0x3f3131b7	0.69216484
164	0x3f594cdb	0.848829
165	0x3db65ae4	0.08904055
166	0x3ee9a48f	0.4563336
167	0x3e955d90	0.29172945
168	0x3f25d1fb	0.6477353
169	0x3f1bc92b	0.6085383
170	0x3f8a29b7	1.079398
171	0x3f8cefbd	1.1010662
172	0x3f1ec1cf	0.6201448
173	0x3f4d9bf1	0.8031607
174	0x3f043797	0.51647323
175	0x3d2665a2	0.04062427
176	0xbd3441be	-0.04400801
177	0x3eb47a13	0.35249385
178	0x3f56b3ae	0.8386792
179	0x3f685ddd	0.90768224
180	0xbe9ac882	-0.302311
181	0xbcce8b32	-0.025212858
182	0xbd9738fb	-0.07383915
183	0x3ec6c385	0.38821045
184	0x3ecd0c49	0.40048435
185	0xbf0134f3	-0.5047142
186	0xbe98b353	-0.29824314
187	0xbf0f8a13	-0.5607006
188	0xbdc768ca	-0.09736784
189	0xbecdec24	-0.40219223
190	0x3e6bcf3e	0.23028275
191	0x3d566369	0.0523409
192	0xbf2f94ff	-0.68586725
193	0xbe86bdfd	-0.26316825
194	0xbf667394	-0.9002011
195	0xbd96c671	-0.073620684
196	0x3e064f8f	0.13116287
197	0xbeb80a34	-0.35945284
198	0xbee03eb5	-0.43797842
199	0xbec92120	-0.39283085
200	0x3f6ccbb7	0.92498344
201	0x3f4e93a2	0.8069402
202	0x3f30a670	0.69003963
203	0x3edd661f	0.43241975
204	0x3eaf0b2c	0.3418821
205	0x3f8836f8	1.0641775
206	0x3f4c9955	0.79921466
207	0x3f6cfa08	0.9256902
208	0xbe9d4bd6	-0.3072192
209	0xbe0469e3	-0.12931018
210	0x3f57a8eb	0.84242123
211	0x3efb32d8	0.49062228
212	0x3f0c83b6	0.54888475
213	0xbe1be301	-0.15223314
214	0xbdedeecf	-0.11617815
215	0x3ea6daa5	0.32588688
216	0x3f090759	0.53526837
217	0x3f184d03	0.5949251
218	0x3f3a7cb7	0.7284655
219	0x3c79d3aa	0.015248219
220	0x3eb288a0	0.34869862
221	0x3f9f3734	1.2438722
222	0x3fa9fa9c	1.3279605
223	0x3f533813	0.8250744
224	0xbf242cd6	-0.64130914
225	0xbf8573dc	-1.0425982
226	0xbf471c88	-0.7777791
227	0x3f5fc3bc	0.8740804
228	0x3d46f126	0.04856982
229	0xbdcb23c0	-0.09918928
230	0xbf30024e	-0.68753517
231	0xbe10b666	-0.1413208
232	0xbd0c7952	-0.034295388
233	0x3d343037	0.043991294
234	0x3e02dad8	0.12778795
235	0xbf3017a8	-0.68786097
236	0x3bf7a6bf	0.0075577195
237	0xbeee013b	-0.46485314
238	0xbe44eb82	-0.19230464
239	0x3d49c239	0.04925749
240	0xbed299ec	-0.41133058
241	0xbdc8a764	-0.09797552
242	0x3eceb4c9	0.40372303
243	0xbef70df2	-0.48252827
244	0x3efea1a3	0.49732694
245	0xbeca4f31	-0.39513543
246	0xbe60adf1	-0.21941353
247	0xbf1a26e4	-0.6021559
248	0xbec548da	-0.38532144
249	0xbf3406c5	-0.7032283
250	0xbe869446	-0.26285
251	0x3eeecd4e	0.4664101
252	0x3ed550d9	0.41663244
253	0xbe11443d	-0.14186187
254	0xbef0d37b	-0.47036347
255	0xbf482819	-0.78186184

bias f4 [32]
0	0xbf7846b8	-0.9698291
1	0xc0212ff7	-2.5185525
2	0xc0387dc3	-2.882676
3	0xbf331f6c	-0.6996982
4	0x3ff68d35	1.9261843
5	0xbffd3e92	-1.978472
6	0xc012f7ce	-2.2963748
7	0xc006a759	-2.103964
8	0xc01cbd12	-2.44904
9	0xbee8928a	-0.454243
10	0xc05ee1ba	-3.4825273
11	0xc011b184	-2.2764597
12	0xbf3711a6	-0.71511304
13	0xbf5f3c53	-0.8720142
14	0x3ffad935	1.9597536
15	0xc04c15f5	-3.1888402
16	0xc041bb26	-3.0270476
17	0xc0663a82	-3.597321
18	0x40308e7e	2.758697
19	0xc04fe944	-3.2486124
20	0xbfb80ee8	-1.4379549
21	0xc057c7ed	-3.3715775
22	0x3f4616de	0.7737864
23	0xbf9bcb6e	-1.2171457
24	0xc01b7b35	-2.429395
25	0xbfe9e84d	-1.8274018
26	0x3f7f8526	0.99812543
27	0x3fe3a53b	1.7784799
28	0xbfc2d7ab	-1.5222067
29	0xc05709e3	-3.3599784
30	0xbe888058	-0.2666042
31	0x3e6aeb26	0.22941265
