models/saved/dqn_cnn_10.pth (torch, 174123 bytes, 10 tensors)

conv1.weight f4 [64, 1, 4, 4]
-1.7141776 -0.467104 -0.31460226 1.8770024 -3.4706461 -0.31823108 -0.1668149 -1.1085497
2.7189183 2.555308 1.0031893 1.5901092 -3.1774573 1.284503 2.6951609 -1.1992323
3.9342666 -0.8574562 0.028567497 -3.026213 -1.2692375 0.24823187 -0.03648265 -2.061476
-1.6326575 0.20678818 0.9103471 1.6379107 3.4169993 -0.8432182 1.613599 -0.55001515
2.0850697 0.98562413 -3.1708767 -0.2521206 2.7930725 1.4290708 -2.3460238 -3.219831
1.8198411 -0.49514797 -2.475762 -2.359008 1.9942666 2.2310724 0.72031736 -1.479231
-0.37576646 1.5541776 -3.0249305 -3.3987825 0.8639588 1.7724295 1.2453998 1.7289624
-3.5639832 -1.3320229 0.84904504 1.5081481 0.41727516 2.454798 1.6473647 -0.7689243
2.868064 0.17843924 -0.15239497 -2.9388564 1.7209142 -0.65859884 0.79389644 -0.3967803
2.3485758 -0.9599245 1.399797 0.738117 2.5126994 -2.6749272 1.8667282 -3.424361
-1.3084828 -3.1231182 -0.124447115 1.3648108 -0.36833772 1.7893653 -0.6796304 -2.4545178
1.8991914 2.0674858 1.1992097 0.1463971 0.31929347 3.6781707 -2.9934301 -0.8536843
4.0694094 -0.5865674 -1.4110079 -1.0956967 0.93629175 0.9967327 -3.8940628 -1.2259933
0.938867 1.5063623 -1.4105769 -2.1443245 3.0619059 1.2120159 -0.052260406 -0.22882637
-0.24690418 1.5787501 0.7081068 -2.7709768 1.0719386 -0.6159083 2.5892289 1.2328233
-2.8541486 -1.655254 0.22625898 2.357096 -1.0909482 1.6131425 2.255058 -0.11473187
-1.6986535 2.7623363 -3.4922678 -2.8873637 0.17759027 1.1775217 1.0615339 -0.29824245
-0.57109076 0.6083949 0.5808099 0.92441875 -2.4809842 1.4225762 2.165413 0.7306973
0.33763397 4.9313393 -1.6636147 -3.0158746 1.3913689 -0.5947611 2.058602 -2.9582841
-0.57155937 -2.1637049 -0.67339844 1.4784017 -0.30261785 2.2221148 1.16003 1.6416095
-2.951808 0.05646045 1.6719649 -2.945452 1.197265 1.1301043 -0.054824904 -0.67208517
-2.0397272 1.1851025 3.3815615 4.0598807 -1.7193906 -0.93272877 2.024391 -0.90385413
-0.78933096 0.23056807 1.301403 -0.6641902 -1.6691798 -1.7464058 0.11553785 -1.3645538
1.7606304 0.4633768 1.2086318 2.801923 1.2221493 -0.22605535 2.8884623 -3.8037653
-0.15637428 1.3349459 1.6101213 -0.35252553 2.3743606 -0.1501163 0.32994416 0.69604135
-1.0333289 -0.25876856 0.7640895 0.6693799 -4.122966 1.2010759 1.120766 2.1354344
0.029994277 -0.232785 0.97843724 -0.03157376 -1.4374468 -1.1090809 1.2365292 0.6873263
-2.5350091 0.6827643 0.82105565 -4.1298566 1.9420149 2.047303 0.2719153 2.5896873
0.10118811 -1.6834587 -0.30774143 3.5064218 2.1004927 0.9791883 0.8656779 0.91252995
1.5252912 -0.064882696 -1.5848206 2.4284492 -3.133194 1.2974299 0.80471045 -0.1714429
4.070162 -4.861184 0.05555031 -1.1899052 -0.92828065 -2.4450922 -0.08199914 1.7138971
-0.05502742 1.7255148 1.1151252 -1.5045186 3.3360202 -2.5755072 2.5790129 -2.5658576
00000000: 2c6a dbbf 4128 efbe 8c13 a1be 9d41 f03f
00000010: 111f 5ec0 2fef a2be 86d1 2abe f5e4 8dbf
00000020: c202 2e40 2b8a 2340 8268 803f b388 cb3f
00000030: 765b 4bc0 986a a43f 847d 2c40 7280 99bf
00000040: 06cb 7b40 4082 5bbf 6206 ea3c 79ad 41c0
00000050: 6076 a2bf 7f30 7e3e d56e 15bd 39ef 03c0
00000060: ecfa d0bf 48c0 533e 820c 693f 0fa7 d13f
00000070: 1eb0 5a40 26dd 57bf 698a ce3f cbcd 0cbf
00000080: c871 0540 dd51 7c3f a5ef 4ac0 f415 81be
00000090: b3c1 3240 cbeb b63f 4125 16c0 b611 4ec0
000000a0: 8ef0 e83f 0984 fdbe e272 1ec0 fdf9 16c0
000000b0: 2144 ff3f e4c9 0e40 b866 383f 7157 bdbf
000000c0: 7664 c0be 4bef c63f 7698 41c0 a785 59c0
000000d0: 672c 5d3f f8de e23f 4369 9f3f a44e dd3f
000000e0: 4d18 64c0 ba7f aabf 045b 593f ff0a c13f
000000f0: 17a5 d53e 691b 1d40 d9dc d23f 39d8 44bf
00000100: 5c8e 3740 c7b8 363e 6d0d 1cbe 3916 3cc0
00000110: eb46 dc3f ef99 28bf cc3c 4b3f ca26 cbbe
00000120: 114f 1640 9dbd 75bf 8c2c b33f 3cf5 3c3f
00000130: 11d0 2040 0232 2bc0 f3f0 ee3f bb28 5bc0
00000140: 5d7c a7bf 2be1 47c0 21de febd 1fb2 ae3f
00000150: c396 bcbe ec09 e53f 42fc 2dbf d216 1dc0
00000160: b418 f33f b051 0440 b47f 993f 1fe9 153e
00000170: 6f7a a33e 2667 6b40 5c94 3fc0 0e8b 5abf
00000180: 9a38 8240 4829 16bf e89b b4bf ca3f 8cbf
00000190: d1b0 6f3f e029 7f3f 5338 79c0 59ed 9cbf
000001a0: 9659 703f 7bd0 c03f c98d b4bf 9d3c 09c0
000001b0: 44f6 4340 5623 9b3f 020f 56bd 7651 6abe
000001c0: 73d4 7cbe 7c14 ca3f 7d46 353f af57 31c0
000001d0: 4935 893f 2bac 1dbf edb5 2540 27cd 9d3f
000001e0: 5faa 36c0 5ddf d3bf 6fb0 673e a9da 1640
000001f0: 31a4 8bbf 747b ce3f df52 1040 8bf8 eabd
00000200: 7a6d d9bf 1eca 3040 5181 5fc0 91ca 38c0
00000210: 39da 353e 08b9 963f 58e0 873f 3cb3 98be
00000220: 0133 12bf c5bf 1b3f f5af 143f b5a6 6c3f
00000230: 72c8 1ec0 fa16 b63f 2096 0a40 fa0e 3b3f
00000240: 5cde ac3e 88cd 9d40 54f1 d4bf 1704 41c0
00000250: 6018 b23f 4342 18bf 23c0 0340 8754 3dc0
00000260: b751 12bf 247a 0ac0 d763 2cbf 443c bd3f
00000270: baf0 9abe 2137 0e40 dd7b 943f 4320 d23f
00000280: 6cea 3cc0 1343 673d f202 d63f 4982 3cc0
00000290: fb3f 993f 42a7 903f 1490 60bd c60d 2cbf
000002a0: e48a 02c0 70b1 973f 816b 5840 8bea 8140
000002b0: fe14 dcbf 50c7 6ebf 9f8f 0140 fc62 67bf
000002c0: 9811 4abf 091a 6c3e 6094 a63f 5e08 2abf
000002d0: afa7 d5bf 3a8a dfbf 1c9f ec3d b3a9 aebf
000002e0: 565c e13f b93f ed3e 72b4 9a3f b552 3340
000002f0: 636f 9c3f 0e7b 67be 91dc 3840 e470 73c0
00000300: 9420 20be 82df aa3f 7418 ce3f 3a7e b4be
00000310: 86f5 1740 16b8 19be 71ee a83e c42f 323f
00000320: 1f44 84bf 507d 84be 5f9b 433f 7b5c 2b3f
00000330: 56ef 83c0 dbbc 993f 4375 8f3f f5aa 0840
00000340: 8fb6 f53c 315f 6ebe dd7a 7a3f 7d53 01bd
00000350: 42fe b7bf 5df6 8dbf 9746 9e3f 9ef4 2f3f
00000360: 973d 22c0 a4c9 2e3f b430 523f c927 84c0
00000370: f293 f83f 0307 0340 7b38 8b3e 70bd 2540
00000380: b63b cf3d 937b d7bf 4990 9dbe 3769 6040
00000390: 796e 0640 16ac 7a3f 119d 5d3f 909b 693f
000003a0: be3c c33f 38e1 84bd 67db cabf b66b 1b40
000003b0: 4086 48c0 2f12 a63f 8101 4e3f ba8e 2fbe
000003c0: c43e 8240 d28e 9bc0 b988 633d d04e 98bf
000003d0: cda3 6dbf 647c 1cc0 2aef a7bd fb60 db3f
000003e0: 6f64 61bd abdd dc3f 6cbc 8e3f 1194 c0bf
000003f0: 5b81 5540 1cd5 24c0 8c0e 2540 0337 24c0

conv1.bias f4 [64]
1.1792176 0.017437337 1.4682834 1.257437 1.0829598 0.7427365 0.46897018 0.7292382
0.92009574 0.10724351 0.32923973 0.9030616 -0.13590649 0.4921241 0.45592082 1.471898
1.0474695 0.34854198 -0.052532416 0.27594188 1.264185 -0.058441676 1.9256432 1.2371647
0.7029594 0.93433505 -0.42910516 0.0476482 -0.14543085 0.6235921 0.14390686 -0.140208
0.974427 0.9104363 1.228153 0.05772283 0.17442484 0.66496116 1.114348 0.32830155
0.8463021 0.31405067 0.60133713 0.17460899 1.3467963 0.65745175 -0.00056877936 0.6216694
0.3527732 0.29970837 0.20703852 -0.091030024 -0.0015097226 0.37275216 1.299767 1.1241822
0.395726 0.0057624457 0.74942505 1.558517 0.38972512 0.44497404 1.0791806 0.6538642
00000000: 9af0 963f bfd8 8e3c b6f0 bb3f b2f3 a03f
00000010: 6d9e 8a3f fb23 3e3f dc1c f03e 5baf 3a3f
00000020: 658b 6b3f 7ca2 db3d 1c92 a83e 0c2f 673f
00000030: 122b 0bbe b1f7 fb3e 746e e93e 2767 bc3f
00000040: 7b13 863f 1874 b23e 3b2c 57bd 4148 8d3e
00000050: d0d0 a13f 8a60 6fbd 7a7b f63f 6a5b 9e3f
00000060: 26f5 333f 9530 6f3f acb3 dbbe c22a 433d
00000070: d3eb 14be bba3 1f3f 525c 133e b092 0fbe
00000080: 0c74 793f 5a12 693f 1e34 9d3f c66e 6c3d
00000090: 6d9c 323e e53a 2a3f f5a2 8e3f 2417 a83e
000000a0: 41a7 583f 40cb a03e 3bf1 193f b3cc 323e
000000b0: d263 ac3f c24e 283f 231a 15ba ba25 1f3f
000000c0: b09e b43e 6073 993e e801 543e f36d babd
000000d0: e2e1 c5ba 5fd9 be3e c45e a63f 34e5 8f3f
000000e0: 999c ca3e e6d2 bc3b 52da 3f3f 7c7d c73f
000000f0: 0d8a c73e a3d3 e33e 9722 8a3f a563 273f

conv2.weight f4 [64, 64, 2, 2]
-0.47061604 2.7434049 -0.40511394 -1.8529296 0.06437094 0.582355 -1.903102 2.2744408
0.76625705 -0.39364424 -1.6363109 -2.8278868 0.87233746 -2.0513303 2.29018 2.0027149
-0.6183808 0.18262182 -1.0193088 1.468249 -0.10361909 0.36564904 -1.0949614 -1.1685293
0.008585748 -0.07478701 -1.026787 0.78389466 -0.6103997 -0.9437657 1.6618462 1.5565648
0.9282803 0.07742458 1.6237255 -0.16797687 -0.5742552 -0.013834473 1.9605256 -0.036386136
0.9827641 1.4379969 -2.319786 1.8068761 -0.67017466 1.1776073 -1.3373644 0.14742045
-0.791552 0.99948245 1.0214078 -0.46754587 -0.87073475 -0.0014467313 -0.22005154 1.0024577
-0.88169855 2.0896113 1.7876674 -1.0080649 -2.0192065 0.97268623 -3.3617187 2.8677566
1.4118232 0.8326907 0.85853815 0.7289748 -0.440425 -0.22249983 -0.41498092 0.48757452
-0.24262586 1.1169271 0.35478616 -0.2776356 1.6016939 1.1104091 -0.4978687 -0.27309477
0.39692906 0.93760455 -3.6154146 2.7251158 0.92483526 -1.0836043 0.15535814 -1.259623
-0.79263204 -0.085929714 1.3347925 -0.734442 -0.297786 0.6393292 1.0141476 -0.29132512
-0.34061858 -0.052574534 0.5897365 0.6126996 -0.8673689 -0.88760525 -1.2327971 1.8833114
2.0652418 -1.1468518 0.62014866 1.0109013 0.28113776 -0.27084425 -2.7966616 -1.4534559
-0.6696237 -3.5399404 -0.33369806 -1.682683 0.7074989 0.7280024 -1.3129182 1.920177
1.0106945 -0.35762417 0.24450728 -1.53144 -0.016761413 0.5884344 0.9973122 -0.8752968
-0.3699835 0.4191211 1.6899223 0.055372052 0.1345401 1.4659829 -0.14937662 -0.9766971
1.4048638 2.4351416 -0.92208636 -0.37603796 2.0470524 0.26583013 -1.2103543 -0.8821683
-1.3002526 2.9206445 -0.7173448 -0.14025708 -0.7076589 0.07309073 2.2322674 -0.5783013
-0.7893018 -0.20395441 -0.81515104 -0.027024504 -2.2588134 -0.13866623 0.9830271 0.95585895
0.7330767 -0.16301528 0.40037924 1.2382735 -1.970889 -0.04004235 -1.0566443 1.1621138
-0.5835086 0.47346184 -0.7510353 0.07799689 1.1259358 -1.0188897 0.42903018 0.83072376
0.6055258 -0.4907674 -1.5430475 -1.8913293 0.29705593 -1.6160035 1.181263 2.3034027
-0.66291434 -0.14686425 -0.40788525 1.7198384 0.32179922 0.03920821 -0.6772586 -0.13199139
-0.5364254 0.97965336 -0.27484232 0.25792235 0.17013516 -0.007584211 -1.3061666 -0.47715658
0.13400395 0.92026615 -1.040434 1.1988333 1.7934026 -0.19246452 0.5728568 1.5220428
0.108801425 -1.0057467 1.2926824 1.2177403 -0.9662836 1.3237765 -0.39028326 -0.95595056
0.4677703 -1.1004382 -1.3874855 1.0997771 0.427954 -0.8491895 0.0057325256 1.5192262
-0.37175524 0.019994501 -1.3865328 1.5921423 -2.0045276 0.27806413 -0.57883567 0.88361233
-0.4219097 -0.30031636 -0.8488202 3.0698514 -0.99505866 0.037092116 -0.069189325 1.0952736
-0.07981047 -0.00560619 -1.2232926 0.79396677 0.042453192 0.5388919 -2.6897445 -0.8241128
-0.24867103 0.7163077 -1.0266739 0.17651486 0.052953828 0.9139721 1.3905694 -0.5193828
00000000: 96f4 f0be f293 2f40 186b cfbe cc2c edbf
00000010: e9d4 833d 3815 153f d998 f3bf 7090 1140
00000020: 6c29 443f bd8b c9be a372 d1bf 19fc 34c0
00000030: 8251 5f3f ff48 03c0 4f92 1240 7b2c 0040
00000040: 344e 1ebf 3701 3b3e b678 82bf 95ef bb3f
00000050: 3f36 d4bd 5a36 bb3e b227 8cbf 5e92 95bf
00000060: 3dab 0c3c ef29 99bd c26d 83bf 52ad 483f
00000070: 2843 1cbf a19a 71bf 60b7 d43f 843d c73f
00000080: c7a3 6d3f c790 9e3d 3dd6 cf3f 2102 2cbe
00000090: 6402 13bf fca9 62bc 81f2 fa3f a109 15bd
000000a0: 6e96 7b3f 4810 b83f 6077 14c0 b747 e73f
000000b0: 9190 2bbf d6bb 963f c22e abbf 63f5 163e
000000c0: 27a3 4abf 15de 7f3f 7ebd 823f 2c62 efbe
000000d0: 79e8 5ebf 3fa0 bdba 3155 61be 8950 803f
000000e0: ffb6 61bf 31bc 0540 49d2 e43f 4508 81bf
000000f0: ae3a 01c0 f701 793f 6626 57c0 5389 3740
00000100: 9fb6 b43f 382b 553f 28c9 5b3f 189e 3a3f
00000110: 637f e1be ffd6 63be 6178 d4be 5ea3 f93e
00000120: ea72 78be 78f7 8e3f 88a6 b53e 4126 8ebe
00000130: 4e04 cd3f e321 8e3f a5e8 febe 14d3 8bbe
00000140: 493a cb3e da06 703f f462 67c0 4c68 2e40
00000150: 01c2 6c3f 8cb3 8abf 3416 1f3e 543b a1bf
00000160: efe9 4abf ebfb afbd 7bda aa3f 6404 3cbf
00000170: 6877 98be 14ab 233f 97cf 813f 9128 95be
00000180: 8f65 aebe 6558 57bd f9f8 163f e2d9 1c3f
00000190: e30b 5ebf 193a 63bf 4ccc 9dbf 5910 f13f
000001a0: ec2c 0440 0acc 92bf 10c2 1e3f 3765 813f
000001b0: 4af1 8f3e 19ac 8abe 81fc 32c0 d80a babf
000001c0: 756c 2bbf 628e 62c0 79da aabe 2862 d7bf
000001d0: a61e 353f 5e5e 3a3f b40d a8bf 5cc8 f53f
000001e0: 705e 813f 841a b7be 1e60 7a3e 3a06 c4bf
000001f0: 3b4f 89bc a3a3 163f da4f 7f3f 7313 60bf
00000200: 7a6e bdbe 0a97 d63e 604f d83f cecd 623d
00000210: e1c4 093e 54a5 bb3f 2ff6 18be d208 7abf
00000220: 94d2 b33f 5cd9 1b40 da0d 6cbf 0c88 c0be
00000230: e802 0340 e31a 883e e4ec 9abf c8d5 61bf
00000240: ad6e a6bf d7eb 3a40 e9a3 37bf 8d9f 0fbe
00000250: 2229 35bf 98b0 953d 78dd 0e40 8e0b 14bf
00000260: af0f 4abf 6dd9 50be bdad 50bf 7e62 ddbc
00000270: 6690 10c0 85fe 0dbe aaa7 7b3f 2cb3 743f
00000280: eaaa 3b3f 7aed 26be 82fe cc3e bf7f 9e3f
00000290: 1746 fcbf 7203 24bd 1f40 87bf 25c0 943f
000002a0: d260 15bf 9769 f23e d943 40bf d5bc 9f3d
000002b0: aa1e 903f fa6a 82bf d8a9 db3e 50aa 543f
000002c0: bd03 1b3f dd45 fbbe 9582 c5bf 1417 f2bf
000002d0: b717 983e 34d9 cebf a033 973f f36a 1340
000002e0: c1b4 29bf 9563 16be 56d6 d0be aa23 dc3f
000002f0: dec2 a43e ca98 203d d260 2dbf c028 07be
00000300: 2d53 09bf 90ca 7a3f 22b8 8cbe 660e 843e
00000310: e937 2e3e f984 f8bb 7830 a7bf de4d f4be
00000320: 5538 093e 9096 6b3f f12c 85bf 5f73 993f
00000330: 378e e53f 6b15 45be bea6 123f 4cd2 c23f
00000340: 48d3 de3d 4fbc 80bf 9e76 a53f eade 9b3f
00000350: 5d5e 77bf 8271 a93f 35d3 c7be 2db9 74bf
00000360: 977f ef3e 29db 8cbf 2099 b1bf 7fc5 8c3f
00000370: c91c db3e 7c64 59bf e9d7 bb3b 0176 c23f
00000380: b456 bebe 82cb a33c e879 b1bf 52cb cb3f
00000390: 2e4a 00c0 6c5e 8e3e 932e 14bf 6b34 623f
000003a0: 8c04 d8be 11c3 99be 484c 59bf 7278 4440
000003b0: 2abc 7ebf e7ed 173d 22b3 8dbd ed31 8c3f
000003c0: ac73 a3bd 21b4 b7bb da94 9cbf 6841 4b3f
000003d0: 66e3 2d3d d2f4 093f c624 2cc0 0ef9 52bf
000003e0: 9ea3 7ebe f15f 373f 0d6a 83bf 50c0 343e
000003f0: 1de6 583d 13fa 693f 2efe b13f 45f6 04bf

conv2.bias f4 [64]
0.30899248 0.13776213 0.35675383 0.26836506 0.31889766 0.10748189 0.49932232 0.35675243
-0.034055937 -0.057473816 0.5056676 0.1671499 0.21865354 0.44923744 0.042060643 0.36145616
0.23944697 0.47304896 0.22008243 0.28885794 0.4595811 0.17514645 0.24765009 0.65094036
0.21408021 0.36880067 0.39647874 0.33348152 0.13306573 0.020243362 0.32808274 0.3550782
0.29848793 -0.03470427 0.41123238 0.18280494 0.3983007 0.37235728 0.8063172 0.18502583
0.24835707 0.2612064 0.2657074 0.57930475 0.4127821 0.29932737 0.35967848 0.55050045
0.5146265 0.32386553 0.22005555 0.34444228 0.33161837 0.43431178 -0.06963249 0.08617039
0.2679144 0.21157847 0.32856917 0.68824846 0.36994508 0.123995036 0.16997704 0.24733882
00000000: 4334 9e3e 8411 0d3e 70a8 b63e 2567 893e
00000010: 8e46 a33e 771f dc3d 2da7 ff3e 41a8 b63e
00000020: 3d7e 0bbd aa69 6bbd 6f73 013f 5829 2b3e
00000030: b7e6 5f3e 7302 e63e c847 2c3d c810 b93e
00000040: 9631 753e 7933 f23e 4a5d 613e 30e5 933e
00000050: 374e eb3e 9759 333e fc97 7d3e 07a4 263f
00000060: d837 5b3e 71d3 bc3e 43ff ca3e 17be aa3e
00000070: 6242 083e 68d5 a53c 76fa a73e cfcc b53e
00000080: 69d3 983e 1126 0ebd 0d8d d23e 3831 3b3e
00000090: 12ee cb3e 9da5 be3e ce6a 4e3f 6977 3d3e
000000a0: 5151 7e3e d8bc 853e cd0a 883e 514d 143f
000000b0: 2d58 d33e 7041 993e c727 b83e 99ed 0c3f
000000c0: 90be 033f b4d1 a53e 3e56 613e bd5a b03e
000000d0: e2c9 a93e 1d5e de3e 7b9b 8ebd 1a7a b03d
000000e0: 142c 893e 07a8 583e 383a a83e 0d31 303f
000000f0: 7169 bd3e 1cf1 fd3d 760e 2e3e 6346 7d3e

conv3.weight f4 [64, 64, 2, 2]
1.7689477 0.8283942 0.00755955 0.3441281 0.8172503 0.10837761 -0.2585874 -0.04620574
-0.830895 -0.0004838756 -0.30832955 -0.46442792 0.12041858 0.5374472 -0.056557935 0.64644676
0.8046534 1.877772 -0.55396163 -1.2690847 1.7981968 1.4016668 -0.012545295 1.7875658
0.20264582 0.40285042 1.6601222 -0.19666702 0.35840547 -0.80027556 0.067883626 -0.0052275336
0.036320735 -0.052458312 -0.027106442 -0.019259324 0.027382264 -0.06850571 0.012418501 0.0075656846
1.3716134 -0.3453892 1.9482592 -1.4112203 -0.75686365 0.4023181 -1.0707991 1.0409708
0.15384948 0.41657612 0.37460175 1.1603937 1.4023398 -0.5451232 0.43226117 -0.58296394
0.005180102 0.0028960758 0.038563475 0.010188783 0.7154475 0.7347525 0.2653352 0.08340113
2.1467066 -0.70970106 0.8119638 -0.4778043 -0.7931965 -0.5619603 1.2790583 -0.3069071
1.5815325 -1.2688372 -0.01467728 -0.78055453 -0.18429565 0.46509615 -0.65884846 -1.1739768
0.6302401 1.0294348 -0.6071625 -0.78263557 -0.30163342 0.501552 0.25016442 0.7943778
0.4288428 -0.30129364 -0.74029136 2.9805422 1.6562629 0.37760302 -0.37143573 -1.1848541
-0.5081481 0.97963715 0.28919405 1.7377602 0.951513 0.0074051367 0.3763082 -0.21858203
0.53574693 0.29036638 0.64367753 -0.37349072 -0.14080215 -0.28723803 -0.19338912 0.7587778
0.43408117 0.44954133 -0.108353734 -0.8516095 -0.21104753 0.49584344 1.0292786 0.06517812
0.60260737 0.07324976 0.16509141 0.14398116 -0.5598448 -0.9084841 -0.24332654 0.7599684
1.4555546 0.57495534 0.57637525 -1.8142843 0.90409374 1.2105027 -1.24316 0.6383778
-0.30157572 0.5138935 0.6139847 0.2623145 0.53169197 0.092332006 -0.848067 0.7938878
0.5639811 1.8429177 -0.75570476 0.11122098 0.33414185 -0.30312082 -0.7869071 0.4311903
0.48459977 0.29786307 0.33915123 0.42633668 0.9744855 0.6219712 -0.16513607 0.1061327
-1.21002 -0.41909972 1.6228694 -0.2364357 1.5265937 0.5873339 -0.8408425 0.08349425
0.95356286 -0.20774716 1.652976 0.7820311 0.078018904 -0.031965215 -0.915282 -0.19333307
-0.9742192 -1.6542057 1.2447253 0.7411111 -0.03583257 2.7705483 1.4550272 0.41754872
0.12981118 0.9637125 0.2193245 0.34018385 -1.1146433 -1.2441398 0.9724897 0.27313888
-0.58551353 0.25643086 1.81051 2.0170743 0.8880032 0.37343714 -1.9570714 -1.7495941
0.5678351 2.2489936 0.39312953 1.0200574 0.45639908 -0.33040062 -1.4078009 -0.35414279
0.36352184 -0.17369875 0.9077025 -0.19056427 -0.44287428 -0.20464534 -0.3415483 0.17422216
0.04183453 -0.04792041 0.005027747 0.007667232 0.4803549 2.6101494 -0.39907268 0.68823004
0.23454621 0.13257757 0.24861407 -1.6199474 -0.13803598 0.580357 1.452486 -0.34947082
-1.7254397 0.3277898 1.9924961 -0.30362043 -0.36352795 -0.025711698 1.0098586 1.3374386
1.2064964 -1.9465505 -1.3203236 0.8643406 2.0897367 3.527741 0.58068585 0.5844473
-0.6988669 -0.43422797 1.5933585 1.7607574 1.7320459 -0.7535489 0.53489137 1.5145073
00000000: e16c e23f a411 543f 1ab6 f73b 8f31 b03e
00000010: 5137 513f 15f5 dd3d 9165 84be 3b42 3dbd
00000020: 89b5 54bf afb0 fdb9 5fdd 9dbe 7fc9 edbe
00000030: 049e f63d 2496 093f 4ba9 67bd 897d 253f
00000040: c4fd 4d3f d55a f03f 6ed0 0dbf 5e71 a2bf
00000050: 502b e63f d169 b33f c88a 4dbc f5ce e43f
00000060: 6382 4f3e 6942 ce3e e27e d43f 1463 49be
00000070: ec80 b73e dcde 4cbf 9206 8b3d bb4b abbb
00000080: 0dc5 143d 87de 56bd 540e debc bbc5 9dbc
00000090: c550 e03c b94c 8cbd f876 4b3c 90e9 f73b
000000a0: 0791 af3f dad6 b0be 8f60 f93f dea2 b4bf
000000b0: d1c1 41bf a3fc cd3e f20f 89bf 883e 853f
000000c0: b88a 1d3e 7749 d53e cdcb bf3e c887 943f
000000d0: df7f b33f 328d 0bbf 5651 dd3e 203d 15bf
000000e0: d8bd a93b 17cc 3d3b bcf4 1d3d daee 263c
000000f0: 9127 373f bd18 3c3f 04da 873e 36ce aa3d
00000100: a463 0940 f8ae 35bf dcdc 4f3f c4a2 f4be
00000110: ed0e 4bbf a1dc 0fbf 2fb8 a33f ed22 9dbe
00000120: a86f ca3f 4269 a2bf f978 70bc 6cd2 47bf
00000130: 00b8 3cbe 1521 ee3e 4baa 28bf df44 96bf
00000140: 6a57 213f 85c4 833f 006f 1bbf ce5a 48bf
00000150: b26f 9abe b665 003f 8d15 803e 585c 4b3f
00000160: 4991 db3e 2943 9abe bc83 3dbf 34c1 3e40
00000170: 6c00 d43f 2f55 c13e d32c bebe 4da9 97bf
00000180: fe15 02bf 80c9 7a3f 3e11 943e ed6e de3f
00000190: 5b96 733f caa6 f23b 78ab c03e f8d3 5fbe
000001a0: b626 093f e7aa 943e 0dc8 243f 2d3a bfbe
000001b0: 702e 10be dd10 93be cc07 46be 433f 423f
000001c0: e33f de3e 482a e63e 90e8 ddbd 1503 5abf
000001d0: d81c 58be 31df fd3e 67bf 833f 1b7c 853d
000001e0: 7a44 1a3f f803 963d b90d 293e cc6f 133e
000001f0: fd51 0fbf 6a92 68bf 982a 79be 4a8d 423f
00000200: 9d4f ba3f 4630 133f 548d 133f 783a e8bf
00000210: b072 673f c1f1 9a3f de1f 9fbf ba6c 233f
00000220: 2268 9abe 868e 033f 1a2e 1d3f 164e 863e
00000230: f71c 083f 9018 bd3d eb1a 59bf 3b3c 4b3f
00000240: 1161 103f bae4 eb3f de75 41bf d3c7 e33d
00000250: a414 ab3e a732 9bbe be72 49bf fac4 dc3e
00000260: 761d f83e 8281 983e 3ba5 ad3e cd48 da3e
00000270: e277 793f 8139 1f3f 6e19 29be 1a5c d93d
00000280: efe1 9abf 3d94 d6be 2fba cf3f 331c 72be
00000290: 6c67 c33f 845b 163f 7441 57bf 09ff aa3d
000002a0: b21c 743f acbb 54be b894 d33f 3133 483f
000002b0: 60c8 9f3d f5ed 02bd ec4f 6abf 1bf9 45be
000002c0: 6e66 79bf 03bd d3bf 2953 9f3f 75b9 3d3f
000002d0: 2cc5 12bd aa50 3140 553e ba3f f2c8 d53e
000002e0: 39ed 043e ddb5 763f 9a96 603e 942c ae3e
000002f0: a2ac 8ebf f93f 9fbf 16f5 783f dcd8 8b3e
00000300: 37e4 15bf e84a 833e cbbe e73f bf17 0140
00000310: 2d54 633f 2733 bf3e 5181 fabf b3f2 dfbf
00000320: a45d 113f 83ef 0f40 4648 c93e 3e91 823f
00000330: 24ad e93e 452a a9be d232 b4bf 3452 b5be
00000340: 891f ba3e 16de 31be 315f 683f 4823 43be
00000350: 6bc0 e2be 8c8e 51be 6bdf aebe 4b67 323e
00000360: af5a 2b3d 3148 44bd ccbf a43b 673d fb3b
00000370: 14f1 f53e b00c 2740 4153 ccbe d82f 303f
00000380: e22c 703e 6ac2 073e b094 7e3e 705a cfbf
00000390: 4e59 0dbe 4792 143f 10eb b93f d7ed b2be
000003a0: 35db dcbf 11d4 a73e 1d0a ff3f 2374 9bbe
000003b0: 5620 babe 57a1 d2bc 0c43 813f 3031 ab3f
000003c0: 796e 9a3f 9128 f9bf 5d00 a9bf 6d45 5d3f
000003d0: 3fbe 0540 82c6 6140 d4a7 143f 579e 153f
000003e0: f1e8 32bf 2153 debe 2cf3 cb3f 8060 e13f
000003f0: aeb3 dd3f 95e8 40bf a4ee 083f 60db c13f

conv3.bias f4 [64]
0.71925807 0.48302478 0.3958324 0.7608887 0.448634 0.3971532 0.2878982 0.42679712
-0.08190422 0.6355694 0.10263871 0.7125406 0.01123606 -0.03989102 -0.039460335 -0.10783907
0.55518466 0.23709421 0.53640085 0.6422128 0.6860931 0.041753758 -0.044879127 0.5942835
0.16376251 0.45570645 0.42509693 0.31419474 0.46861345 0.5958615 0.027027184 0.09995113
0.20695493 0.6049928 0.9633286 0.66496706 0.38513997 -0.07466789 0.46480262 0.5347417
-0.125477 0.14771092 -0.012282805 0.35439634 0.16606297 0.08892808 -0.04406695 0.61877185
0.08255995 0.505667 0.32456878 0.46736112 0.15561536 0.49181163 -0.26217616 0.3098806
0.6954699 0.04921499 0.24752411 -0.057508633 0.42041308 0.46884727 0.62031776 0.27989239
00000000: 4c21 383f 064f f73e 8baa ca3e 9ac9 423f
00000010: 5bb3 e53e aa57 cb3e 6567 933e 2785 da3e
00000020: 66bd a7bd adb4 223f 3e34 d23d 1069 363f
00000030: 7417 383c c464 23bd 29a1 21bd bbda dcbd
00000040: 9520 0e3f d3c8 723e 9151 093f 0f68 243f
00000050: cca3 2f3f fd05 2b3d 2dd3 37bd f722 183f
00000060: 5cb1 273e 5b52 e93e 4ea6 d93e 22de a03e
00000070: 1aee ef3e 618a 183f 1d68 dd3c 2eb3 cc3d
00000080: feeb 533e cfe0 1a3f b49c 763f 483b 2a3f
00000090: 1131 c53e 7beb 98bd 9cfa ed3e d5e4 083f
000000a0: 0b7d 00be 8841 173e d13d 49bc 7073 b53e
000000b0: 690c 2a3e ed1f b63d 8c7f 34bd d567 1e3f
000000c0: 3115 a93d 6473 013f e12d a63e f549 ef3e
000000d0: a259 1f3e bcce fb3e f43b 86be aca8 9e3e
000000e0: 510a 323f a895 493d f676 7d3e 2c8e 6bbd
000000f0: 6240 d73e c00c f03e 25cd 1e3f 0e4e 8f3e

fc1.weight f4 [64, 128]
-3.269814 -0.42816144 -2.520531 -0.6971634 -0.70092535 -4.0202856 -4.292881 0.2824113
-0.86148185 -1.1352524 2.8917696 2.237098 -0.75736207 -1.3817425 -1.5578817 -1.528372
0.07395678 -0.037351873 2.4324863 2.1652243 1.0526218 2.2326863 -0.39904392 -2.9195828
-0.025868323 0.029941963 0.041849364 -0.00779099 -0.06099873 -0.040214352 -0.06178913 -0.01938763
-3.6619546 1.3487906 -0.74922997 5.5662994 -1.6457347 -2.2730489 1.5207893 -1.1933669
1.3272885 -1.0325706 1.4288844 1.653389 -0.043317225 -0.003959001 0.9807022 -2.7086654
-2.3137763 2.859932 0.7342572 -4.137424 -0.5425846 -2.1568925 2.1652892 -2.0548844
-0.3272897 -1.3564271 -3.3113418 -0.95612544 3.2155838 2.929027 -1.0287538 3.4306877
1.5695543 0.9827887 1.4506477 -1.4787568 1.6234231 -3.110629 -1.4483011 -0.5635519
-0.890291 4.6299686 0.0027433187 -0.06190212 -2.2478285 1.7361659 -2.1553771 -0.08636372
0.061425194 0.02819424 2.5869915 4.485241 0.08524878 0.037577175 -1.8670863 0.049027104
3.6230674 0.020481732 2.5677674 3.97401 2.9164686 2.0602574 -2.3846931 0.42523038
0.86184734 1.8397436 -0.2554322 -4.491445 -2.2597222 -2.337039 0.8596086 -2.587632
3.1294494 -0.26335362 -0.32207888 -2.7440908 2.725684 2.1600206 2.8362303 -1.4487946
-1.9081523 -0.4289007 2.4365377 1.5971864 -3.1075177 -1.0152978 0.047408406 -0.0031022339
-3.0713162 -0.63931084 -0.8382088 -0.6210697 -4.067838 0.6804982 3.6882112 4.4692445
-0.7008862 -2.0443785 -2.032846 0.7149998 1.172326 0.24724504 1.6741316 0.32743433
2.7686615 1.1085793 -1.187449 2.6717963 1.4211361 -0.066172935 -1.2991205 -0.33409026
-0.025241211 0.005119756 -3.6078076 -0.020175004 -1.5452298 1.556341 0.33222938 0.16435443
-0.02815774 -0.041905366 -0.06044214 -0.037935425 -0.07497595 -0.017362183 -0.030311884 0.021222161
-1.620559 -0.38390887 0.5758227 -1.0678873 -2.7436311 2.010547 -0.045776583 -0.9275282
-1.9704652 -1.4126457 2.4690342 1.9015461 0.041845404 0.066058226 -0.28683403 -1.5347447
-1.2813742 0.90474296 -0.15686692 0.00723946 1.0530541 -2.2974172 1.0623463 0.44951692
-0.43846387 0.6946808 -3.0339744 -1.0015326 0.022750162 2.9220827 0.8298195 0.9561545
0.2867292 -1.5223349 -0.8380546 -1.1742594 0.68194294 -0.5081839 -0.30826107 -3.152561
-1.1432867 2.846809 0.048593633 0.024071813 -4.402212 1.1119006 -1.5069568 -1.7761742
0.05919522 -0.070809565 1.5063318 -0.5824291 0.07191226 0.028631132 1.0159031 0.29487285
-1.7641424 -0.3852241 1.3912126 -0.59811413 -0.003061939 0.88410664 -3.5968769 -3.532743
2.189144 -3.3207598 -1.2158281 0.7120256 -0.8387716 1.639611 -1.0753767 -1.5061256
1.5357668 -0.9154832 0.15023881 -1.5171975 2.9306839 -0.94656795 -1.4897332 -1.8783522
-2.5741322 -0.6317779 2.5725768 -1.9248962 0.65654916 0.5653802 0.009510756 0.0023415238
-0.31925642 -0.47481152 -2.3021948 2.4063404 0.9910967 -1.4475275 0.93492025 -1.53196
00000000: a244 51c0 fa37 dbbe 6150 21c0 4d79 32bf
00000010: d86f 33bf 2ea6 80c0 485f 89c0 3798 903e
00000020: 138a 5cbf f34f 91bf c112 3940 9d2c 0f40
00000030: 7be2 41bf f0dc b0bf ab68 c7bf b2a1 c3bf
00000040: a776 973d 47fe 18bd dbad 1b40 0993 0a40
00000050: 50bc 863f 55e4 0e40 7c4f ccbe 72da 3ac0
00000060: cee9 d3bc d948 f53c 3d6a 2b3d 904b ffbb
00000070: ced9 79bd ceb7 24bd 9916 7dbd cfd2 9ebc
00000080: 775d 6ac0 2ca5 ac3f 89cd 3fbf 201f b240
00000090: 6fa7 d2bf a279 11c0 39a9 c23f 3fc0 98bf
000000a0: 97e4 a93f 462b 84bf afe5 b63f 40a2 d33f
000000b0: 676d 31bd 82ba 81bb 4d0f 7b3f c65a 2dc0
000000c0: e914 14c0 2009 3740 48f8 3b3f c765 84c0
000000d0: d3e6 0abf 870a 0ac0 1994 0a40 3a83 03c0
000000e0: 8492 a7be 679f adbf 06ed 53c0 a3c4 74bf
000000f0: 20cc 4d40 2e75 3b40 34ae 83bf 6390 5b40
00000100: 28e7 c83f 0a98 7b3f d3ae b93f e747 bdbf
00000110: 54cc cf3f 8c14 47c0 ee61 b9bf f044 10bf
00000120: 1cea 63bf b428 9440 40c9 333b 148d 7dbd
00000130: 6cdc 0fc0 af3a de3f b3f1 09c0 76df b0bd
00000140: fc98 7b3d 9bf7 e63c 4591 2540 1887 8f40
00000150: ea96 ae3d 86ea 193d affc eebf a5d0 483d
00000160: 56e0 6740 4ec9 a73c 4d56 2440 2e56 7e40
00000170: 6ca7 3a40 42db 0340 d09e 18c0 ccb7 d93e
00000180: 07a2 5c3f b87c eb3f 02c8 82be ebb9 8fc0
00000190: 4a9f 10c0 0c92 15c0 4f0f 5c3f c39b 25c0
000001a0: e648 4840 49d6 86be 86e7 a4be 2f9f 2fc0
000001b0: 9b71 2e40 c73d 0a40 cc84 3540 1a72 b9bf
000001c0: 563e f4bf df98 dbbe 3cf0 1b40 9b70 cc3f
000001d0: 92e1 46c0 47f5 81bf 512f 423d d94e 4bbb
000001e0: 7290 44c0 e0a9 23bf da94 56bf 6dfe 1ebf
000001f0: bb2b 82c0 2135 2e3f a70b 6c40 0d04 8f40
00000200: 476d 33bf 19d7 02c0 261a 02c0 3a0a 373f
00000210: c70e 963f ce2d 7d3e f249 d63f 79a5 a73e
00000220: c031 3140 ede5 8d3f 54fe 97bf b6fe 2a40
00000230: cae7 b53f ad85 87bd 9549 a6bf e10d abbe
00000240: a8c6 cebc a0c3 a73b 52e6 66c0 0d46 a5bc
00000250: 17ca c5bf 2f36 c73f f819 aa3e 874c 283e
00000260: 10ab e6bc f6a4 2bbd 2d92 77bd 2d62 1bbd
00000270: fe8c 99bd 233b 8ebc a150 f8bc 19da ad3c
00000280: 7a6e cfbf b48f c4be 1e69 133f 88b0 88bf
00000290: a797 2fc0 cdac 0040 3a80 3bbd 7d72 6dbf
000002a0: 3438 fcbf 93d1 b4bf a804 1e40 dd65 f33f
000002b0: 1666 2b3d 8949 873d e9db 92be 8472 c4bf
000002c0: 1204 a4bf 3c9d 673f b9a1 20be fe38 ed3b
000002d0: 7aca 863f e208 13c0 f7fa 873f 1527 e63e
000002e0: 567e e0be 9ad6 313f a32c 42c0 3832 80bf
000002f0: 8c5e ba3c 6703 3b40 0d6f 543f 8bc6 743f
00000300: 2bce 923e dfdb c2bf bf8a 56bf 224e 96bf
00000310: d093 2e3f 5718 02bf 65d4 9dbe 8fc3 49c0
00000320: 3857 92bf 1e32 3640 1e0a 473d 4032 c53c
00000330: ecde 8cc0 c252 8e3f f6e3 c0bf ad59 e3bf
00000340: b076 723d 9b04 91bd 7bcf c03f 131a 15bf
00000350: bc46 933d d68b ea3c 1d09 823f 93f9 963e
00000360: 6bcf e1bf 183c c5be 4113 b23f 021e 19bf
00000370: d0aa 48bb d054 623f 3b33 66c0 7618 62c0
00000380: ef1a 0c40 5487 54c0 41a0 9bbf 4f47 363f
00000390: bcb9 56bf c6de d13f f2a5 89bf b9c8 c0bf
000003a0: 0294 c43f 1b5d 6abf 34d8 193e 8733 c2bf
000003b0: 5390 3b40 4752 72bf 94af bebf d86d f0bf
000003c0: 95be 24c0 32bc 21bf 19a5 2440 0063 f6bf
000003d0: 9b13 283f c2bc 103f 00d3 1b3c 4074 193b
000003e0: 9475 a3be 7f1a f3be 2957 13c0 7b01 1a40
000003f0: 83b8 7d3f 9548 b9bf ef56 6f3f 4417 c4bf

fc1.bias f4 [64]
-0.44130257 -0.18459798 -0.63488275 -0.01485393 -0.15608418 -0.00066631404 -0.4220338 -0.36243126
-0.14163561 0.09672385 0.21598525 0.0028050279 -0.3407584 0.19868368 -0.32996598 -0.23892821
-0.13616003 -0.14339992 -0.07440097 0.098012485 -0.327651 0.3341917 -0.071256205 -0.08584439
0.1873099 -0.20102568 -0.5369822 0.6194217 -0.40475222 -0.2892924 -0.75324404 0.32773164
-0.03913673 -0.3286474 -0.11231772 -0.275115 0.34537467 0.01410261 -0.18172759 -0.35720465
0.65414 0.43164125 -0.13094002 -0.14435276 0.12579215 0.3256731 -0.16329102 0.18118124
-0.0051773293 -0.22881165 0.4242358 -0.123441935 -0.78687197 0.12959859 0.21276996 -0.05989739
0.3828223 0.37280354 -0.13786452 -0.19234233 -0.18793839 -0.4341352 0.21304148 0.45156163
00000000: 69f2 e1be 4107 3dbe ad87 22bf e65d 73bc
00000010: 88d4 1fbe 94ab 2eba d014 d8be 9790 b9be
00000020: ed08 11be 2717 c63d 3d2b 5d3e 8fd4 373b
00000030: e377 aebe bc73 4b3e 4df1 a8be 99a9 74be
00000040: 896d 0bbe 6ed7 12be 895f 98bd c5ba c83d
00000050: dfc1 a7be 2d1b ab3e c6ee 91bd 2fcf afbd
00000060: 2bce 3f3e add9 4dbe aa77 09bf 6c92 1e3f
00000070: af3b cfbe 221e 94be 9ad4 40bf 71cc a73e
00000080: d64d 20bd 7944 a8be d506 e6bd e0db 8cbe
00000090: f3d4 b03e a20e 673c cc16 3abe 87e3 b6be
000000a0: b875 273f 1500 dd3e 2415 06be 36d1 13be
000000b0: a8cf 003e a0be a63e c335 27be 9387 393e
000000c0: 96a6 a9bb 9a4d 6abe 6f35 d93e 20cf fcbd
000000d0: 7170 49bf 7eb5 043e 5ee0 593e f756 75bd
000000e0: 4901 c43e 1be0 be3e 5b2c 0dbe 63f5 44be
000000f0: ec72 40be f846 debe 8c27 5a3e 1633 e73e

fc2.weight f4 [7, 64]
3.7294462 4.1068487 3.8545704 -0.02197334 5.6235213 -0.009993907 3.879859 4.3304734
0.014658118 3.0528498 0.1062905 4.0713434 3.0806217 3.6272485 3.139653 2.9236956
3.3275132 0.054244485 3.7159622 4.6014347 4.4619946 3.307228 0.0877139 0.03226277
3.2660565 -5.0127883 3.2684035 2.807212 3.5429137 5.6303744 4.44552 3.9229357
3.4376757 3.026083 2.9819732 4.0796204 4.724859 3.46406 2.9081526 3.574015
2.9580512 3.4590456 3.4907467 3.9336503 3.1555405 3.3364882 0.06695843 3.463403
3.2431715 3.5516078 3.2424731 0.038763355 3.305472 3.6582289 5.244087 -0.07368325
4.466337 3.66711 3.4655535 4.202127 3.2723868 3.5933747 3.078373 3.2162492
3.7829437 4.028064 -2.6195993 -0.07733857 5.538932 0.064046755 3.7196014 4.3016777
-0.09000973 3.1514504 3.8952281 4.0114665 3.17087 3.522721 3.1499083 2.8126998
3.2639818 0.02891812 3.5478144 4.6862187 4.5519724 3.3165016 -0.04711502 -0.08450885
3.2305396 2.4012225 3.2215574 2.7596653 3.5706997 5.533758 4.6171036 3.9975193
3.6920037 3.0670853 2.8257687 4.019911 4.8818474 3.5493789 2.9576542 3.3790433
2.9855368 3.526447 3.540577 3.8996518 3.343454 3.5653245 0.010500428 3.3886406
3.0671115 3.5688736 3.2860775 0.1053616 3.1800966 3.5674126 5.2257285 0.03829835
4.491739 3.7588658 3.1800506 4.146184 3.018672 3.7689724 3.0042934 3.3866818
3.5851176 4.115973 3.9893005 0.03241112 5.5668626 0.043279298 3.7821658 4.3406696
0.058386356 3.0283706 4.0183353 3.9948764 2.9876478 3.5795445 3.1109123 2.8560412
3.1661685 0.08020665 3.6697018 4.5127945 4.2905807 3.1887827 -0.097457096 -0.14209533
3.2716582 1.4963967 3.2705688 2.7876601 3.5003297 5.6258163 4.5632834 3.937998
3.5013044 3.0230768 2.8193865 3.975878 4.8983603 3.4551127 3.0245042 3.4993625
2.8747578 3.454088 3.5097613 3.8160293 1.5937562 3.3709364 0.014734868 3.4926405
3.0038216 3.4360967 3.2626505 -0.117885806 3.2382448 3.6171489 5.2115993 -0.008819076
4.4841065 3.768998 3.3324704 3.948925 3.1940918 3.406876 2.9804077 3.3373468
3.656998 4.1252303 3.827234 -0.06926112 5.560498 0.14962117 3.8420546 -0.6751263
-0.053375874 3.0059102 3.9947474 4.0556517 3.046603 3.653369 3.1606734 2.9224384
3.2656727 -0.14895369 3.7465477 0.6789321 4.4662905 3.3184013 0.009047966 0.09063405
3.2322497 2.347829 3.2230558 2.8239954 3.646773 5.616914 4.5251484 3.7999127
3.7772942 2.8776228 3.0188959 3.9459405 4.8450513 3.548349 2.8657029 3.570394
2.9246511 3.5675247 3.5060973 4.0404696 3.4000688 3.4563913 0.01838503 3.5135016
3.2569153 3.3967094 3.2612667 -0.010319275 3.4389112 3.727671 5.229351 -0.026200097
4.523875 3.6152492 3.5242126 4.06995 2.9700108 3.449006 3.0917573 3.3691716
00000000: 3faf 6e40 4e6b 8340 48b1 7640 6f01 b4bc
00000010: e3f3 b340 7cbd 23bc 9c4f 7840 3d93 8a40
00000020: 9a28 703c e461 4340 d5ae d93d 7248 8240
00000030: e828 4540 d724 6840 13f0 4840 d41d 3b40
00000040: faf5 5440 772f 5e3d 53d2 6d40 f43e 9340
00000050: a9c8 8e40 a0a9 5340 58a3 b33d f725 043d
00000060: 1207 5140 c368 a0c0 862d 5140 5da9 3340
00000070: 19bf 6240 072c b440 b341 8e40 6111 7b40
00000080: e102 5c40 58ab 4140 a6d8 3e40 408c 8240
00000090: 0c32 9740 29b3 5d40 2c1f 3a40 a9bc 6440
000000a0: b650 3d40 0161 5d40 6568 5f40 edc0 7b40
000000b0: 60f4 4940 0689 5540 8021 893d 65a8 5d40
000000c0: 1f90 4f40 8b4d 6340 ae84 4f40 53c6 1e3d
000000d0: da8c 5340 6c20 6a40 90cf a740 3ee7 96bd
000000e0: 3cec 8e40 eeb1 6a40 a1cb 5d40 d377 8640
000000f0: c96e 5140 daf9 6540 1004 4540 07d7 4d40
00000100: c01b 7240 e6e5 8040 84a7 27c0 af63 9ebd
00000110: ee3e b140 f22a 833d f30d 6e40 58a7 8940
00000120: 0557 b8bd 5db1 4940 6b4b 7940 ef5d 8040
00000130: 89ef 4a40 4374 6140 1998 4940 4603 3440
00000140: 14e5 5040 b1e5 ec3c 640f 6340 81f5 9540
00000150: c2a9 9140 9041 5440 aefb 40bd fa12 adbd
00000160: 29c1 4e40 a1ad 1940 ff2d 4e40 5b9e 3040
00000170: 5886 6440 8c14 b140 50bf 9340 5bd7 7f40
00000180: ca49 6c40 204b 4440 65d9 3440 1ca3 8040
00000190: 1838 9c40 0629 6340 354a 3d40 3f42 5840
000001a0: 0913 3f40 4fb1 6140 d098 6240 e593 7940
000001b0: 26fb 5540 472e 6440 fd09 2c3c 7ddf 5840
000001c0: 8e4b 4440 6d68 6440 184f 5240 d3c7 d73d
000001d0: b486 4b40 7d50 6440 2b39 a740 bbde 1c3d
000001e0: 53bc 8f40 4291 7040 f385 4b40 8aad 8440
000001f0: ec31 4140 d836 7140 5846 4040 65bf 5840
00000200: 9172 6540 0db6 8340 b350 7f40 86c1 043d
00000210: bd23 b240 a245 313d 010f 7240 c4e6 8a40
00000220: 8826 6f3d d3d0 4140 3496 8040 0eac 7f40
00000230: 9f35 3f40 4217 6540 3019 4740 61c9 3640
00000240: 81a2 4a40 6243 a43d 65dc 6a40 d068 9040
00000250: 704c 8940 0415 4c40 9697 c7bd 7081 11be
00000260: d962 5140 ed89 bf3f 0051 5140 0669 3240
00000270: 6705 6040 b006 b440 6b06 9240 2908 7c40
00000280: 5f15 6040 177a 4140 d470 3440 c974 7e40
00000290: 5ebf 9c40 9120 5d40 7a91 4140 8ef5 5f40
000002a0: 08fc 3740 c70f 5d40 ee9f 6040 d339 7440
000002b0: 3400 cc3f 6cbd 5740 846a 713c 6c87 5f40
000002c0: 9d3e 4040 02e9 5b40 44cf 5040 1d6e f1bd
000002d0: 673f 4f40 5e7f 6740 6cc5 a640 e37d 10bc
000002e0: cd7d 8f40 4337 7140 3247 5540 30bb 7c40
000002f0: 006c 4c40 420a 5a40 00bf 3e40 1797 5540
00000300: 410c 6a40 e301 8440 67f1 7440 c6d8 8dbd
00000310: 9aef b140 4b36 193e 39e4 7540 14d5 2cbf
00000320: a9a0 5abd d560 4040 f1a9 7f40 e6c7 8140
00000330: 8bfb 4240 ccd0 6940 7948 4a40 3b09 3b40
00000340: c800 5140 5187 18be 70c7 6f40 7ece 2d3f
00000350: daeb 8e40 b060 5440 ec3d 143c 589e b93d
00000360: 2edd 4e40 d542 1640 8c46 4e40 57bc 3440
00000370: bb64 6940 c2bd b340 04ce 9040 c531 7340
00000380: 30bf 7140 f92a 3840 9735 4140 4a8a 7c40
00000390: a90a 9b40 2618 6340 ad67 3740 5681 6440
000003a0: 7c2d 3b40 5352 6440 e663 6040 874b 8140
000003b0: ba9a 5940 8435 5d40 349c 963c 36dd 6040
000003c0: 4d71 5040 b063 5940 98b8 5040 2d12 29bc
000003d0: 1f17 5c40 2992 6e40 d856 a740 96a1 d6bc
000003e0: 96c3 9040 3e60 6740 b38c 6140 083d 8240
000003f0: a814 3e40 84bc 5c40 5adf 4540 82a0 5740

fc2.bias f4 [7]
-1.4403714 -1.4400575 -1.4335755 -1.4345624 -1.4396524 -1.4425143 -1.4349834
00000000: 175e b8bf ce53 b8bf 677f b7bf be9f b7bf
00000010: 8846 b8bf 4fa4 b8bf 89ad b7bf
