v1/brain/classification/classification_model_p2.pth (torch, 805137 bytes, 51 tensors)

conv1.weight f4 [64, 2, 3, 3]
-0.075381346 0.09685462 -0.22616723 0.18726557 -0.054885887 -0.09647217 0.021210032 -0.08090876
-0.213337 0.16039862 -0.059813034 0.02190185 0.000890176 0.15728429 0.19199036 0.0054854727
-0.028977584 -0.110902205 -0.07416647 -0.0149161555 0.15817696 -0.14200096 -0.21660148 0.07951257
-0.14652804 -0.1339489 0.21982346 0.18798575 -0.10340041 -0.05464683 0.012435867 0.097831845
0.091264166 0.22065744 0.038139928 -0.2030914 -0.1638841 0.20565756 0.23380636 -0.043448962
0.010270798 0.012535233 0.072563075 0.06302501 -0.15908359 -0.15378249 0.19405667 0.20391922
-0.22818471 -0.2238963 0.10634417 -0.16321294 0.1149592 -0.08974294 0.048691273 -0.18809353
0.1595515 0.18209559 -0.041080087 0.13942534 -0.024446677 -0.22906992 -0.21843223 0.0076009035
-0.035958588 -0.1051448 -0.21079777 -0.082616806 0.13129911 0.059314772 -0.022451226 -0.21607998
0.18629214 -0.21318814 0.017965125 -0.22268653 -0.17648599 0.034114894 0.05376797 -0.18216816
0.063749574 0.05707183 0.06736504 0.08229409 -0.120388374 0.014000814 0.0045716106 0.072357215
-0.097733796 0.18566698 0.17242563 0.056621775 -0.060821865 -0.027653316 -0.1167758 -0.03819624
-0.024846548 0.20425999 -0.044778742 -0.033756275 0.014035547 -0.17184685 -0.18728311 0.14543869
0.056484025 -0.19517255 -0.19583632 -0.0067477114 -0.124302894 0.21798983 -0.11925859 -0.032013178
0.21692659 -0.20891958 -0.1999486 0.10465997 -0.11972627 -0.19636719 0.024413086 -0.13945033
0.015536256 0.21071775 -0.07690935 -0.19474724 -0.066332445 0.093329765 0.036098965 0.08968152
-0.023584494 -0.14055492 -0.15124366 -0.012261144 -0.19208804 0.19042365 0.23182784 0.02885037
-0.16843656 -0.081497885 -0.163524 -0.038007207 -0.15219483 0.06096925 0.19594225 -0.1490387
-0.12289202 -0.030712115 -0.05507437 0.17099918 0.07157466 -0.23346123 0.054271247 -0.20545791
0.06815287 -0.023895673 0.17363821 0.13867107 0.060158983 -0.084035456 0.18306449 -0.07077754
-0.20530269 0.22600555 -0.19126213 -0.09507346 0.15771659 0.15583183 -0.032121506 -0.044052213
-0.09935359 0.02455816 0.020368548 0.18591112 0.14914252 0.1951114 0.099616 -0.09472212
-0.23286745 -0.071349464 0.13571845 -0.03869488 -0.19647229 -0.00036860764 -0.04171965 -0.1444966
-0.051372465 -0.19692154 -0.22276536 0.054972947 -0.20539187 0.08571473 -0.15249573 -0.14196332
0.107820235 -0.0048579434 0.123863325 0.13799232 -0.11079055 0.12537338 0.17605792 0.0620869
-0.017154343 0.12797461 -0.16733024 -0.04936651 0.17234579 0.17022517 -0.11891087 -0.20478694
-0.02369415 0.08650432 0.21075806 0.18428783 0.07556578 0.08394189 -0.19335398 -0.077524394
0.0867112 -0.11480537 0.0068159187 0.12610447 -0.19242753 0.08967676 0.14358269 -0.20485802
-0.0052220123 0.02587056 -0.080991454 0.17307088 0.042491805 0.19650805 -0.04124908 0.020057768
-0.22333743 -0.21296391 0.034690004 -0.22028932 -0.17126769 -0.088341005 -0.19585468 -0.09666919
0.074415 0.09994713 0.07544046 0.13677305 -0.08248639 0.15775149 -0.17121336 -0.1755166
0.22162375 -0.16607259 0.18947862 -0.1435783 0.0986955 -0.038187522 -0.004143438 0.13790362
00000000: 8961 9abd b75b c63d 6298 67be 8cc2 3f3e
00000010: 06d0 60bd 3393 c5bd a9c0 ad3c 7eb3 a5bd
00000020: 0475 5abe 893f 243e 83fe 74bd 826b b33c
00000030: b35a 693a 220f 213e 1f99 443e 7bbf b33b
00000040: 6662 edbc b220 e3bd 97e4 97bd e462 74bc
00000050: 24f9 213e b368 11be c7cc 5dbe 7cd7 a23d
00000060: 720b 16be e729 09be 6719 613e 567f 403e
00000070: 98c3 d3bd 5bd5 5fbd cfbf 4b3c 105c c83d
00000080: b5e8 ba3d 06f4 613e 9d38 1c3d 31f7 4fbe
00000090: 3cd1 27be e597 523e ef6a 6f3e 8af7 31bd
000000a0: d946 283c 9460 4d3c f39b 943d 4213 813d
000000b0: cfe6 22be 2879 1dbe cbb6 463e 33d0 503e
000000c0: 41a9 69be 1245 65be f9ca d93d 4b21 27be
000000d0: bb6f eb3d 26cb b7bd 8070 473d 979b 40be
000000e0: 7861 233e 4477 3a3e 9843 28bd 84c5 0e3e
000000f0: 6644 c8bc 4e91 6abe b3ac 5fbe 0011 f93b
00000100: 5049 13bd 2856 d7bd 5fdb 57be 0033 a9bd
00000110: 4673 063e 0cf4 723d a2eb b7bc 1244 5dbe
00000120: 5ec3 3e3e fe4d 5abe 992b 933c f007 64be
00000130: beb8 34be 0fbc 0b3d ce3b 5c3d 4a8a 3abe
00000140: 238f 823d 27c4 693d aff6 893d ce89 a83d
00000150: 2e8e f6bd ac63 653c 73cd 953b 0530 943d
00000160: a828 c8bd 7c1f 3e3e 5890 303e 3cec 673d
00000170: 5920 79bd 3589 e2bc 2728 efbd a973 1cbd
00000180: fd8a cbbc 8829 513e ea69 37bd 0544 0abd
00000190: 5af5 653c 9ff8 2fbe 25c7 3fbe e1ed 143e
000001a0: cb5b 673d 50db 47be 5189 48be e81b ddbb
000001b0: 8492 febd ba38 5f3e d93d f4bd 4020 03bd
000001c0: 0122 5e3e 04ef 55be 53bf 4cbe f757 d63d
000001d0: 0c33 f5bd 7b14 49be f4fd c73c 11cc 0ebe
000001e0: c88b 7e3c 65c6 573e a682 9dbd d26b 47be
000001f0: 4ed9 87bd ad23 bf3d 82dc 133d f2aa b73d
00000200: 4534 c1bc a1ed 0fbe 9edf 1abe f7e2 48bc
00000210: bab2 44be 6bfe 423e 4764 6d3e 9c57 ec3c
00000220: a27a 2cbe 5de8 a6bd d672 27be 72ad 1bbd
00000230: f6d8 1bbe e4ba 793d 16a5 483e 9a9d 18be
00000240: d0ae fbbd f997 fbbc aa95 61bd 691a 2f3e
00000250: bc95 923d 7610 6fbe 874b 5e3d 8f63 52be
00000260: bb93 8b3d dcc0 c3bc 37ce 313e caff 0d3e
00000270: 4469 763d c81a acbd 4275 3b3e d1f3 90bd
00000280: de3a 52be 006e 673e 38da 43be e0b5 c2bd
00000290: 7580 213e 6192 1f3e d791 03bd 1870 34bd
000002a0: e579 cbbd 322e c93c f1db a63c 7c5f 3e3e
000002b0: d1b8 183e 48cb 473e 7903 cc3d acfd c1bd
000002c0: ce74 6ebe ab1f 92bd c7f9 0a3e 867e 1ebd
000002d0: 0830 49be ae41 c1b9 39e2 2abd ebf6 13be
000002e0: ef6b 52bd cda5 49be 9a1c 64be 502b 613d
000002f0: 3f52 52be 348b af3d d727 1cbe d55e 11be
00000300: dbd0 dc3d 622f 9fbb 0eac fd3d dc4d 0d3e
00000310: 28e6 e2bd e161 003e 8748 343e d54e 7e3d
00000320: 4487 8cbc c70b 033e 9e58 2bbe 8a34 4abd
00000330: 6a7b 303e 824f 2e3e 8b87 f3bd abb3 51be
00000340: 3c1a c2bc 2d29 b13d f6d0 573e f3b5 3c3e
00000350: 3bc2 9a3d bae9 ab3d 96fe 45be 1cc5 9ebd
00000360: a495 b13d 141f ebbd 1258 df3b 8821 013e
00000370: b90b 45be 73a8 b73d 5707 133e 4dc6 51be
00000380: 6a1d abbb 7fee d33c d9de a5bd 7e39 313e
00000390: e30b 2e3d 6839 493e ccf4 28bd 3050 a43c
000003a0: 91b2 64be 3613 5abe 1b17 0e3d 8693 61be
000003b0: cc60 2fbe 21ec b4bd 218e 48be 7ffa c5bd
000003c0: e466 983d 15b1 cc3d 8780 9a3d 3c0e 0c3e
000003d0: a0ee a8bd 9b89 213e 8e52 2fbe a0ba 33be
000003e0: 56f1 623e ef0e 2abe af06 423e 3106 13be
000003f0: de20 ca3d 856a 1cbd adc5 87bb 9b36 0d3e

conv1.bias f4 [64]
0.025348919 -0.1593287 0.21508648 0.15742782 0.17031649 0.013378506 -0.1384245 -0.0010053291
-0.2339599 -0.23195824 0.2328995 0.009659733 -0.21182556 0.046008352 0.06951781 0.2155464
-0.18911292 0.10336409 -0.16681266 -0.041346967 0.14908764 -0.0893625 0.0081213135 0.0985601
0.19700052 0.1549988 0.14532378 0.040095534 0.06271463 -0.14837278 0.22820264 0.08199849
0.0077901804 -0.03313526 -0.07283916 -0.084526636 0.036332197 0.0520937 0.18226328 -0.07414202
0.09514959 -0.17020957 0.09942269 0.15425614 -0.12393177 -0.15301493 0.14243066 0.042209554
-0.14870545 -0.021738412 -0.048080407 -0.004553919 0.058531597 -0.087720975 -0.11385323 0.04653296
-0.21038488 0.10601771 -0.14875567 0.20075826 0.051505942 0.10729658 -0.16046885 0.017895482
00000000: 89a8 cf3c 1027 23be a13f 5c3e c234 213e
00000010: 7267 2e3e 8531 5b3c 27bf 0dbe 3fc5 83ba
00000020: 2f93 6fbe 7686 6dbe 357d 6e3e db43 1e3c
00000030: cde8 58be 4173 3c3d 5b5f 8e3d 32b8 5c3e
00000040: d1a6 41be 8db0 d33d f0d0 2abe 705b 29bd
00000050: 6eaa 183e b003 b7bd 420f 053c e1d9 c93d
00000060: 81ba 493e 01b8 1e3e c2cf 143e 373b 243d
00000070: 8770 803d 09ef 17be f4ad 693e d3ee a73d
00000080: c544 ff3b d7b8 07bd b32c 95bd 4d1c adbd
00000090: 12d1 143d 3460 553d 3aa3 3a3e c5d7 97bd
000000a0: cadd c23d 6b4b 2ebe 209e cb3d 52f5 1d3e
000000b0: f1cf fdbd f2af 1cbe 58d9 113e ede3 2c3d
000000c0: 3e46 18be c114 b2bc f6ef 44bd 0b39 95bb
000000d0: d4be 6f3d 0ea7 b3bd e22b e9bd 5899 3e3d
000000e0: 226f 57be d01f d93d 6853 18be 9393 4d3e
000000f0: e5f7 523d 4fbe db3d f251 24be 8c99 923c

bn1.weight f4 [64]
1.0002427 0.98857456 0.9960699 1.001204 1.000093 0.99619204 0.9997231 1.0040315
1.0035156 1.0024761 0.99364984 0.9979803 1.0025904 1.0024747 1.0047883 1.0163993
1.0082759 0.9958775 0.99727356 0.9954275 0.99731624 0.9972781 0.99876535 1.0009369
0.99398595 1.0007339 1.0048593 1.0012072 0.9937716 1.006913 1.0058223 0.9972946
0.999866 1.0012989 1.0022988 0.99333346 0.9936801 1.0039209 0.99835545 0.9959341
0.9981509 1.0027469 0.9976456 0.99871576 1.0010577 0.993989 0.99554694 0.99676025
1.0023953 0.9987136 1.0049847 0.99889535 1.0044733 0.9993086 1.0024692 1.0065386
0.99986464 1.0062971 1.0039252 1.0022223 1.0044342 1.0013717 1.0043823 0.9975481
00000000: f407 803f 3913 7d3f 70fe 7e3f 7427 803f
00000010: 0c03 803f 7106 7f3f daed 7f3f 1b84 803f
00000020: 3373 803f 2351 803f d65f 7e3f a37b 7f3f
00000030: e254 803f 1751 803f e79c 803f 5f19 823f
00000040: 2f0f 813f d4f1 7e3f 524d 7f3f 56d4 7e3f
00000050: 1e50 7f3f 9e4d 7f3f 16af 7f3f b31e 803f
00000060: dd75 7e3f 0c18 803f 3b9f 803f 8f27 803f
00000070: d167 7e3f 86e2 803f c9be 803f b34e 7f3f
00000080: 38f7 7f3f 902a 803f 544b 803f 1a4b 7e3f
00000090: d261 7e3f 7b80 803f 3994 7f3f 8af5 7e3f
000000a0: d186 7f3f 035a 803f b465 7f3f d6ab 7f3f
000000b0: a922 803f 1076 7e3f 2adc 7e3f ae2b 7f3f
000000c0: 7d4e 803f b2ab 7f3f 57a3 803f 9bb7 7f3f
000000d0: 9592 803f b0d2 7f3f e950 803f 42d6 803f
000000e0: 21f7 7f3f 58ce 803f 9f80 803f d248 803f
000000f0: 4d91 803f f32c 803f 998f 803f 505f 7f3f

bn1.bias f4 [64]
0.004063704 -0.0065142 -0.004667679 0.0026829112 0.0067718592 -0.002201249 0.0037729335 -0.004151644
0.0071736537 -0.0025546548 0.00083029456 -0.010002303 0.0030746378 0.007549849 0.0024756931 0.008294007
0.002440219 -0.008690439 0.002816757 -0.00398018 0.005020679 0.0027366 -0.00092558103 0.0022474595
-0.0028975501 0.0050081657 0.0040227966 0.00711033 0.005960753 2.7726095e-05 0.0068240943 0.004532898
-0.0009178129 0.0039774994 0.008646593 -0.003941321 0.0015998681 -0.0019117461 0.0028492135 -0.0068197474
-0.0020622376 0.0005817206 -0.00566003 0.004160146 0.0025033203 -0.004577357 0.0058036116 0.0027155147
0.002048291 0.004514805 0.0042923526 -0.0007898601 0.010640009 -0.00037785823 0.005912574 0.005798001
-0.0021187055 0.002312648 0.0021240914 0.00387559 0.004193441 0.0078642145 -0.0030880303 -0.0044181165
00000000: d228 853b 1275 d5bb 54f3 98bb c8d3 2f3b
00000010: 79e6 dd3b d442 10bb 5243 773b 840a 88bb
00000020: f810 eb3b ff6b 27bb 20a8 593a b3e0 23bc
00000030: dd7f 493b b964 f73b 3d3f 223b 96e3 073c
00000040: 15ec 1f3b 5862 0ebc 5799 383b 2b6c 82bb
00000050: 8284 a43b 8858 333b b1a2 72ba 1d4a 133b
00000060: d3e4 3dbb 8a1b a43b aad1 833b c5fd e83b
00000070: 6c52 c33b 5695 e837 a79c df3b b488 943b
00000080: 6299 70ba af55 823b 71aa 0d3c 3226 81bb
00000090: aab2 d13a 8e93 faba dfb9 3a3b 3078 dfbb
000000a0: 9b26 07bb 9c7e 183a c677 b9bb d651 883b
000000b0: bf0e 243b a7fd 95bb 392c be3b c7f6 313b
000000c0: 9f3c 063b eef0 933b dda6 8c3b 9d0e 4fba
000000d0: 6f53 2e3c 461b c6b9 44be c13b 28fd bd3b
000000e0: fbd9 0abb cc8f 173b 5734 0b3b 9cfd 7d3b
000000f0: 2269 893b e8d8 003c 8d60 4abb d9c5 90bb

bn1.running_mean f4 [64]
0.08073837 -0.12678152 0.15130241 -0.06081609 0.1278285 -0.15415302 -0.23849726 -0.16785778
-0.1683643 -0.16359617 0.10183942 0.14667523 -0.27995735 -0.09077135 -0.020085437 0.029939597
-0.25867966 0.2111315 -0.20633397 -0.11572137 0.2295749 0.03420284 -0.0670732 0.15026031
0.18354136 0.052155584 -0.0021498539 0.2243132 0.14196113 -0.35349292 0.12503107 0.07541771
0.054166887 0.24781476 -0.17223705 -0.029574137 0.14614882 0.03917211 -0.076404706 -0.16136068
-0.07161717 -0.10538271 0.13327563 -0.009111125 -0.054998912 -0.331146 0.18007635 -0.07540403
-0.38682857 -0.16552727 -0.08651426 -0.19100957 -0.42380083 -0.35397765 0.11580386 -0.31117663
-0.3021908 0.36051637 0.30796945 0.04117833 -0.05654492 -0.10886134 -0.06506979 0.16722785
00000000: 295a a53d 04d3 01be 05ef 1a3e 4b1a 79bd
00000010: 79e5 023e 4ada 1dbe a038 74be e9e2 2bbe
00000020: b167 2cbe c185 27be 3091 d03d 0832 163e
00000030: 9256 8fbe 54e6 b9bd 378a a4bc e343 f53c
00000040: a971 84be db32 583e 3649 53be 53ff ecbd
00000050: af15 6b3e 4718 0c3d ad5d 89bd d7dd 193e
00000060: 44f2 3b3e 18a1 553d 90e4 0cbb 5cb2 653e
00000070: 425e 113e 06fd b4be 2508 003e 9a74 9a3d
00000080: 19de 5d3d 27c3 7d3e e95e 30be 7645 f2bc
00000090: 09a8 153e ef72 203d 127a 9cbd bc3b 25be
000000a0: 06ac 92bd e4d2 d7bd 6879 083e d446 15bc
000000b0: 8a46 61bd f88b a9be ef65 383e 6e6d 9abd
000000c0: 650e c6be fb7f 29be 632e b1bd 0398 43be
000000d0: 6cfc d8be 8f3c b5be 932a ed3d 8b52 9fbe
000000e0: c1b8 9abe 9a95 b83e 2cae 9d3e 9caa 283d
000000f0: a59b 67bd b2f2 debd 4f43 85bd c73d 2b3e

bn1.running_var f4 [64]
0.083483905 0.16323695 0.13893485 0.13967131 0.058999076 0.16717009 0.19154456 0.111938514
0.095499545 0.119254425 0.108494334 0.22635618 0.14217132 0.11204619 0.08566443 0.084562324
0.08424767 0.13796684 0.09491037 0.17022507 0.09869083 0.07809511 0.08528645 0.08872017
0.22724992 0.1424027 0.12684327 0.13065346 0.10090928 0.13232785 0.06689978 0.05335103
0.10838439 0.077582836 0.099049926 0.087457485 0.13201362 0.13570455 0.11447521 0.12334763
0.060642146 0.10064334 0.10617272 0.107393675 0.11233805 0.15435062 0.11270518 0.12280784
0.112132795 0.15742764 0.04914386 0.14091001 0.15411669 0.199064 0.10755991 0.19160934
0.20162444 0.15982437 0.22224002 0.1575918 0.12952271 0.08878951 0.08509444 0.11613375
00000000: 9cf9 aa3d 9627 273e f044 0e3e ff05 0f3e
00000010: 04a9 713d a32e 2b3e 4224 443e 0540 e53d
00000020: 4495 c33d aa3b f43d 4732 de3d eac9 673e
00000030: 5c95 113e 7978 e53d d570 af3d 032f ad3d
00000040: 0b8a ac3d 2e47 0d3e 5e60 c23d 7b4f 2e3e
00000050: 6b1e ca3d 54f0 9f3d aaaa ae3d ecb2 b53d
00000060: 34b4 683e 03d2 113e 34e3 013e 05ca 053e
00000070: 86a9 ce3d f480 073e c002 893d 9c86 5a3d
00000080: a3f8 dd3d c0e3 9e3d b0da ca3d e91c b33d
00000090: 942e 073e 22f6 0a3e fb71 ea3d af9d fc3d
000000a0: e663 783d 181e ce3d 1571 d93d 37f1 db3d
000000b0: 7e11 e63d 170e 1e3e f9d1 e63d ad82 fb3d
000000c0: e1a5 e53d b634 213e 124b 493d b74a 103e
000000d0: c4d0 1d3e 6fd7 4b3e 5f48 dc3d 3d35 443e
000000e0: a376 4e3e 00a9 233e e392 633e bf5f 213e
000000f0: 9aa1 043e 46d7 b53d fe45 ae3d 88d7 ed3d

conv2.weight f4 [64, 64, 3, 3]
-0.044983823 0.021386236 -0.0066495663 -0.035705574 0.005303507 -0.011702449 0.038261935 -0.030752128
-0.0028877233 -0.019814104 -0.023951715 0.037083767 0.0046817916 -0.02864791 0.029922036 -0.03273639
0.028846929 -0.0028797039 0.012602874 0.0044740587 -0.030976418 0.011725067 0.008531026 -0.03106702
-0.015706817 0.0014369466 -0.016442703 0.033746123 0.010217976 -0.010401005 -0.0144117465 0.012186874
-0.0062143775 0.0013655075 0.03093233 0.036590677 0.0036251438 0.023844559 0.011017798 0.0030820067
-0.015696358 0.04236867 0.02886518 0.011303992 -0.009513642 -0.023832068 -0.022941003 -3.0221141e-05
0.0064613535 -0.03949022 0.025755554 -0.032229222 -0.023705121 -0.013934829 0.02046502 0.034308854
-0.0145748155 0.037758593 0.016449552 0.014889138 -0.028556848 -0.021922346 0.028608931 0.035248633
-0.020748954 -0.024875365 -0.009262749 -0.026689168 0.01961174 0.0056111543 0.036641575 0.030880189
-0.00759347 -0.032058544 -0.0047371434 0.04017636 0.023158606 0.011219066 -0.0055765226 -0.036317833
0.04476831 -0.018855534 0.011147839 0.008396028 -0.042592302 0.034792863 -0.012850822 0.0060126246
-0.006501337 0.0060330764 0.000119745135 -0.0049981205 0.0073873685 -0.013081517 -0.035466153 0.026428495
-0.030153384 0.03171412 0.020940686 0.015673704 0.034910664 0.018018574 0.007694455 -0.032165162
0.021420846 0.0057959356 -0.04085765 -0.02016376 0.020784438 -0.0027668453 -0.029142126 0.04222137
-0.007860353 0.03600784 -0.008062263 0.0056195576 0.001972836 -0.019064171 -0.037383854 0.0004329001
-0.039436124 -0.0002438584 -0.009477842 0.031906277 -0.04657391 -0.037221536 0.023949318 0.014395327
0.024918294 -0.023004299 0.025598824 0.037940163 0.01424057 -0.016027886 0.01150513 -0.0067100157
-0.032541897 0.027846284 0.019798791 -0.030255217 -0.033694334 -0.046682883 0.0010495235 -0.012371631
-0.020571586 0.033414528 -0.00926589 0.016917143 0.0024654276 -0.012448829 -0.020511374 -0.0038663934
-0.007688204 0.031353235 -0.03140239 -0.03352497 -0.0042447704 -0.025378948 -0.025702536 -0.012590202
-0.036389098 -0.02554663 0.00595028 0.027898222 -0.0036466534 0.015272344 0.03119657 0.029400077
0.015479583 7.997325e-06 -0.009616066 0.006182503 -0.019612884 0.008648193 0.0015094449 -0.03421538
-0.008025311 0.029603519 -0.00010308538 -0.03222852 -0.0098138265 -0.019988675 0.028769474 0.016737213
-0.02779033 -0.03822274 -0.028264606 -0.027562728 0.029235752 0.04024127 -0.0077700177 -0.00983973
0.013569651 0.028536512 0.02835456 0.014640973 0.026774246 0.0028032602 0.012602551 -0.00874291
0.029820275 0.023450434 0.029711418 -0.013949818 -0.03183443 -0.011850891 0.0012747443 -0.0037408134
0.009696097 0.03476344 0.012510423 -0.0127778845 0.030864943 0.009567256 -0.03269708 0.04323507
-0.0045474623 0.035219714 -0.014261774 -0.008997109 -0.029278535 0.017760536 0.017362159 0.017971316
-0.026813082 -0.018181853 0.018687094 0.0042988164 0.0071482947 -0.02254873 0.01249771 0.02241539
0.021193352 0.044024877 0.009389326 -0.012456117 -0.015113666 -0.038190946 0.018115 0.030683419
0.0062782466 -0.024503538 0.030223511 -0.03843813 0.038478807 0.020096816 0.008559772 -0.024175167
0.0033214248 -0.013163621 -0.027306002 -0.037003312 -0.0088296225 0.028185371 0.040998742 0.026337184
00000000: f540 38bd 3032 af3c 9be4 d9bb 0240 12bd
00000010: 0bc9 ad3b a1bb 3fbc 8cb8 1c3d e3eb fbbc
00000020: f53f 3dbb 3051 a2bc 6336 c4bc 26e5 173d
00000030: b769 993b 06af eabc 0f1f f53c 9816 06bd
00000040: 6550 ec3c 6ab9 3cbb 497c 4e3c 209b 923b
00000050: 42c2 fdbc 7f1a 403c b7c5 0b3c 4380 febc
00000060: 95ab 80bc ed57 bc3a d9b2 86bc 6039 0a3d
00000070: 4c69 273c fa68 2abc 3f1f 6cbc 74ab 473c
00000080: faa1 cbbb d4fa b23a cc65 fd3c 1be0 153d
00000090: d293 6d3b aa55 c33c ff83 343c 7efb 493b
000000a0: a695 80bc c58a 2d3d ac76 ec3c 6134 393c
000000b0: 1bdf 1bbc 783b c3bc c5ee bbbc 6883 fdb7
000000c0: c3b9 d33b 7fc0 21bd 50fd d23c ca02 04bd
000000d0: 3e31 c2bc e94e 64bc 42a6 a73c 7187 0c3d
000000e0: 35cb 6ebc c1a8 1a3d 36c1 863c 92f1 733c
000000f0: 0df0 e9bc 7e96 b3bc 475d ea3c df60 103d
00000100: b6f9 a9bc 6cc7 cbbc c9c2 17bc 3ea3 dabc
00000110: cda8 a03c c6dd b73b 7a15 163d 73f8 fc3c
00000120: a5d2 f8bb d24f 03bd 0a3a 9bbb f88f 243d
00000130: 1eb7 bd3c 2cd0 373c 43bb b6bb 02c2 14bd
00000140: fa5e 373d ec76 9abc 6da5 363c 7e8f 093c
00000150: 4475 2ebd f682 0e3d 418c 52bc 8d05 c53b
00000160: 2b09 d5bb 1db1 c53b ae1f fb38 46c7 a3bb
00000170: bd11 f23b dc53 56bc f544 11bd 9280 d83c
00000180: 3b04 f7bc aae6 013d cd8b ab3c 2466 803c
00000190: 7cfe 0e3d b09b 933c c421 fc3b 9ebf 03bd
000001a0: c57a af3c d5eb bd3b 5a5a 27bd 782e a5bc
000001b0: 2044 aa3c f653 35bb 78bb eebc 51f0 2c3d
000001c0: b6c8 00bc f57c 133d 9517 04bc 4424 b83b
000001d0: b24a 013b 772c 9cbc d01f 19bd def6 e239
000001e0: c687 21bd 3eb4 7fb9 f348 1bbc 28b0 023d
000001f0: 49c4 3ebd 9c75 18bd 5c31 c43c 61da 6b3c
00000200: 7321 cc3c 8373 bcbc a0b4 d13c 2567 1b3d
00000210: 4851 693c ea4c 83bc 0380 3c3c b1df dbbb
00000220: a74a 05bd e41d e43c 1331 a23c cad9 f7bc
00000230: 1203 0abd 8d36 3fbd 2a90 893a 62b2 4abc
00000240: be85 a8bc acdd 083d f6cf 17bc d295 8a3c
00000250: 0393 213b 2cf6 4bbc 7807 a8bc 5163 7dbb
00000260: 54ed fbbb 406c 003d cb9f 00bd 7b51 09bd
00000270: b717 8bbb 83e7 cfbc 208e d2bc 2247 4ebc
00000280: bc0c 15bd 2b47 d1bc 91fa c23b d08a e43c
00000290: b1fc 6ebb db38 7a3c f38f ff3c 6ed8 f03c
000002a0: 149e 7d3c 402c 0637 b48c 1dbc 9896 ca3b
000002b0: 33ab a0bc 27b1 0d3c 91d8 c53a 6d25 0cbd
000002c0: 987c 03bc 1483 f23c 8b2f d8b8 0d02 04bd
000002d0: 2cca 20bc 4abf a3bc f6ad eb3c 7b1c 893c
000002e0: 8ca8 e3bc 738f 1cbd 2d8b e7bc 3bcb e1bc
000002f0: d17f ef3c 08d4 243d a29b febb d236 21bc
00000300: 3e53 5e3c 67c5 e93c d247 e83c b1e0 6f3c
00000310: aa55 db3c e7b6 373b ee7a 4e3c 6c3e 0fbc
00000320: a649 f43c 201b c03c 5c65 f33c c78d 64bc
00000330: d264 02bd 3d2a 42bc 5215 a73a 6f28 75bb
00000340: 61dc 1e3c 1c64 0e3d 84f8 4c3c 555a 51bc
00000350: 7ad8 fc3c fbbf 1c3c 60ed 05bd 4217 313d
00000360: e102 95bb 8c42 103d 37aa 69bc 9c68 13bc
00000370: 8ad9 efbc 8b7e 913c 163b 8e3c 9538 933c
00000380: 1ca7 dbbc 1cf2 94bc ad15 993c 16dd 8c3b
00000390: 3e3c ea3b 1db8 b8bc 32c3 4c3c 7ba0 b73c
000003a0: ae9d ad3c 6e53 343d b0d5 193c be14 4cbc
000003b0: 4f9f 77bc 1c6e 1cbd e965 943c cb5b fb3c
000003c0: c0b9 cd3b a5bb c8bc 4c97 f73c 4d71 1dbd
000003d0: f49b 1d3d 14a2 a43c 493e 0c3c 000b c6bc
000003e0: 43ac 593b 3aac 57bc d6b0 dfbc c990 17bd
000003f0: 1faa 10bc 02e5 e63c 4cee 273d 14c1 d73c

conv2.bias f4 [64]
0.02031741 0.0053458703 -0.019148864 -0.034265373 0.034930967 0.010721943 0.007098616 0.025269518
-0.011259603 -0.017344225 0.008856886 -0.02147341 0.016468415 -0.02156619 -0.005858235 -0.010356388
0.02048748 0.0059947656 0.038043007 0.034122486 -0.03558079 -0.03833124 -0.021136554 0.0017097914
-0.023081701 -0.021637924 0.03968127 0.03244314 0.02898478 0.0013404804 0.03217297 0.024657598
0.0093367705 0.024397379 0.0070401523 0.033470463 -0.010953642 0.00088223646 -0.021368042 0.016933966
0.011985314 -0.02652157 -0.007876534 0.021356774 -0.036513418 0.018687923 -0.0054817274 0.039530966
-0.03140008 0.008714297 0.040211562 0.03483853 -0.016294204 0.037418757 -0.036545888 -0.038130607
-0.029889878 -0.031327892 0.032263003 -0.026879365 0.0073544304 -0.013670818 0.0014619407 0.028563954
00000000: b270 a63c 692c af3b 14de 9cbc d959 0cbd
00000010: c613 0f3d 17ab 2f3c 829b e83b 0502 cf3c
00000020: 337a 38bc 7a15 8ebc 791c 113c 01e9 afbc
00000030: c5e8 863c 94ab b0bc 70f6 bfbb d7ad 29bc
00000040: 5cd5 a73c bd6f c43b fcd2 1b3d 05c4 0b3d
00000050: 2abd 11bd 3801 1dbd 9126 adbc 141b e03a
00000060: d615 bdbc 0442 b1bc d488 223d 19e3 043d
00000070: 7d71 ed3c 0fb3 af3a cec7 033d bbfe c93c
00000080: 41f9 183c 03dd c73c 14b1 e63b 5318 093d
00000090: e876 33bc e345 673a 080c afbc 1ab9 8a3c
000000a0: 0d5e 443c c343 d9bc 940c 01bc 67f4 ae3c
000000b0: 188f 15bd 6a17 993c 10a0 b3bb 39eb 213d
000000c0: 5f9d 00bd 69c6 0e3c e1b4 243d d9b2 0e3d
000000d0: 6c7b 85bc 6944 193d 24b1 15bd d72e 1cbd
000000e0: 9edb f4bc ad51 00bd 3626 043d 1d32 dcbc
000000f0: 6ffd f03b 91fb 5fbc 979e bf3a f4fe e93c

bn2.weight f4 [64]
0.997319 1.0040457 0.9958946 0.9987717 1.0022621 1.0065969 0.9982443 1.003796
1.0042019 0.9933513 0.9946581 0.99669284 0.99713576 1.0016378 1.0031426 1.0023609
0.99942744 1.0012592 1.0042878 1.0043789 1.0013337 0.9901974 0.9954228 1.0071663
1.0015861 1.003009 0.9950722 0.9951592 1.0058883 0.9988564 0.9911928 0.9952318
0.9979627 1.0056629 1.0050592 0.9984053 1.0083014 0.99902815 0.99618965 0.99755883
0.9995838 1.0032932 0.9896958 1.0034379 0.99957645 0.9990368 1.0040085 0.9959221
0.9945426 1.0019785 1.0028087 0.9959848 1.0023515 0.9953671 1.0080272 0.9996979
1.0034368 0.99502224 0.99784446 0.9986107 1.0038394 1.0172756 0.99603343 1.0020975
00000000: 4c50 7f3f 9284 803f f3f2 7e3f 81af 7f3f
00000010: 204a 803f 2bd8 803f f08c 7f3f 637c 803f
00000020: b089 803f 454c 7e3f eaa1 7e3f 4327 7f3f
00000030: 4a44 7f3f ab35 803f fa66 803f 5d4d 803f
00000040: 7ada 7f3f 4329 803f 818c 803f 7d8f 803f
00000050: b42b 803f 947d 7d3f 07d4 7e3f d3ea 803f
00000060: f933 803f 9962 803f 0dbd 7e3f c1c2 7e3f
00000070: f3c0 803f 0eb5 7f3f d0be 7d3f 83c7 7e3f
00000080: 7c7a 7f3f 90b9 803f c8a5 803f 7d97 7f3f
00000090: 0510 813f 4fc0 7f3f 4906 7f3f 0460 7f3f
000000a0: b9e4 7f3f e96b 803f b45c 7d3f a770 803f
000000b0: 3ee4 7f3f e0c0 7f3f 5a83 803f c0f4 7e3f
000000c0: 589a 7e3f d540 803f 095c 803f dcf8 7e3f
000000d0: 0e4d 803f 61d0 7e3f 0907 813f 34ec 7f3f
000000e0: 9e70 803f c7b9 7e3f bc72 7f3f f3a4 7f3f
000000f0: cf7d 803f 1636 823f 0cfc 7e3f bb44 803f

bn2.bias f4 [64]
0.0028044416 0.0049762027 -0.004015737 -0.0013693316 0.008290329 0.003297933 0.0058907703 0.003448611
0.0013811189 0.000558922 0.003193554 -0.001003271 0.0024111837 0.008130301 0.0038696444 0.0021314307
-0.0015288714 0.005558153 0.005444646 0.0024485437 -0.0020973156 -0.009710117 0.0019818137 0.0037802462
0.0018958558 0.0035161043 0.0018193005 0.00019240312 0.0041216947 -0.0051614065 0.00036364657 -0.0013781465
-0.0005315473 0.007517315 0.0043044505 0.005225674 0.0032554907 0.0039734347 0.0030738434 0.0067512407
-0.0047982237 0.0046292613 -0.0059023374 0.004307504 -0.0006787165 -0.0033372089 0.00087069266 -0.0029765575
-0.0035323645 0.006161767 0.01030478 -0.0019651519 0.0050938674 -0.0014406821 0.0069007473 0.00021355352
0.0060666376 -0.00011899686 -0.004884923 -0.0031371347 0.00075797597 0.0072829896 -0.007879953 0.0061702416
00000000: b9ca 373b 6a0f a33b 7296 83bb 257b b3ba
00000010: 29d4 073c 2222 583b 5d07 c13b 1702 623b
00000020: a906 b53a 9f84 123a f24a 513b 3080 83ba
00000030: f304 1e3b f434 053c dc99 7d3b 79af 0b3b
00000040: 6964 c8ba 2b21 b63b 0069 b23b bf77 203b
00000050: 1e73 09bb 2f17 1fbc 51e1 013b 02be 773b
00000060: 5d7e f83a 716e 663b 9875 ee3a d2bf 4939
00000070: 480f 873b 0421 a9bb d1a7 be39 eca2 b4ba
00000080: 8957 0bba cf53 f63b 590c 8d3b 213c ab3b
00000090: 125a 553b 9633 823b 8972 493b 8339 dd3b
000000a0: 6b3a 9dbb 0fb1 973b 6568 c1bb f625 8d3b
000000b0: e5eb 31ba 13b5 5abb 323f 643a 5912 43bb
000000c0: 3e7f 67bb a6e8 c93b 61d5 283c c7c9 00bb
000000d0: 75ea a63b 45d5 bcba aa1f e23b 56ed 5f39
000000e0: a5ca c63b f48d f9b8 b411 a0bb 6398 4dbb
000000f0: e8b2 463a 25a6 ee3b eb1a 01bc bd2f ca3b

bn2.running_mean f4 [64]
0.10468315 -0.18821825 -0.11690896 -0.09807358 -0.07920707 0.03701459 -0.12318516 0.0679107
-0.33705848 -0.1579686 -0.21889523 -0.060294557 -0.31192306 0.17542307 -0.12643549 -0.21168707
0.050464544 0.2632784 0.40269497 0.3199544 0.078956656 0.21588989 -0.013398509 -0.20900941
-0.49442783 0.15679088 0.15349266 0.25902107 -0.58461934 -0.10250758 0.060362104 0.030618487
-0.027040353 -0.13975509 -0.4326506 0.15519945 -0.003500439 0.043745205 -0.2436044 0.20030975
0.1158363 0.019517293 -0.20683575 -0.25942755 -0.09180515 0.28663278 0.22424635 0.07960222
-0.053718455 0.16068427 -0.45108172 -0.19558798 -0.08703594 -0.020859223 -0.6108138 -0.20439748
0.023688642 -0.16931926 0.057029124 -0.1034169 -0.13206339 -0.019514685 0.070598185 -0.26647964
00000000: 1f64 d63d 49bc 40be f76d efbd cdda c8bd
00000010: 5137 a2bd 9c9c 173d 8048 fcbd c414 8b3d
00000020: ee92 acbe 85c2 21be 1226 60be 6df7 76bd
00000030: 61b4 9fbe 1ba2 333e 4e78 01be 7fc4 58be
00000040: e9b3 4e3d 6dcc 863e 092e ce3e 10d1 a33e
00000050: 07b4 a13d 3d12 5d3e 6b85 5bbc 9006 56be
00000060: a525 fdbe ca8d 203e 2e2d 1d3e 699e 843e
00000070: 9da9 15bf 7eef d1bd 413e 773d 9fd3 fa3c
00000080: bb83 ddbc f51b 0fbe 6184 ddbe 9bec 1e3e
00000090: 9f67 65bb 2c2e 333d 6f73 79be 001e 4d3e
000000a0: 953b ed3d bbe2 9f3c c0cc 53be b0d3 84be
000000b0: 5704 bcbd 88c1 923e d6a0 653e 7d06 a33d
000000c0: e207 5cbd 6b8a 243e 2ff4 e6be 3748 48be
000000d0: e63f b2bd f6e0 aabc 4b5e 1cbf 934d 51be
000000e0: af0e c23c 0762 2dbe 5f97 693d 3dcc d3bd
000000f0: a03b 07be 43dd 9fbc c895 903d 0570 88be

bn2.running_var f4 [64]
0.0830335 0.0721678 0.080753 0.12196464 0.10602595 0.09197126 0.07270534 0.101028666
0.10302905 0.07845074 0.07758756 0.1403742 0.09540943 0.06232925 0.09678324 0.095383555
0.051610887 0.063760355 0.07670552 0.0925762 0.14119612 0.2003905 0.08899195 0.097644925
0.121153414 0.12552798 0.15471642 0.13299817 0.17312124 0.08947186 0.082235366 0.081849046
0.092139676 0.1007524 0.110457845 0.09732353 0.05845424 0.09750324 0.11068846 0.077480845
0.17587963 0.14289492 0.15240608 0.08017641 0.09042232 0.10059046 0.08786021 0.09284941
0.11703525 0.06704769 0.09202036 0.07362064 0.097573586 0.13026801 0.09173588 0.11897259
0.1386591 0.11036887 0.10839773 0.15188324 0.08607746 0.054256976 0.12181688 0.10300768
00000000: 780d aa3d b6cc 933d d461 a53d 99c8 f93d
00000010: 2224 d93d 6e5b bc3d 8ae6 943d 1ee8 ce3d
00000020: e500 d33d c8aa a03d 3ae6 9e3d 41be 0f3e
00000030: 0566 c33d f54c 7f3d 4b36 c63d 7458 c33d
00000040: f065 533d ca94 823d c917 9d3d 9798 bd3d
00000050: b795 103e 2b33 4d3e 6941 b63d 10fa c73d
00000060: 481f f83d 688a 003e fb6d 1e3e ac30 083e
00000070: b246 313e 063d b73d 046b a83d 79a0 a73d
00000080: bab3 bc3d 4657 ce3d b937 e23d 8f51 c73d
00000090: b76d 6f3d c7af c73d a2b0 e23d 47ae 9e3d
000000a0: ca19 343e 0c53 123e 5710 1c3e 8833 a43d
000000b0: 562f b93d 5f02 ce3d 0ef0 b33d d527 be3d
000000c0: 2db0 ef3d 4d50 893d 2c75 bc3d 6bc6 963d
000000d0: a9d4 c73d fa64 053e 05e0 bb3d e7a7 f33d
000000e0: a7fc 0d3e 1309 e23d a1ff dd3d 4887 1b3e
000000f0: 6149 b03d 903c 5e3d 217b f93d b1f5 d23d

conv3.weight f4 [64, 64, 3, 3]
-0.03732486 0.010836117 -0.005039058 -0.01571892 -0.033279173 0.043170527 -0.022938717 0.029586649
0.02563928 0.010477776 -0.0006698503 0.032369286 -0.009137689 -0.03204868 -0.004864583 -0.009928949
-0.023147035 -0.030346243 0.02940365 0.024622872 0.008969808 0.029629558 0.008501935 0.02547546
0.0050826985 -0.04791583 -0.02895541 0.013023132 0.006480412 0.015820509 -0.025766138 0.028600432
0.019317724 0.018755209 -0.013756166 0.03568894 -0.008189537 -0.033879966 -0.008368647 0.010605625
0.0020448407 -0.012809034 -0.022744412 -0.009103243 -0.015932785 0.043905076 -0.005878484 0.0008318937
0.0020336695 0.010655971 0.018981107 0.031724617 0.018522054 0.042607643 0.017761104 -0.013865784
-0.0035387443 0.03126168 0.02381904 0.022164552 0.018020095 0.0027406223 0.03695689 -0.0060029947
0.022363152 -0.017233863 0.007864373 -0.019660516 -0.02163894 0.024360577 -0.0069768336 0.033045806
0.028649308 -0.020079264 -0.008160513 -0.016410755 -0.021000883 -0.0032882853 -0.031510577 -0.015294157
0.012329245 -0.010640993 0.033234417 -0.020032348 0.015240361 -0.0010912565 0.034920618 -0.024667803
-0.0012612749 -0.0069258427 0.013467484 -0.0019801166 0.024972992 -0.004539187 0.007021949 0.029121868
0.0051676906 -0.011769624 -0.034894086 0.02951535 0.032613043 0.026688335 -0.033894036 0.031909168
0.022320721 0.035059236 0.034145426 -0.0029520956 -0.0057753203 0.032720372 -0.032756988 -0.018427532
0.02897768 -0.011299232 -0.018871536 -0.038060132 -0.0322601 -0.012423467 -0.023299186 0.0072688707
-0.025339099 -0.021523796 -0.034106147 -0.03257064 -0.010734261 0.0017706271 -0.027226446 -0.0026009334
0.025112145 -0.024414506 0.014378384 0.019069243 -0.020306628 -0.010604543 0.016983695 -0.012211136
-0.011030741 0.025535425 -0.016375167 0.018192753 0.0015728202 -0.004807644 5.7561596e-05 0.002695219
-0.019389847 0.026817873 0.012965703 0.04043158 0.00064997585 -0.024230773 -0.016456194 -0.02406594
-0.00720364 0.007124735 0.015417523 -0.021431396 -0.0010859009 0.034314867 0.019298637 -0.022976255
-0.036171935 -0.006345793 0.025131615 -0.017966408 0.04324471 0.014580241 -0.017896555 0.01451756
-0.03670425 0.0059249043 0.010701014 -0.017157149 -0.0015139857 0.022169752 0.0028941703 -0.0057037724
0.00018013509 0.03743744 0.030058412 0.011076635 0.020163486 0.034014557 0.009829288 0.032179017
0.022135815 -0.03583463 -0.00043140858 0.00020204954 -0.025696302 0.03330242 0.023496887 -0.014438116
0.034862667 -0.008582702 -0.013637649 0.040861025 -0.02569997 0.0033410313 0.01894301 0.0032214092
0.03951412 -0.034867454 -0.012888969 0.032499842 0.011384802 -0.03196478 -0.03487088 -0.025075447
0.020751238 0.031806838 0.032008007 -0.012393046 0.038020797 0.0038499238 -0.029980173 0.01264961
0.035248835 -0.009103185 0.031009855 0.022480529 0.029771987 0.04241635 -0.024469197 -0.036911514
-0.0021471276 -0.0054849666 0.016188135 -0.03660367 -0.020064652 -0.01166859 0.03563737 0.03859109
-0.01675591 -0.010227181 -0.035957128 -0.037610345 0.014525965 -0.03328362 0.024418825 -0.012985261
0.040692404 -0.037931032 0.011069726 -0.02239333 -0.025047874 -0.025693731 -0.032177016 -0.02873101
-0.008875663 -0.020590927 0.036738377 -0.018793229 -0.014040792 0.0069339345 0.023129093 0.024189662
00000000: f4e1 18bd f889 313c af1e a5bb f7c4 80bc
00000010: be4f 08bd 94d3 303d fae9 bbbc b35f f23c
00000020: 7809 d23c faaa 2b3c e598 2fba a895 043d
00000030: 3fb6 15bc 7a45 03bd 1467 9fbb 08ad 22bc
00000040: da9e bdbc af98 f8bc ecdf f03c e8b5 c93c
00000050: 1af6 123c b0b9 f23c b34b 0b3c e9b1 d03c
00000060: c48c a63b 6443 44bd e533 edbc fa5e 553c
00000070: a359 d43b 039a 813c 8213 d3bc 744b ea3c
00000080: 3440 9e3c 86a4 993c 8b61 61bc 912e 123d
00000090: 682d 06bc b8c5 0abd a61c 09bc 37c3 2d3c
000000a0: bc02 063b fcdc 51bc 7d52 babc c525 15bc
000000b0: 7985 82bc cfd5 333d 4ca0 c0bb 7113 5a3a
000000c0: 5047 053b 6296 2e3c 447e 9b3c acf1 013d
000000d0: 90bb 973c 5a85 2e3d bc7f 913c 502d 63bc
000000e0: 47ea 67bb 3f0c 003d 2620 c33c 6f92 b53c
000000f0: e19e 933c 039c 333b 1c60 173d c5b4 c4bb
00000100: ee32 b73c 082e 8dbc 92d9 003c 170f a1bc
00000110: 2544 b1bc d58f c73c ec9d e4bb 0a5b 073d
00000120: f4b1 ea3c 457d a4bc acb3 05bc d96f 86bc
00000130: 0b0a acbc 4680 57bb 3c11 01bd 5894 7abc
00000140: 9a00 4a3c 8f57 2ebc d020 083d e11a a4bc
00000150: b5b2 793c 7e08 8fba ec08 0f3d 2214 cabc
00000160: 5d51 a5ba 2ef2 e2bb b9a6 5c3c d8c4 01bb
00000170: 2994 cc3c 76bd 94bb 6118 e63b fc90 ee3c
00000180: bb55 a93b 62d5 40bc 1aed 0ebd 2dca f13c
00000190: 4195 053d 7fa1 da3c 79d4 0abd 30b3 023d
000001a0: f2d9 b63c 469a 0f3d 13dc 0b3d f277 41bb
000001b0: e63e bdbb cc05 063d 312c 06bd 56f5 96bc
000001c0: 9962 ed3c 6a20 39bc 7b98 9abc f1e4 1bbd
000001d0: 2b23 04bd cc8b 4bbc efdd bebc b52f ee3b
000001e0: f193 cfbc ac52 b0bc e3b2 0bbd cb68 05bd
000001f0: c1de 2fbc 6314 e83a ff09 dfbc 6c74 2abb
00000200: fcb7 cd3c ee00 c8bc 5093 6b3c 1a37 9c3c
00000210: 165a a6bc adbe 2dbc 6421 8b3c 3711 48bc
00000220: 48ba 34bc ab2f d13c 3725 86bc f808 953c
00000230: 1727 ce3a 7189 9dbb 4b6e 7138 45a2 303b
00000240: 75d7 9ebc 28b1 db3c 1a6e 543c 969b 253d
00000250: 2463 2a3a 9d7f c6bc 24cf 86bc ef25 c5bc
00000260: 830c ecbb 9c76 e93b c799 7c3c e590 afbc
00000270: ca54 8eba bf8d 0c3d 2d18 9e3c b338 bcbc
00000280: 0629 14bd 5ff0 cfbb d1e0 cd3c 4a2e 93bc
00000290: 5d21 313d f7e1 6e3c cc9b 92bc 0fdb 6d3c
000002a0: 3257 16bd b325 c23b 4e53 2f3c 268d 8cbc
000002b0: ee70 c6ba 579d b53c 1fac 3d3b b6e6 babb
000002c0: a5e2 3c39 0058 193d 0f3d f63c c67a 353c
000002d0: e52d a53c d952 0b3d 060b 213c 25ce 033d
000002e0: 2b56 b53c 55c7 12bd ae2e e2b9 43dd 5339
000002f0: 0d81 d2bc 1e68 083d 8b7c c03c d98d 6cbc
00000300: 28cc 0e3d 769e 0cbc 7270 5fbc e45d 273d
00000310: be88 d2bc 34f5 5a3b 5f2e 9b3c 471e 533b
00000320: 8fd9 213d 2dd1 0ebd 412c 53bc 8e1e 053d
00000330: 5287 3a3c 80ed 02bd c5d4 0ebd 066b cdbc
00000340: 80fe a93c e347 023d d41a 033d 340c 4bbc
00000350: b2bb 1b3d 014f 7c3b fb98 f5bc 4f40 4f3c
00000360: 1561 103d 8625 15bc 6108 fe3c 1629 b83c
00000370: 62e4 f33c c4bc 2d3d a073 c8bc 8730 17bd
00000380: d3b6 0cbb 3cbb b3bb fb9c 843c bbed 15bd
00000390: a05e a4bc 9d2d 3fbc 7ef8 113d b111 1e3d
000003a0: b143 89bc e88f 27bc c847 13bd 4e0d 1abd
000003b0: 50fe 6d3c 6854 08bd fd09 c83c 22c0 54bc
000003c0: 14ad 263d 925d 1bbd cc5d 353c 3772 b7bc
000003d0: 3331 cdbc a97b d2bc 0ccc 03bd 4c5d ebbc
000003e0: 3b6b 11bc 4eae a8bc fb7a 163d 42f4 99bc
000003f0: 5a0b 66bc 0f36 e33b 3979 bd3c 6629 c63c

conv3.bias f4 [64]
0.0046070362 -0.006376693 -0.019659787 0.031719558 -0.031143297 -0.009457246 0.0042973785 0.009479501
-0.026239932 -0.0045105666 -0.03607572 -0.039991148 0.034938417 0.026917316 0.0032558055 -0.026315385
0.0040785465 -0.0021585866 -0.02307099 -0.031670522 0.029645363 -0.0025445106 0.0043585496 -0.01511038
0.025219627 0.022724902 -0.0067669176 -0.02208851 -0.039560437 0.027258676 -1.8391138e-06 -0.030136669
0.024107104 0.014672838 -0.00017977039 0.03225654 -0.015555266 0.026271304 -0.03509344 0.022975527
0.008328607 0.033181395 -0.033676457 -0.013610367 0.027735231 -0.029742833 -0.018316729 -0.034890562
-0.025715051 0.008204508 0.009764225 0.021009441 0.018813027 -0.004344273 0.02420851 0.023677703
0.032674212 -0.012558729 0.03514335 -0.012621305 0.027379224 -0.013369078 0.017330823 -0.032262586
00000000: 9ff6 963b 94f3 d0bb 900d a1bc 5eec 013d
00000010: 3a20 ffbc 91f2 1abc 06d1 8c3b e94f 1b3c
00000020: 20f5 d6bc 60cd 93bb 22c4 13bd c2cd 23bd
00000030: 961b 0f3d b481 dc3c 5a5f 553b 5d93 d7bc
00000040: 54a5 853b 1377 0dbb 5fff bcbc f3b8 01bd
00000050: d5da f23c cec1 26bb 2ad2 8e3b 8791 77bc
00000060: 6499 ce3c 9329 ba3c 05bd ddbb f7f2 b4bc
00000070: 200a 22bd 964d df3c 78d7 f6b5 2de1 f6bc
00000080: 437c c53c 5866 703c bf80 3cb9 6f1f 043d
00000090: 84db 7ebc eb36 d73c 24be 0fbd 2c37 bc3c
000000a0: b674 083c 37e9 073d 53f0 09bd 04fe 5ebc
000000b0: ff34 e33c 3ea7 f3bc f70c 96bc 68e9 0ebd
000000c0: 5fa8 d2bc 336c 063c 21fa 1f3c fe1b ac3c
000000d0: c71d 9a3c 675a 8ebb ed50 c63c bef7 c13c
000000e0: 65d5 053d 21c3 4dbc 79f2 0f3d 97c9 4ebc
000000f0: 654a e03c fa09 5bbc 5ff9 8d3c c625 04bd

bn3.weight f4 [64]
1.0057914 0.99743515 1.0019532 1.0055206 1.001344 1.0067064 1.009434 1.0140337
1.0033488 0.9983562 1.0071267 1.0069791 0.99691606 0.9975843 0.99434644 1.0017241
1.0099584 1.0024577 0.99602336 0.9965531 1.0016816 0.9950805 0.9981157 1.0062578
0.98809445 1.0010263 1.0019368 1.0030154 0.9974097 1.0028229 1.0100738 1.0020944
1.0083989 0.99742436 0.9973383 0.9951592 1.0041064 1.0022558 0.9937636 0.99741954
0.9976941 0.9977859 0.9945396 0.9948556 1.0072161 0.9967323 1.0037124 0.99023944
0.9890613 0.99798656 0.99006194 1.0009525 0.99601305 1.0005777 1.0003753 1.004905
0.9999138 1.0022779 1.0062119 1.0002173 1.0008736 0.9953535 0.9983774 0.9918386
00000000: c6bd 803f e957 7f3f 0140 803f e6b4 803f
00000010: 0a2c 803f c1db 803f 2235 813f dbcb 813f
00000020: bc6d 803f 4694 7f3f 87e9 803f b1e4 803f
00000030: e435 7f3f af61 7f3f 7d8d 7e3f 7f38 803f
00000040: 5146 813f 8950 803f 63fb 7e3f 1b1e 7f3f
00000050: 1a37 803f 98bd 7e3f 8384 7f3f 0ecd 803f
00000060: c2f3 7c3f a121 803f 773f 803f cf62 803f
00000070: 3e56 7f3f 805c 803f 194a 813f a144 803f
00000080: 3713 813f 3457 7f3f 9051 7f3f c1c2 7e3f
00000090: 8f86 803f eb49 803f 4b67 7e3f e356 7f3f
000000a0: e168 7f3f e66e 7f3f 269a 7e3f dbae 7e3f
000000b0: 75ec 803f d929 7f3f a679 803f 5580 7d3f
000000c0: 1f33 7d3f 0c7c 7f3f b374 7d3f 361f 803f
000000d0: b6fa 7e3f ee12 803f 4c0c 803f baa0 803f
000000e0: 5afa 7f3f a44a 803f 8dcb 803f 1f07 803f
000000f0: a01c 803f 7dcf 7e3f a995 7f3f 22e9 7d3f

bn3.bias f4 [64]
-0.0006915148 -0.0043034325 0.008544226 0.0026645623 0.0039769313 0.008685938 0.012050735 0.013949449
0.0057819383 -0.0020827088 0.0071266396 0.006325986 -0.005294701 0.0068812016 0.000620271 -0.00093952136
0.009694948 0.0047817477 0.0060599004 -0.00051988364 0.005997762 0.0064673214 0.00017609636 0.009005422
-0.0037139752 0.0045376546 0.004628888 0.0019903688 0.00029828624 0.006234811 0.015596893 0.0025174199
0.00856151 0.0010085377 0.008115522 -0.0025802122 0.006507532 0.0076647894 -0.0059015085 0.0034869818
0.0032176606 0.00643149 0.0023189555 -0.0026235539 -0.0036837668 -0.0012171774 0.0065424093 -0.0034592822
-0.00018702503 0.005261914 -0.004456392 0.005607257 0.005150178 0.0024591894 -0.00438855 0.0012920136
-0.00042152364 0.004157732 0.011491151 0.006200035 8.8901164e-05 0.0011082612 -0.0027422123 -0.00625727
00000000: c646 35ba cf03 8dbb 15fd 0b3c f09f 2e3b
00000010: eb50 823b 774f 0e3c 7270 453c 3b8c 643c
00000020: 6a76 bd3b 0e7e 08bb 9686 e93b 374a cf3b
00000030: 2c7f adbb b47b e13b af99 223a 364a 76ba
00000040: 8fd7 1e3c 35b0 9c3b 2192 c63b cd48 08ba
00000050: e088 c43b d3eb d33b 82a6 3839 7a8b 133c
00000060: 2a66 73bb 9bb0 943b edad 973b d970 023b
00000070: 4d63 9c39 634d cc3b 1c8a 7f3c 4cfb 243b
00000080: 9345 0c3c e930 843a f7f6 043c c718 29bb
00000090: 233d d53b ea28 fb3b 7161 c1bb d985 643b
000000a0: 63df 523b 40bf d23b 9ef9 173b eeef 2bbb
000000b0: 5a6b 71bb b289 9fba b561 d63b 20b5 62bb
000000c0: 261c 44b9 226c ac3b ed06 92bb 15bd b73b
000000d0: d3c2 a83b 5a2a 213b d3cd 8fbb c858 a93a
000000e0: f2ff dcb9 953d 883b 6145 3c3c aa29 cb3b
000000f0: 7370 ba38 1343 913a b0b6 33bb c909 cdbb

bn3.running_mean f4 [64]
0.0762833 -0.20663181 0.02419067 0.2621668 -0.1423103 -0.08639105 -0.3929382 -0.17752609
0.46847302 -0.21765593 -0.2875352 -0.55252314 0.2223807 0.31170195 -0.15916927 -0.121409595
-0.4768215 0.017621985 0.07451817 -0.011000203 -0.33824062 -0.24118793 0.0057116775 -0.46887124
-0.07338869 -0.2439429 -0.24237724 0.02800735 -0.08285866 -0.0042083715 0.024696311 0.24456571
0.08910445 0.01116514 0.046741694 -0.10839656 -0.039132293 -0.17742004 0.0005684707 0.16952406
-0.17956595 -0.19352357 0.421949 -0.12476759 -0.26313818 0.0023992038 -0.27195278 0.07830815
0.12987137 -0.13369964 0.13088553 0.58611846 -0.09636669 -0.009658856 -0.071788594 -0.019270033
0.062992886 0.0064693363 -0.15458752 -0.20613644 0.11966883 0.029352576 0.07232322 0.11159145
00000000: 6b3a 9c3d 4a97 53be 832b c63c ba3a 863e
00000010: cbb9 11be caed b0bd 322f c9be 66c9 35be
00000020: b2db ef3e 32e1 5ebe d037 93be 2872 0dbf
00000030: c4b7 633e 6697 9f3e 45fd 22be 98a5 f8bd
00000040: f321 f4be fb5b 903c fb9c 983d 323a 34bc
00000050: e02d adbe f8f9 76be 0629 bb3b e40f f0be
00000060: cf4c 96bd 2bcc 79be bd31 78be ac6f e53c
00000070: cdb1 a9bd 61e6 89bb eb4f ca3c 6f6f 7a3e
00000080: 657c b63d feed 363c 3874 3f3d 04ff ddbd
00000090: 2f49 20bd 99ad 35be 6c05 153a b797 2d3e
000000a0: 23e0 37be 0b2b 46be b309 d83e 2686 ffbd
000000b0: 0cba 86be f63b 1d3b 653d 8bbe 0660 a03d
000000c0: 00fd 043e 8fe8 08be db06 063e dc0b 163f
000000d0: e65b c5bd 2e40 1ebc e605 93bd 30dc 9dbc
000000e0: 6a02 813d bafc d33b 314c 1ebe 6e15 53be
000000f0: ee14 f53d d074 f03c 321e 943d 0f8a e43d

bn3.running_var f4 [64]
0.09916515 0.10320185 0.1575853 0.110874444 0.119249694 0.08882043 0.1104685 0.13805637
0.15866631 0.13333619 0.07857006 0.12969999 0.13227928 0.104835734 0.09740496 0.07392097
0.111379 0.11784402 0.08888162 0.11458627 0.15413432 0.077876404 0.10062348 0.15593107
0.10915849 0.09946785 0.104617596 0.07303565 0.091364555 0.106136985 0.12831196 0.09757187
0.10091732 0.09533556 0.06401273 0.12463166 0.076819204 0.12390425 0.065736406 0.10264324
0.109168306 0.11774409 0.123139255 0.09078381 0.091469 0.12746084 0.08996488 0.10882125
0.14034553 0.104543135 0.12492103 0.16920619 0.10237819 0.10695643 0.14743207 0.103696965
0.13140887 0.12371477 0.1073524 0.1049652 0.09617392 0.096364796 0.102354325 0.13511439
00000000: 1917 cb3d 7e5b d33d 0a5e 213e 2412 e33d
00000010: 2f39 f43d 7ce7 b53d 4f3d e23d a65e 0d3e
00000020: 6c79 223e 4889 083e 57e9 a03d 13d0 043e
00000030: 3874 073e 1eb4 d63d 407c c73d e163 973d
00000040: ac1a e43d 3558 f13d 9107 b63d 35ac ea3d
00000050: 63d5 1d3e aa7d 9f3d af13 ce3d 65ac 1f3e
00000060: 7d8e df3d cdb5 cb3d c041 d63d b793 953d
00000070: 571d bb3d 595e d93d 3664 033e c3d3 c73d
00000080: bdad ce3d 4a3f c33d 1b19 833d e23e ff3d
00000090: 6353 9d3d 83c1 fd3d cfa0 863d 9e36 d23d
000000a0: a293 df3d d023 f13d 6f30 fc3d ddec b93d
000000b0: 1954 bb3d 1885 023e 823f b83d addd de3d
000000c0: bdb6 0f3e b61a d63d 99d6 ff3d 6344 2d3e
000000d0: a8ab d13d f90b db3d 6ff8 163e 135f d43d
000000e0: 0c90 063e 2b5e fd3d 93db db3d fff7 d63d
000000f0: d5f6 c43d e85a c53d 259f d13d 6d5b 0a3e

conv4.weight f4 [64, 64, 3, 3]
-0.0028478752 -0.0027707054 -0.0042251414 0.038489953 0.03549034 0.018009175 -0.007550961 -0.013203155
-0.0012460557 0.009061081 0.006479898 -0.030804284 0.032890726 -0.028759576 -0.029911095 0.037524413
0.027750662 0.010855244 0.022958418 0.017395727 -0.0067095477 -0.001159527 0.0032867137 0.04661016
0.034086846 0.013809151 -0.008414646 -0.032957327 0.01463489 0.005368597 -0.017265063 0.021227483
-0.032279696 -0.012304977 -0.03960185 -0.020637527 0.018804243 -0.03477774 -0.010801328 0.039367657
0.007436723 -0.0068065748 0.0051143314 -0.023606218 0.015703596 -0.037918072 0.028690303 0.017963594
0.012187932 0.017834824 -0.017161058 0.02825042 -0.037007067 0.02996864 0.025154201 -0.04458749
0.017246237 0.03749489 0.0014786611 -0.029122226 -0.0026982985 0.036583915 0.038081873 -0.0032558215
0.00069336646 -0.030784668 -0.02088695 0.03504452 0.030696334 -0.031801272 -0.020233627 -0.02274863
0.038340293 0.020006083 0.0057433774 -0.0092440825 0.025093462 -0.008095409 0.029867206 0.021171827
-0.021872912 -0.03458821 0.009293494 -0.017914806 0.044226192 -0.034825124 -0.007241197 0.037302658
-0.004300952 -0.004081659 0.03285619 0.00983449 0.0071933474 0.027462656 -0.007967838 -0.034231063
0.048781607 0.030051224 -0.019552093 0.012632294 -0.014499736 0.032804176 0.018330269 0.011730204
0.0039123422 -0.026890546 0.025062086 -0.0041698106 -0.019789085 -0.029321691 -0.033712525 0.027938394
0.016097385 -0.0048305867 -0.03637501 0.008376157 -0.0044119232 -6.537699e-05 -0.035183266 0.029374052
0.011620353 -0.007832384 0.0061085587 0.020734584 -0.02180959 -0.03189961 -0.0063298503 0.03672098
-0.027865231 0.010795455 0.002233169 0.02573636 -0.034187917 -0.03049829 0.027636161 0.03996924
-0.02532634 0.045322046 0.03435822 -0.014025091 0.036496874 0.0062792045 0.031001423 0.009406361
0.021232089 -0.028334942 0.024915712 0.023571746 0.04058756 0.035129827 -0.026228968 -0.02511522
0.0113402875 -0.0043265126 0.01839569 0.012075449 -0.039617587 -0.021043478 -0.026495721 -0.028438924
0.02773332 -0.037216395 -0.040904354 -0.015068609 0.04202334 -0.003008821 -0.00620997 0.005510984
0.034592155 -0.018221555 -0.026183939 0.02753223 0.036639996 -0.008916056 0.018100992 -0.0099751875
-0.03191177 0.021108914 0.031675402 0.047685586 0.014852032 -0.03979793 0.005053104 -0.009878583
-0.004425275 0.047458928 -0.03647975 0.01897799 0.025582982 -0.006691122 0.033407997 0.021769851
-0.03691207 0.023070546 0.034066338 0.019859463 0.036033854 -0.024083132 -0.017883748 0.024171647
-0.03794455 -0.034698296 0.0068429904 -0.016137168 0.028449187 -0.01165685 -0.020822061 -0.015874723
-0.014497596 0.02445437 0.04143147 -0.03734851 0.026448824 -0.034880564 0.004249198 -0.042048186
0.031903144 -0.006327601 0.025274495 -0.00086049066 0.028038578 -0.012309751 -0.0030881166 0.007556326
0.018121907 -0.04475337 -0.02246293 0.019382594 0.017703211 0.03830092 0.03284698 -0.026854059
-0.018259883 -0.026746897 0.03317542 -0.018382939 -0.041656002 0.026493479 0.031488042 0.01306988
0.04607724 -0.003387308 -0.025499444 -0.042996995 0.012641012 0.0052659665 -0.02321139 0.013810073
-0.043318093 -0.014230812 -0.005837503 -0.03042275 -0.003389943 0.0010359812 0.030776676 -0.021604251
00000000: 6ba3 3abb b994 35bb 0e73 8abb a4a7 1d3d
00000010: 525e 113d fa87 933c 0d6e f7bb 0c52 58bc
00000020: b152 a3ba ee74 143c 5355 d43b 4459 fcbc
00000030: 6db8 063d 3499 ebbc 1d08 f5bc 33b3 193d
00000040: 5b55 e33c 31da 313c 4b13 bc3c 7c81 8e3c
00000050: c4db dbbb 45fb 97ba e865 573b 4cea 3e3d
00000060: a69e 0b3d c73f 623c 95dd 09bc 43fe 06bd
00000070: 2dc7 6f3c 0eeb af3b 766f 8dbc 42e5 ad3c
00000080: b737 04bd d09a 49bc 8d35 22bd 0810 a9bc
00000090: 5b0b 9a3c 1a73 0ebd 0ef8 30bc fb3f 213d
000000a0: c1af f33b b009 dfbb 1f96 a73b d461 c1bc
000000b0: d4a4 803c fb4f 1bbd ed07 eb3c 6328 933c
000000c0: e4af 473c 561a 923c 5995 8cbc 6d6d e73c
000000d0: b994 17bd cb80 f53c 2f10 ce3c 5fa1 36bd
000000e0: fb47 8d3c 3e94 193d a2cf c13a bc91 eebc
000000f0: f0d5 30bb 04d9 153d bdfb 1b3d 9f5f 55bb
00000100: 09c3 353a 2130 fcbc 1c1b abbc d88a 0f3d
00000110: e176 fb3c 0d42 02bd fec0 a5bc 565b babc
00000120: b60a 1d3d cce3 a33c f132 bc3b 7e74 17bc
00000130: ce90 cd3c 9ba2 04bc 12ac f43c 8a70 ad3c
00000140: d22e b3bc 5eac 0dbd bd43 183c 12c2 92bc
00000150: 8626 353d caa4 0ebd 9047 edbb acca 183d
00000160: 00ef 8cbb 70bf 85bb 3694 063d d720 213c
00000170: 2cb6 eb3b 5df9 e03c 898b 02bc df35 0cbd
00000180: 39cf 473d fc2d f63c b62b a0bc aef7 4e3c
00000190: 4d90 6dbc ac5d 063d 5c29 963c 0b30 403c
000001a0: 1b33 803b 9049 dcbc 014f cd3c e8a2 88bb
000001b0: b81c a2bc 0b34 f0bc 2516 0abd 0fdf e43c
000001c0: aade 833c e649 9ebb f6fd 14bd 263c 093c
000001d0: e591 90bb 011b 89b8 541c 10bd daa1 f03c
000001e0: 4b63 3e3c 6653 00bc 4e2a c83b 93db a93c
000001f0: 06aa b2bc 2aa9 02bd a26a cfbb bd68 163d
00000200: a045 e4bc 6cdf 303c 5c5a 123b 0fd5 d23c
00000210: a108 0cbd 8dd7 f9bc 3b65 e23c c9b6 233d
00000220: 2f79 cfbc 9ca3 393d 34bb 0c3d 7fc9 65bc
00000230: bf7d 153d c9c1 cd3b b2f6 fd3c 231d 1a3c
00000240: ebee ad3c ae1e e8bc 091c cc3c 8919 c13c
00000250: 243f 263d 4be4 0f3d 22de d6bc 6fbe cdbc
00000260: 9dcc 393c 6bc5 8dbb 8fb2 963c 1bd8 453c
00000270: 0d46 22bd 5f63 acbc 8e0d d9bc bff8 e8bc
00000280: fd30 e33c 3870 18bd 538b 27bd 54e2 76bc
00000290: aa20 2c3d a42f 45bb 017d cbbb 7c95 b43b
000002a0: 81b0 0d3d 5f45 95bc b37f d6bc 458b e13c
000002b0: d213 163d a614 12bc 8848 943c f86e 23bc
000002c0: ebb5 02bd 9aec ac3c 11be 013d f651 433d
000002d0: f055 733c 2703 23bd 8294 a53b c8d9 21bc
000002e0: e601 91bb 4b64 423d ca6b 15bd bb77 9b3c
000002f0: 6793 d13c 3341 dbbb d3d6 083d b056 b23c
00000300: 1c31 17bd 71fe bc3c 2589 0b3d 50b0 a23c
00000310: 3c98 133d fd49 c5bc f080 92bc 9e03 c63c
00000320: bf6b 1bbd cd1f 0ebd 2a3b e03b 1832 84bc
00000330: 450e e93c 5ffc 3ebc 0793 aabc b50b 82bc
00000340: 5387 6dbc 8854 c83c 0cb4 293d c0fa 18bd
00000350: 34ab d83c ecde 0ebd db3c 8b3b b83a 2cbd
00000360: dfac 023d c457 cfbb 750c cf3c 8d92 61ba
00000370: 29b1 e53c d6ae 49bc 0062 4abb 0f9b f73b
00000380: 6574 943c 4f4f 37bd 2e04 b8bc 3fc8 9e3c
00000390: 5306 913c 6de1 1c3d 8e8a 063d 0bfd dbbc
000003a0: c095 95bc 4f1c dbbc f3e2 073d d197 96bc
000003b0: 7c9f 2abd da08 d93c 9bf9 003d 0d23 563c
000003c0: 7dbb 3c3d 99fd 5dbb 36e4 d0bc 9e1d 30bd
000003d0: 3f1c 4f3c 218e ac3b d025 bebc a543 623c
000003e0: 506e 31bd 5a28 69bc 8648 bfbb 2239 f9bc
000003f0: ce29 5ebb c3c9 873a 5e1f fc3c 66fb b0bc
