brain/classification/classification_model_p1.pth (torch, 805137 bytes, 51 tensors)

conv1.weight f4 [64, 2, 3, 3]
000000 a0 16 e0 bd fa d8 3f be 4b b5 b6 3d 62 b7 0d 3e
       -0.109418154 -0.18735114 0.08921298 0.13839486
000010 f5 b8 a9 bd 9f ee 00 be eb 8e 86 bd 93 9b 90 bd
       -0.08287231 -0.12591027 -0.06570228 -0.070609234
000020 8f 3f aa bd 3f d7 a9 3d 6f 63 51 bd 9f e4 59 be
       -0.08312904 0.08293008 -0.051120218 -0.21278618
000030 9e 5a 00 be ce f1 94 bc 0a 8d 0a be 7b 2a 20 3d
       -0.12534568 -0.018181708 -0.13530365 0.039103013
000040 57 70 a9 3d e5 52 0b be 27 71 2f 3e d5 01 4f be
       0.0827338 -0.1360584 0.17133008 -0.20215543
000050 2c 87 33 be 47 b5 44 3d 77 64 68 3e 73 54 46 3e
       -0.17532033 0.048024442 0.22694574 0.19368152
000060 d5 fd 79 3d 04 cf e4 bd c4 dd 27 3e a6 72 a0 3d
       0.06103309 -0.111722976 0.1639319 0.078343675
000070 6f 3f 24 3e 4d 7c 36 be 4e c0 0c be 87 f1 dc bc
       0.16039823 -0.17820854 -0.13745233 -0.026970638
000080 bc 17 83 3d 01 56 09 3e ee 88 62 be f7 05 53 3d
       0.06401011 0.13411714 -0.22122547 0.05151936
000090 93 7a 76 3e 29 45 50 3e eb 74 85 bd 3f 5a 7b 3e
       0.24070196 0.20338883 -0.06516441 0.24546145
0000a0 33 30 05 3e e7 8c 1f be 9f d8 4b 3e 03 eb 22 3e
       0.13006668 -0.15581094 0.19906853 0.15909962
0000b0 3b b8 a1 3c ab fb d0 bd 15 1a 2f be 54 fd 2c 3d
       0.019741168 -0.10204252 -0.17099793 0.04223378
0000c0 ec fa 90 3d 39 37 cd 3c 39 20 97 bc 27 e0 99 bd
       0.070791095 0.025050746 -0.018447982 -0.07513457
0000d0 29 5e a2 3d 84 ee d7 bd a7 54 8f bd d5 b6 d4 bd
       0.07928116 -0.1054354 -0.06998568 -0.10386435
0000e0 7d 5e bd 3d c1 6b 56 bd 4f 7e 3e 3e 81 43 31 bd
       0.09246538 -0.052348856 0.1860287 -0.043277267
0000f0 08 cb 53 be d6 8f 41 be 0d 22 8e bc a8 68 3c 3d
       -0.20682919 -0.18902525 -0.017350221 0.045998245
000100 1b 97 54 be 64 ed 72 3e 34 48 5f 3e ff dc 44 3e
       -0.20760767 0.2372337 0.21804887 0.19224928
000110 0d 08 33 3e 01 aa 4c be 2b 9b 31 be 59 bd 37 be
       0.1748354 -0.19986726 -0.17344348 -0.17943324
000120 ae 25 a5 bd 5e 5f c7 3d e9 97 37 3c d7 9d 84 3d
       -0.080638275 0.09734987 0.011205652 0.06475418
000130 79 a4 77 be d2 d7 30 be fa a1 1d 3e 0f 16 0b 3e
       -0.24183835 -0.17269829 0.1539382 0.13582633
000140 8e ea dd 3d e2 a0 e6 bc 1d 6c 63 3e f2 dc 84 bd
       0.108357534 -0.028152887 0.2220921 -0.064874545
000150 85 a5 24 bd 94 28 f5 bd 3e 9e a2 bd 37 ed 9c 3d
       -0.040196914 -0.1197063 -0.079403386 0.07662433
000160 dd 72 42 3e b6 b5 0c 3e c0 be 52 3e 5f 54 58 3c
       0.1898913 0.13741192 0.20580578 0.013203709
000170 cc f9 6d bd 36 1c 55 be e2 bd 5c be 50 16 ae bc
       -0.058099553 -0.20811543 -0.2155681 -0.021250874
000180 c9 ee 0f 3e 88 1f 5b be d3 2a 22 bd 45 76 0f bd
       0.14055933 -0.21398747 -0.03959162 -0.0350249
000190 10 4e 8f 3b bc 4e 3e 3e 90 95 18 be a0 6e b0 bd
       0.0043733194 0.18584722 -0.14900804 -0.0861485
0001a0 0f 28 1e be a2 f9 74 bc f7 31 41 3e 7e 84 51 be
       -0.15444969 -0.014952095 0.18866716 -0.20460698
0001b0 2e 6f 58 be 97 e6 20 3e e7 2b 39 3e 78 e5 ff bd
       -0.21136162 0.15712963 0.18083154 -0.124949396
0001c0 93 be 47 3c 79 dc c0 3d e2 14 32 3e d4 1f 6c be
       0.0121914325 0.09417052 0.17390779 -0.23059016
0001d0 a0 00 17 3c 76 e3 ad bd 98 7b d9 3d e2 a3 35 3e
       0.009216458 -0.0849065 0.10619277 0.17738298
0001e0 51 86 72 bd 03 ff 85 3c 44 c9 39 3e 87 2a 0c 3e
       -0.059210125 0.01635695 0.18143183 0.13688098
0001f0 46 01 f0 3d af 59 44 be 44 26 48 bd e5 f7 42 be
       0.11718993 -0.19174837 -0.048864618 -0.19039877
000200 79 f3 c6 bd 46 44 37 3e 4f de 95 3d d7 ad 5b 3e
       -0.097144075 0.17897138 0.073177926 0.21453033
000210 6c 05 5f 3e 2c f7 9d 3d 20 d6 32 be 18 1c e9 bd
       0.21779412 0.0771316 -0.17464495 -0.113823116
000220 0b 7e 11 3d 11 06 25 3d 8f cd 40 3e f1 e2 25 bd
       0.035520595 0.04028899 0.18828414 -0.04049963
000230 c7 6e e1 bd e1 6b 54 3e a7 ce 5e 3e 3d 2d e3 3c
       -0.11007457 0.20744278 0.21758519 0.027731532
000240 d2 44 1d 3e fd 4c 64 3e 6e a7 5b 3e ec 31 14 be
       0.15358284 0.22294994 0.21450588 -0.14472169
000250 23 e0 5a 3e fe c6 75 3e 02 fa 4e be dc 6a 42 3c
       0.21374564 0.24001691 -0.20212558 0.011866298
000260 ae d4 d2 3d af d7 5b be ea cf 59 be 07 4b 21 3d
       0.10294472 -0.21468996 -0.21270719 0.039378192
000270 11 0e a4 bd 6e 05 f4 3b e0 15 0e be 34 ac 43 be
       -0.080104955 0.0074469363 -0.13875532 -0.19108659
000280 73 14 2b be a1 6b c6 3b a8 c5 b0 bd 9e ed ee bc
       -0.1670702 0.006055311 -0.0863145 -0.02916604
000290 ff 98 28 bd ca a6 20 3c af bc 6e 3e 90 57 4c 3e
       -0.041161533 0.009805391 0.23314165 0.19955277
0002a0 91 33 fd bd 21 ee 43 be 53 b6 da bd db 42 41 3d
       -0.12363351 -0.19133808 -0.10679307 0.0471829
0002b0 48 97 c1 3c a1 70 52 be ac 6e 63 3e 46 fe 15 3e
       0.023631707 -0.20550777 0.22210187 0.14647779
0002c0 ba d6 a9 bd 75 4d 29 3e 68 9f 05 be e4 eb 5e 3e
       -0.08292909 0.16533454 -0.1304909 0.21769673
0002d0 8d f4 7c 3d 43 a7 69 3e 70 0a cd bd ac 86 12 3e
       0.06175666 0.22817712 -0.100117564 0.14309186
0002e0 cc b0 4e be 6e fa c7 3d 74 61 ca bd 73 f2 e7 3d
       -0.2018463 0.097645625 -0.09881869 0.113255404
0002f0 6c 97 cb 3d 87 9b 42 be f6 23 0d 3e 5e 12 29 be
       0.09940991 -0.19004641 0.1378325 -0.16510913
000300 1e 81 b8 bd 40 65 73 be f5 5e 23 be 63 ff 08 ba
       -0.09009002 -0.23769093 -0.15954192 -0.0005226044
000310 b7 cc 55 be d1 5a de bc fc d1 4b 3e 89 96 3c 3e
       -0.20878874 -0.027142914 0.19904321 0.184168
000320 18 b8 82 bd fd 91 20 3e dc 2a 02 3e 2b b8 05 3d
       -0.06382769 0.1568069 0.12711662 0.03264634
000330 d9 11 3b bd 56 87 7e bd ce 6e 4a 3e ba 9a 3c 3e
       -0.045671318 -0.062140785 0.19768831 0.18418398
000340 8c 5c c7 3d ec 2a 4f be 73 58 63 3e 2e 85 f7 3d
       0.09734449 -0.20231217 0.2220171 0.12085949
000350 1b ef 31 be 9f 30 d4 bd 34 ee 65 3e b3 42 59 be
       -0.17376368 -0.10360836 0.22454149 -0.2121685
000360 79 fa de 3d 5e 16 5f bd a8 f5 df 3d af d6 3c 3d
       0.108876176 -0.05446469 0.10935527 0.046103176
000370 4e e4 33 bd 8a ec 13 be 39 3a 16 3e 05 18 22 be
       -0.0439189 -0.14445701 0.14670648 -0.15829475
000380 3b f6 03 be fc b4 01 be a8 98 4e be d1 db 0b be
       -0.12886898 -0.12666696 -0.20175421 -0.13658072
000390 98 49 a5 3d b8 9f 22 be ce 29 4e 3e 06 3e 16 3e
       0.080706775 -0.1588124 0.20133135 0.14672098
0003a0 38 69 91 3d a0 6f dc 3d da 0f 5a 3e 46 81 27 be
       0.07100147 0.10763478 0.2129511 -0.16357908
0003b0 9a 78 8c bd ae 30 78 bd 8e 6c 41 bd 76 5e 3d be
       -0.068589404 -0.0605933 -0.047222666 -0.18493065
0003c0 88 e0 aa bd 8d 1d 31 3e 41 5c a8 3c 60 db 49 be
       -0.08343607 0.17296429 0.020551803 -0.19712591
0003d0 19 9c 62 3e 36 1d 7c bc 08 97 5b 3e 54 20 5f 3e
       0.22129859 -0.015387824 0.21444333 0.21789676
0003e0 ad 29 53 be 06 81 3e bd 48 e7 4f 3c 0f 30 0f be
       -0.20621367 -0.046509765 0.012689419 -0.13983177
0003f0 74 09 1a be a1 a4 45 3e 63 38 06 3e 64 df a9 3c
       -0.15042669 0.19301082 0.13107447 0.020736404

conv1.bias f4 [64]
000000 18 8d e6 bd 9b d0 f5 bd 71 bc 55 be e5 53 d3 bd
       -0.1125738 -0.12002679 -0.20872666 -0.10318736
000010 72 3c 24 be 5e 16 e0 bd 48 cd e4 bd 18 ea 03 3e
       -0.16038683 -0.10941766 -0.11171967 0.12882268
000020 6c bc e9 bd 55 ea c1 3c 1f a6 5f be ee f5 32 be
       -0.11412892 0.023671309 -0.21840714 -0.17476627
000030 d3 1e 7d bd 23 66 61 3e 2a b1 c4 bd 74 9f 03 3e
       -0.061796974 0.22011618 -0.09604104 0.12853795
000040 54 1b 2a be 89 26 c8 3c 28 b6 f9 bd 07 9f aa bd
       -0.16611987 0.024432437 -0.12192947 -0.08331113
000050 15 71 99 3d 25 27 d3 bd 7a 3e a7 3d ad cb 96 3d
       0.07492272 -0.103102006 0.08166213 0.07363067
000060 65 67 5e be 06 b7 5d bd c9 98 e0 bd 55 4d c7 3c
       -0.2171913 -0.054129623 -0.109666415 0.024328867
000070 fb 7a 6f be 36 1a 61 3d f0 af 72 3c cb ad b2 bd
       -0.23386757 0.054956637 0.014812455 -0.08724555
000080 af 26 7f bb 4c 38 1b 3e 2e e5 61 be 87 b2 1f be
       -0.003893297 0.15158194 -0.22060081 -0.15595447
000090 30 dd 2e 3e 9f 56 ce bd 29 6b 24 bd 3f 9a ca 3d
       0.17076564 -0.100751154 -0.04014126 0.09892701
0000a0 86 1e 50 3e 2a dd 9d 3d 5a 1f 43 3c 59 94 29 3e
       0.20324144 0.07708199 0.01190933 0.16560496
0000b0 72 4b 0a 3e 99 45 32 be bb fc 38 3e 88 b9 4e 3e
       0.13505343 -0.17409362 0.18065159 0.20187962
0000c0 cd d4 57 3e 38 f2 a6 bc cb 5e 18 be 48 f5 ac bd
       0.21077271 -0.02037917 -0.1487991 -0.08445221
0000d0 ea 62 69 3c 80 ca 60 be 62 d1 70 be b1 de 09 3e
       0.014244774 -0.21952248 -0.23517373 0.13463856
0000e0 e4 1f b6 3d dd 18 cd bd fa 6b 26 3d ef 9e 42 bd
       0.088928014 -0.10014508 0.04063032 -0.047514852
0000f0 91 ad 15 bd 4f 5e 2e be 46 15 12 3e 43 bd 67 3d
       -0.03654248 -0.17028163 0.14265928 0.05657698

bn1.weight f4 [64]
000000 63 1a 80 3f 66 0a 7f 3f b1 be 80 3f 42 b4 80 3f
       1.0008053 0.9962524 1.0058194 1.005501
000010 d6 ad 80 3f 68 1e 81 3f 45 07 81 3f 10 77 7e 3f
       1.005305 1.0087404 1.0080343 0.99400425
000020 ae 3c 80 3f a9 0d 7f 3f 9f 1c 80 3f 10 2a 80 3f
       1.0018518 0.9963022 1.0008734 1.0012836
000030 22 d3 7f 3f 1e f4 7e 3f 50 a3 7f 3f 56 37 80 3f
       0.9993154 0.99591243 0.9985857 1.0016887
000040 a2 86 80 3f 87 50 80 3f 6f bb 80 3f 92 ab 80 3f
       1.0041087 1.0024575 1.00572 1.0052359
000050 fc b1 7f 3f 2e e8 7d 3f b9 60 7e 3f 0f c7 80 3f
       0.9988096 0.99182403 0.9936634 1.0060748
000060 45 12 80 3f 63 fe 7e 3f 2c 03 7e 3f c6 bb 7f 3f
       1.0005575 0.99606913 0.9922359 0.99895895
000070 ed 75 80 3f ab 3a 81 3f ec 58 80 3f 1b cd 7f 3f
       1.0035988 1.0096029 1.0027137 0.9992234
000080 69 b3 7f 3f 4d 75 80 3f 5d 07 7f 3f 56 21 7f 3f
       0.99883133 1.0035797 0.9962061 0.9966024
000090 3d 38 80 3f 2d 77 7f 3f 70 5e 7f 3f d0 b4 7e 3f
       1.0017163 0.9979122 0.99753475 0.9949465
0000a0 a5 d5 7e 3f a5 38 82 3f 7b 1f 80 3f 1e 7b 80 3f
       0.99544746 1.0173537 1.0009607 1.0037572
0000b0 a2 ea 7e 3f 14 d0 7e 3f 86 52 80 3f fe 8b 7f 3f
       0.9957677 0.9953625 1.0025184 0.99822986
0000c0 b0 9f 7f 3f 98 2e 80 3f ea 1d 7e 3f 67 bf 7f 3f
       0.9985304 1.0014219 0.99264395 0.9990143
0000d0 c0 f5 7f 3f f5 ac 7d 3f b4 4d 7f 3f 53 b8 80 3f
       0.9998436 0.99092036 0.9972794 1.0056251
0000e0 9c bb 7e 3f e7 00 80 3f 8f 05 80 3f 2a 62 80 3f
       0.9950502 1.0000275 1.0001696 1.0029957
0000f0 90 60 7d 3f 75 d2 80 3f eb 39 7f 3f b3 ca 7f 3f
       0.9897547 1.0064226 0.9969775 0.9991867

bn1.bias f4 [64]
000000 96 8e e7 ba de 20 8a 3b 18 ec 10 3c 69 68 42 3c
       -0.0017666395 0.004215344 0.008845352 0.011865714
000010 6e 51 34 3b 74 11 9d b9 83 74 ad 3b 78 1f 5d ba
       0.0027514356 -0.00029958377 0.0052934303 -0.000843517
000020 42 20 ad 3b 3c 21 c2 3b 7d 80 30 3a 9b 03 14 3b
       0.0052833864 0.005924372 0.00067330134 0.0022585157
000030 8e 9a 66 3b 47 b6 d2 bb 4e d6 04 3c 53 47 9a bb
       0.0035187337 -0.0064304206 0.008107735 -0.0047082095
000040 d2 b7 d6 3b 42 0f 30 bb 72 4c 29 3c cd fc 41 b8
       0.006552675 -0.0026864563 0.010333167 -4.6250225e-05
000050 48 2b fc 3b 31 38 c1 3b 12 d8 af bb d7 1c 37 3b
       0.007695589 0.005896591 -0.0053663338 0.0027940774
000060 c6 77 a4 39 f5 7f 1c 3b 1a d1 76 bb 53 8f 8a ba
       0.00031369756 0.002387998 -0.0037661255 -0.0010571278
000070 fe fc 2c 3c de 6f 07 3a e1 b3 4b 3c c0 c4 a2 bb
       0.010558365 0.0005166511 0.012433023 -0.004967302
000080 9e b5 0c bb 9a 13 55 3c 34 65 fb 3a 13 73 16 3b
       -0.0021470557 0.013005162 0.0019179941 0.0022956773
000090 20 4b 65 3c 3a d9 cd ba 06 e6 80 3b c1 eb e8 ba
       0.013994962 -0.0015704997 0.003933671 -0.0017770455
0000a0 0d b8 bc bb b5 17 a4 3b 74 8e 06 bb ae fb fb 3a
       -0.0057592453 0.005007709 -0.0020531686 0.0019224787
0000b0 aa 18 2f 3c 14 65 bc ba 49 a9 33 3a 00 96 9a b7
       0.010687033 -0.0014373385 0.00068535336 -1.842808e-05
0000c0 e0 dd c8 3a 5c 70 36 b8 9e 6e 4e bb a5 4a ad 3a
       0.0015324913 -4.3496824e-05 -0.0031499038 0.0013221098
0000d0 6d fd 51 3b cb d3 8c ba 11 29 f5 ba cc 9d 00 3c
       0.0032041923 -0.0010744272 -0.0018704255 0.007850122
0000e0 26 f5 bc bb 5d 8e d4 3b c2 6a 45 3b 09 40 c1 3a
       -0.0057665287 0.0064866976 0.0030123447 0.0014743815
0000f0 5d a8 8c bb 75 c8 61 3c c5 ec 3c ba aa d6 ca 3b
       -0.0042925314 0.013780703 -0.0007206912 0.0061901407

bn1.running_mean f4 [64]
000000 5a 58 c3 be 59 52 a1 bd 88 1c d1 bd 21 87 f3 bd
       -0.38153344 -0.07877035 -0.1021052 -0.11891008
000010 8c bd 5a bd 9b 8f a8 be d9 09 45 3d 57 c9 bf 3e
       -0.053403422 -0.32922062 0.048105095 0.37458298
000020 d9 6b a3 be 38 f9 3d 3e 02 de 08 bf da 13 60 3d
       -0.3191822 0.185521 -0.5346376 0.054706432
000030 b0 ad d0 bd 67 47 7b 3e 74 73 78 bd 8c 0b fa 3d
       -0.10189378 0.24538957 -0.06065698 0.12209234
000040 60 86 f6 be d6 a7 68 3e 6c 22 d5 be 69 ea 1e 3e
       -0.48149395 0.22720274 -0.41627824 0.15519108
000050 b1 03 8e be 06 68 99 3d 6e a9 c6 3d cb c4 6f 3e
       -0.2773719 0.07490544 0.09700285 0.23414914
000060 ec fc 84 be f0 93 37 3e 61 08 d2 bd 70 a9 85 be
       -0.25974214 0.17927527 -0.102555044 -0.26105833
000070 fa 02 24 3d 76 ac 32 be cd 05 48 3e e8 ad 08 bf
       0.0400419 -0.17448601 0.19533463 -0.5339036
000080 0e ee d2 3d a5 63 ee 3e ce f8 11 be fc 9d b0 3d
       0.102993116 0.46560398 -0.14255068 0.08623883
000090 50 5e 7a 3e 80 69 40 be 01 ff 49 3c a1 c1 7d 3b
       0.2445004 -0.18790245 0.012328864 0.0038720148
0000a0 dd 08 b3 3c f6 30 71 bd 48 b2 79 3e 20 30 84 3e
       0.021854812 -0.058884583 0.24384415 0.25817966
0000b0 01 db 58 3e 01 ad ef bd af 28 17 3e 97 a5 f1 3e
       0.21177293 -0.1170292 0.14761613 0.47196648
0000c0 a1 e3 08 3e a6 dc 9d be c4 ee 4a 3e 64 41 a2 be
       0.13368084 -0.30832404 0.19817644 -0.31690514
0000d0 f2 fb a9 3d 42 89 1d be a7 75 07 bf 83 18 6c 3e
       0.08300008 -0.15384391 -0.529139 0.23056225
0000e0 fe d2 35 be 62 d8 cb bd 2f 01 85 3e 8c 56 61 be
       -0.17756268 -0.09953381 0.25977466 -0.22005671
0000f0 d7 d9 90 bb e4 4c d6 be f5 9a 4d be 65 ab 0c 3e
       -0.0044205 -0.41855538 -0.20078643 0.13737257

bn1.running_var f4 [64]
000000 5d c2 19 3e 52 40 b1 3d 1f 56 a4 3d e1 8f 30 3e
       0.1501555 0.08654846 0.08024239 0.17242385
000010 74 71 a3 3d 8b 85 f1 3d 08 62 bc 3d 4d b6 2c 3e
       0.07980624 0.117930494 0.091983855 0.16866417
000020 c4 f3 27 3e 6e 1d bb 3d e0 29 b9 3d bd 00 3c 3e
       0.16401583 0.09136473 0.0904119 0.18359657
000030 95 3f ff 3d 6e 91 40 3e 30 ad 35 3e 40 e1 0d 3d
       0.12463299 0.18805477 0.17741847 0.034638643
000040 3b c0 43 3e fc e3 2c 3e cc 7e cc 3d f7 8c 66 3e
       0.19116299 0.16883844 0.09985122 0.22514711
000050 d2 a7 16 3e df 94 51 3e 09 c6 50 3e 2f c1 d0 3d
       0.14712456 0.20466946 0.20388044 0.10193097
000060 a5 7a e8 3d 49 09 02 3e e4 6e 98 3d 5a 75 e9 3d
       0.113515176 0.12698855 0.07443026 0.11399336
000070 81 99 d2 3d 46 51 e7 3d b3 7c ed 3d 13 b2 aa 3e
       0.10283185 0.112947986 0.1159605 0.33338985
000080 bb df b8 3d 3a 83 67 3e b2 50 67 3e b6 75 11 3e
       0.09027048 0.22608653 0.22589377 0.1420506
000090 17 e3 e5 3d 13 32 c0 3d c3 f7 9f 3d 89 d3 db 3d
       0.112249546 0.09384551 0.07810929 0.107337065
0000a0 b4 d8 1a 3e d8 16 f9 3d b8 95 b6 3d 65 2d f5 3d
       0.15121728 0.1216256 0.08915275 0.11971549
0000b0 db 47 ec 3d f6 ac 72 3d 06 a2 b8 3d b6 53 f9 3d
       0.11537143 0.05924698 0.090152785 0.1217417
0000c0 d1 62 c6 3d a9 31 fe 3d 39 8a 47 3e bf 9e 48 3e
       0.096868165 0.12411816 0.19486322 0.19591807
0000d0 80 e9 94 3d 08 8a 2a 3e 17 a8 1a 3e dc 76 2f 3e
       0.07271099 0.16654217 0.15103184 0.17135185
0000e0 68 ae 4c 3e fd 7a 1a 3e 20 31 18 3e aa 3a 30 3e
       0.19988406 0.15085979 0.1486249 0.17209879
0000f0 5d 83 e9 3d 2e 42 10 3e ea a1 39 3e 55 6e c9 3d
       0.11402009 0.14087746 0.18128172 0.09835497

conv2.weight f4 [64, 64, 3, 3]
000000 e3 3c 18 3c 1f a8 b9 bc 90 ac a3 3c 1e 57 e5 3b
       0.00929186 -0.022663174 0.019979745 0.0069989106
000010 c3 c0 13 3c f7 c5 1b bd 06 92 e7 ba 6e be a4 3c
       0.009018126 -0.03803059 -0.001766742 0.020110335
000020 da e4 a9 bc 7a ba 22 bd b7 97 00 bb 00 96 45 bc
       -0.020739008 -0.03972862 -0.001962168 -0.012059689
000030 03 71 c6 bc 7e bd a9 bb b1 98 01 3d 05 46 14 bc
       -0.02422381 -0.00518006 0.03163976 -0.009049897
000040 87 20 18 bd b1 61 1a 3c d1 76 06 3d a4 12 e9 bc
       -0.037140395 0.0094227055 0.032828156 -0.028451271
000050 98 ad a1 bc 37 8e ed 3a ae 8b f6 bc a3 98 22 3b
       -0.019736096 0.0018124048 -0.030095901 0.0024810217
000060 87 54 2d bc 72 b6 c7 3c e2 b6 a9 3c 39 b1 0a 3d
       -0.010579235 0.024378989 0.020717088 0.03386042
000070 ef a5 4e 3c 41 27 a8 3c bb cf 29 bd 25 20 21 bd
       0.012612804 0.02052653 -0.041457873 -0.039337296
000080 ec 2a 12 3a 2b 49 2a 3c 0a a3 ee bc fc 13 a1 bc
       0.0005575854 0.010393421 -0.029130477 -0.01966285
000090 02 c9 0a 3c 21 7b f0 bc f3 37 56 3c 45 9b d7 bc
       0.008470776 -0.029355587 0.013074863 -0.026319155
0000a0 7a a7 fe bc 82 31 07 bd 72 44 21 bb 25 64 ed 3c
       -0.031085718 -0.0330062 -0.0024607447 0.028978417
0000b0 af c5 e5 bb 62 c4 32 3d 60 3d c6 bc cd be b4 3c
       -0.007012091 0.043644316 -0.024199188 0.022063637
0000c0 e8 71 08 bd 98 66 c3 bc 0b bf 10 bd 56 34 cd 3c
       -0.033311754 -0.023852631 -0.035338443 0.02504937
0000d0 20 86 a9 3c 56 d9 97 bc 65 45 4b 3c 90 0b d3 3c
       0.020693839 -0.018536251 0.012406682 0.02576235
0000e0 4b 27 d0 bc 3f 08 f9 3c a0 ba a1 bc f2 08 0f bd
       -0.025409361 0.03039944 -0.01974231 -0.03492064
0000f0 01 68 9e bb 61 ea f6 bc b7 8a 20 3b 98 ac e1 3b
       -0.0048341756 -0.030141057 0.0024496743 0.00688703
000100 99 22 bb bc 93 19 ad 3c 75 0e 16 3d c5 00 88 ba
       -0.022843646 0.021130359 0.03663488 -0.0010376206
000110 60 42 fc bc 95 0d 40 bb 65 cc 2b 3c 01 ed f2 3b
       -0.030793369 -0.002930497 0.010485743 0.007413507
000120 55 b7 89 3c 40 03 da bc f8 bf 7f bc 87 d4 ef bc
       0.016811052 -0.026612878 -0.015609734 -0.029276146
000130 fd f2 ea 3c 0f 35 57 bc cc 30 bb bc 53 68 f6 bb
       0.028680319 -0.013135209 -0.022850417 -0.0075197606
000140 34 7c 09 bc 49 35 09 bc d3 13 25 3c c6 67 31 3c
       -0.008391429 -0.008374521 0.010075527 0.010827964
000150 45 16 fb bc 3e 03 27 bd 15 aa be 3b 04 02 a8 bb
       -0.030650267 -0.040774576 0.005818615 -0.0051271934
000160 6e ec ce bc 08 c0 83 3c 92 2f 20 bd 9e fc 21 bd
       -0.025259223 0.016082779 -0.039107867 -0.039547555
000170 56 bf 47 bc 48 32 0e 3d 57 c2 98 bc 07 67 81 3c
       -0.012191614 0.03471592 -0.018647356 0.015796198
000180 18 a3 4a bc 37 bd 1f bd bf e2 c4 3c 59 ed b4 bc
       -0.012367986 -0.03899881 0.024033902 -0.022085832
000190 d0 86 03 3d 2f 86 7a 3c e1 26 79 3c e7 1f c0 bb
       0.03211099 0.015290781 0.015207023 -0.005863178
0001a0 1b 42 7f b9 27 ec 74 bb 5c 51 27 bd bd 7a a1 3b
       -0.00024343321 -0.0037372203 -0.040849075 0.0049279616
0001b0 5d c7 b9 bc 9a 0f 5f 3c 7b bc b1 3c 68 8c 03 3b
       -0.022678072 0.01361456 0.02169632 0.0020072702
0001c0 d3 71 7f 3c ba 5c 8b 3c c1 fd 8f 3c ca 5a 6f 3c
       0.015591103 0.017011989 0.017577054 0.014609048
0001d0 cd 30 18 bd 4e b8 e6 3c 01 4b 27 bd 6d 8d c3 bc
       -0.037155915 0.028164055 -0.040843014 -0.023871148
0001e0 bf e7 15 3b de 6d 00 3d b5 c6 19 bc 32 3c 0b bd
       0.0022873727 0.031354778 -0.009385754 -0.033992954
0001f0 9e 7c 02 bc d5 4a f8 3c fb de 21 3d 76 c0 e7 bc
       -0.007964281 0.03030912 0.03951929 -0.028290015
000200 a5 e3 95 3c 8d 42 b1 3c ca ef 58 3b 09 51 09 3d
       0.018297026 0.02163818 0.003310191 0.033524547
000210 c8 06 89 3c b1 05 2b 3d 55 d7 d2 bc 21 27 c3 3b
       0.016726866 0.041753475 -0.025737444 0.0059555923
000220 04 1c 3d 3c 2e 2e 04 bc 57 8f 96 bc 00 24 35 b8
       0.011542324 -0.008067651 -0.018378897 -4.318729e-05
000230 57 5b 1f bd c4 ec 05 3c 49 7d 2b bd 51 c3 2c bd
       -0.038905468 0.008174125 -0.041867528 -0.042178456
000240 ed 08 11 3c b0 04 ac 39 0a 1e 12 bb 8c 19 d2 bc
       0.008852226 0.0003280989 -0.0022295737 -0.025646947
000250 0a 2b 0e 3d c2 32 ec bc 1a 99 3c bc cf c0 d3 bc
       0.034709014 -0.028832797 -0.011511112 -0.025848774
000260 2a 24 ac bc 83 b1 77 3c f1 0c b9 bc 51 33 98 bc
       -0.021013338 0.015118006 -0.022589179 -0.018579157
000270 b9 83 e2 3c 64 e9 fc 3b 4a 0b cc bb 0c d7 3c ba
       0.0276507 0.007718252 -0.0062269317 -0.00072036753
000280 d0 79 0b bd 33 05 30 bd a3 49 08 3d 7d bc 70 3c
       -0.034051716 -0.04297371 0.03327335 0.014693377
000290 32 ac ba 3c eb 17 1b bd 85 03 09 3d 8a f3 18 bd
       0.022787187 -0.037864607 0.033450622 -0.037341632
0002a0 56 68 09 3d 6b aa d5 3c ba 27 75 3c 19 f4 df bb
       0.033546768 0.026082238 0.014963085 -0.0068345186
0002b0 4c 57 a5 bb 63 78 21 3d 4f f0 aa bc a1 f9 3b 3b
       -0.005045807 0.03942145 -0.020866541 0.0028682726
0002c0 32 f9 fe bb 8f 40 37 3b 80 f7 07 bc 78 ee ff 3a
       -0.0077811712 0.0027962064 -0.008298755 0.0019526025
0002d0 92 84 59 3a 99 b4 d6 3b 99 bd 09 bd 9c 99 8d ba
       0.00082976476 0.0065522906 -0.03362808 -0.0010803225
0002e0 38 b5 a8 bb 85 21 5d bc 52 41 a7 3c da af 3b bc
       -0.005148556 -0.013496761 0.02041689 -0.0114555005
0002f0 c7 3d 31 3c 1b 5f 81 3b 36 42 23 bd 78 d4 d4 39
       0.0108179515 0.003948105 -0.039858066 0.00040594093
000300 61 75 0d 3d 90 8b 0a bd 7a c1 60 bc 56 a4 db bc
       0.03453577 -0.033824503 -0.013718003 -0.02681176
000310 4a 55 cc bb 91 85 51 3c 75 1f 99 3c 3c 61 16 3c
       -0.006235753 0.012788192 0.018691758 0.009178456
000320 b1 2d e9 3c e3 74 66 bc f4 fd cb 3c c1 65 73 bc
       0.02846417 -0.014065954 0.024901368 -0.014855803
000330 71 ef ac 3c 5c ef 97 3b 53 77 d5 3c 26 96 9e 3c
       0.021110268 0.004636688 0.026057875 0.019358706
000340 2a 80 af 3c 06 1e dc bc 74 3c db bc 80 9b b8 3c
       0.021423418 -0.026869785 -0.026762225 0.022535086
000350 35 26 63 3a 8f 96 02 3d 4b db f1 3c 18 70 19 3d
       0.0008665056 0.031881865 0.029523512 0.037460417
000360 1f c3 e0 3c 79 69 17 bd 30 cf 10 bd ae d2 99 bc
       0.027436791 -0.03696582 -0.03535384 -0.018777218
000370 97 64 5e 3c 87 24 2d bd 46 45 01 3d 9a a7 ea bc
       0.013573787 -0.042271163 0.031560205 -0.028644372
000380 de 98 a8 3a 52 ae bd 3c 2b 57 c6 3b 3a ca f3 bc
       0.0012862941 0.023154411 0.0060528717 -0.029759515
000390 62 fe 67 3c 66 5c 45 3c b6 e4 0c 3c c4 58 12 bd
       0.014159771 0.012045955 0.008599451 -0.035729185
0003a0 de cd cf bc 4c 29 27 bb fa 0a 57 bc 26 57 83 bc
       -0.02536672 -0.0025506793 -0.013125176 -0.016032767
0003b0 b0 ce 63 bb 36 6e c4 bc 4d 6c e1 bb e9 47 09 3d
       -0.0034760647 -0.023978334 -0.0068793655 0.033515844
0003c0 de b2 d3 3c d4 9c b3 3c c2 eb ed 3c b0 b2 e8 3c
       0.025842126 0.021925367 0.029043082 0.028405517
0003d0 be a5 70 3c 4c d4 ae 3c 0c d2 20 bd 6b 4b 1c bd
       0.0146879535 0.021341465 -0.039262816 -0.03815786
0003e0 4a 73 1f bc 31 bc fd bc d1 6c 21 3d 37 65 0e 3d
       -0.009732077 -0.030973526 0.039410416 0.034764495
0003f0 03 c2 7f 3c 1e 53 97 bc 3c 30 19 3d bf b6 00 3d
       0.015610221 -0.01847225 0.037399516 0.03142428

conv2.bias f4 [64]
000000 30 b5 90 bc c7 cb bb bc cd c8 95 bc 59 f2 4c bc
       -0.017664522 -0.022924317 -0.018284226 -0.012508952
000010 52 92 ab bc 97 b1 dd bc 18 6a 8b ba 03 c5 7d bc
       -0.020943794 -0.02706222 -0.0010636477 -0.015488866
000020 3b e8 16 3d 75 3e 1e 3d 8c e5 1c 3d db 03 f1 bb
       0.036842566 0.038633782 0.03830485 -0.007355196
000030 7f 17 f1 3c 56 8e d7 3c 10 36 e6 3c ee 22 ed bc
       0.02943015 0.026312988 0.02810195 -0.02894732
000040 f8 ce 14 3c cb 00 7c 3c 0e 80 8f 39 fe 9a 21 3d
       0.009082548 0.015381048 0.00027370494 0.039454453
000050 54 a7 e0 bb 08 3a d9 bc 3a 2b d2 3c 4c 11 18 3a
       -0.0068558846 -0.02651693 0.025655378 0.0005800917
000060 35 fa fa bc 8a 04 04 3d 3c bd e3 3c 51 45 f7 bc
       -0.030636886 0.03223089 0.027800195 -0.03018442
000070 3e cf 0b 3c 04 34 00 bd 61 30 b4 3c df 43 bd bc
       0.008533297 -0.031299606 0.021995725 -0.023103653
000080 15 4b 28 bb 20 75 a4 bc e4 84 27 bc cb b5 82 3b
       -0.0025679518 -0.02007538 -0.010224555 0.0039889566
000090 2f 41 9b 3c 69 d3 a7 bc 91 39 11 bd 9d 1b 9a 3c
       0.01895198 -0.02048655 -0.03545529 0.018811995
0000a0 66 05 c1 39 53 97 06 3d f6 63 c2 bc 40 23 e5 bc
       0.0003681585 0.032859158 -0.023729306 -0.02797091
0000b0 55 07 96 3c 24 29 f5 3c b7 09 b7 3c 88 13 99 3c
       0.018314043 0.029926844 0.0223435 0.018686071
0000c0 df 83 00 3c 17 ff f4 3c 54 42 ef 3b 16 53 45 bc
       0.0078439405 0.029906793 0.007301608 -0.012043735
0000d0 98 0a 9f 3c c1 15 39 bc 36 94 d2 3c b8 18 10 3d
       0.019414231 -0.01129669 0.025705438 0.035179824
0000e0 b5 17 d1 3c 3c 75 1f bd a2 15 b2 bb 3d e7 b7 3b
       0.025524 -0.038930163 -0.0054347077 0.0056122825
0000f0 3e ef f5 bb 3c cb 33 bc ef 1d 07 3d 08 4a 22 bd
       -0.0075053265 -0.010973748 0.03298753 -0.039621383

bn2.weight f4 [64]
000000 e9 1a 80 3f f8 43 80 3f a0 cb 7e 3f db 60 80 3f
       1.0008212 1.0020742 0.9952946 1.0029558
000010 b9 47 80 3f f5 2c 7f 3f 85 1a 80 3f 0a 28 7e 3f
       1.0021888 0.99677974 1.0008093 0.99279845
000020 70 3a 80 3f 25 35 7f 3f b0 e6 7e 3f 61 0a 80 3f
       1.0017834 0.9969047 0.9957075 1.0003167
000030 32 04 80 3f 29 6c 81 3f ef d6 80 3f e3 0d 80 3f
       1.000128 1.0111133 1.0065593 1.0004238
000040 9f f1 7f 3f 14 3e 7f 3f f2 23 80 3f c3 70 7d 3f
       0.9997806 0.997041 1.001097 0.99000186
000050 0a a3 80 3f e8 a4 80 3f 7b 4c 80 3f 54 bd 7e 3f
       1.0049756 1.0050325 1.002334 0.9950764
000060 50 88 7e 3f 8d 77 80 3f 75 28 7f 3f ea ac 7d 3f
       0.99426746 1.0036484 0.9967111 0.9909197
000070 99 d3 82 3f 1f 6c 80 3f c6 8f 7d 3f 12 40 80 3f
       1.0220824 1.0032996 0.99047506 1.0019553
000080 ab 0a 81 3f e3 e4 7e 3f 44 29 7f 3f ce ee 7f 3f
       1.0081381 0.99568003 0.9967234 0.9997376
000090 e9 90 80 3f 2e 9d 80 3f 26 55 7f 3f 71 ea 7f 3f
       1.0044223 1.0047967 0.997393 0.99967104
0000a0 b9 d2 7d 3f b8 d8 7f 3f 1f 22 7e 3f a6 20 7f 3f
       0.9914966 0.9994006 0.99270815 0.9965919
0000b0 55 1d 7e 3f ba 9c 7f 3f e2 40 80 3f 9c 0b 80 3f
       0.9926351 0.9984852 1.0019801 1.0003543
0000c0 f4 49 7f 3f c8 25 80 3f a0 9a 80 3f 32 2d 7f 3f
       0.9972222 1.001153 1.0047188 0.9967834
0000d0 e6 6a 80 3f bf 02 81 3f 23 8e 80 3f 9c 5b 7e 3f
       1.0032623 1.0078963 1.0043377 0.99358535
0000e0 90 c8 80 3f b1 e1 80 3f 9a d5 7f 3f 1e 04 80 3f
       1.0061207 1.0068876 0.99935305 1.0001256
0000f0 e6 68 7e 3f e4 0f 80 3f 74 26 81 3f 31 b9 7e 3f
       0.9937881 1.000485 1.008986 0.9950133

bn2.bias f4 [64]
000000 dc ed c4 3a 6b 8b c2 3b eb 89 ef 3a 29 c3 65 3b
       0.0015024501 0.00593703 0.0018275356 0.0035058951
000010 22 8d ae 3b 47 90 a9 bb 6c 53 7e 3a 5f 64 ed 3a
       0.005326883 -0.00517467 0.0009701762 0.0018111578
000020 13 9c 8a bb 64 1b 86 3b 7d 3b 0c bb 0f 7a c1 3b
       -0.0042300313 0.0040926207 -0.0021397762 0.005904443
000030 1d 3c 88 3b 50 80 17 3c fe 22 30 ba 8b d2 5e 3a
       0.0041575567 0.009246901 -0.00067190814 0.0008500001
000040 19 50 17 3a 8b a2 e3 ba 55 18 2b 3a 3d 1f 5d bb
       0.00057721284 -0.0017367167 0.0006526758 -0.0033740543
000050 9d 07 02 3c 0d 1b e4 3a 33 ad 38 3b ae 5e 8a 3a
       0.007936385 0.0017403081 0.0028179407 0.0010556781
000060 8d e0 c3 3b a8 8c 23 3b 44 48 48 3b ec 2d 2d bb
       0.0059776963 0.0024955664 0.0030560652 -0.0026425077
000070 5f c0 de 3b 12 2d da 3a f6 98 a5 bb 16 6a ac 3b
       0.0067978348 0.0016645512 -0.0050536348 0.00526167
000080 37 1c 01 3b 62 ba 6e 3b 45 90 d4 3a 82 bd 9d 3b
       0.0019700655 0.003642701 0.0016217312 0.004813851
000090 40 ac 43 3b 63 c8 42 3b 59 fe 8b bb 8c 25 b9 3b
       0.0029857308 0.002972149 -0.004272264 0.005650228
0000a0 de 3a 9f 3a 1e a8 b2 bb 41 ef 73 3a 08 87 89 3b
       0.0012148281 -0.00545217 0.0009305366 0.004197005
0000b0 09 12 35 bb 3f 87 2a 3b 57 83 55 3b 52 32 6b 3b
       -0.0027629158 0.0026020554 0.0032579505 0.0035888148
0000c0 b3 2c 3a bb 07 3d 9b 3a 9a 39 db 3b 9b fa 69 bb
       -0.002840799 0.0011843749 0.0066902163 -0.003570235
0000d0 12 08 1d 3c ab 3d 1b 3c c4 8f fd 3b e0 e3 d4 3a
       0.009584444 0.009475152 0.0077380855 0.0016242228
0000e0 d1 f9 52 3b d3 5c 2e 3b f5 ff be ba dc c1 32 39
       0.003219236 0.002660562 -0.0014572131 0.00017047621
0000f0 e8 ef f0 3a c0 ab b4 3a 10 c0 68 3b 37 cd fd bb
       0.0018382045 0.0013784096 0.0035514869 -0.007745411

bn2.running_mean f4 [64]
000000 3d 1b d2 be eb 1c b5 be a3 02 12 bd 7e 05 97 be
       -0.41036406 -0.35373625 -0.035647046 -0.29496378
000010 8c 36 6c be 5b 21 0e 3e e2 26 62 be 57 d4 bf 3e
       -0.23067683 0.13879912 -0.22085145 0.3746669
000020 c6 fa ce 3e 7f 16 f2 3d 73 fb ef 3c 66 8b 21 bc
       0.404257 0.11820697 0.029294705 -0.009859895
000030 18 a2 91 bd e1 04 da 3d 0f b3 d4 bd 24 d0 21 bf
       -0.07110995 0.10645462 -0.10385715 -0.6320822
000040 f5 f4 0a be 78 91 68 3e 98 a9 97 bd d9 9d 8a 3e
       -0.13570006 0.22711742 -0.07405394 0.27073553
000050 af 3c 22 3e d4 15 0b be f4 e6 6d 3e 2e fe f9 bc
       0.15843461 -0.13582546 0.23232633 -0.03051671
000060 a4 36 92 3e df b8 b8 be e1 e1 3b 3e d0 32 64 bd
       0.28557312 -0.36078545 0.18347885 -0.05571252
000070 b7 e1 ad bd 80 2c a8 be 4c 3f 15 3c 16 a0 b5 bd
       -0.08490317 -0.3284645 0.009109329 -0.088684246
000080 bd d2 01 3d 59 b3 3a be f0 99 88 be 73 bb bd bc
       0.031695116 -0.18232478 -0.26679945 -0.023160672
000090 e4 aa a0 3d d1 d2 38 be ee 64 06 bf 78 a7 b3 3e
       0.07845095 -0.1804917 -0.52497756 0.35088706
0000a0 eb 91 3f 3e 4f e7 fa bd f9 45 5e be 98 6a 8f be
       0.18708007 -0.1225115 -0.2170638 -0.28011012
0000b0 70 2b de 3d 2c d7 31 3e 55 e5 f0 3d fa 5e 1a be
       0.10848129 0.17367238 0.117624916 -0.15075293
0000c0 92 ab ea bd d1 2b 3c 3d 46 7c 40 3e c7 3b dc 3e
       -0.11458506 0.045940224 0.18797407 0.43014356
0000d0 26 af 0d be 0f 98 60 bd a8 8c 7e 3e 49 41 81 3e
       -0.13836345 -0.054832514 0.24858344 0.2524512
0000e0 29 4e b9 bd df b6 6e be 13 1f 68 3e 9d 28 8a be
       -0.09048111 -0.23311947 0.22668104 -0.2698411
0000f0 31 47 ba bd 07 ef e3 3d a9 58 9b be bd 49 28 3e
       -0.0909561 0.11129575 -0.3034108 0.16434379

bn2.running_var f4 [64]
000000 da b3 da 3d 49 a8 35 3e 69 14 b8 3d 89 83 ab 3d
       0.10678835 0.17739977 0.08988268 0.08374698
000010 42 b4 a7 3d b9 8d f5 3d 27 5d 01 3e c2 a0 b0 3d
       0.08188678 0.11989922 0.12633191 0.08624412
000020 df 06 17 3e 7a d6 dd 3d 1f ea 1a 3e a9 17 e8 3d
       0.14748715 0.10831924 0.15128373 0.11332638
000030 9e 61 0f 3e 51 9a 9b 3d 2c 9b f3 3d 00 bf f1 3d
       0.14002082 0.07597793 0.11894831 0.118040085
000040 8c 2e e8 3d 39 65 c6 3d 4f bb 9d 3d 20 88 e6 3d
       0.11337003 0.096872754 0.07701742 0.112564325
000050 f5 22 0c 3e 29 80 7d 3d 25 7d f7 3d 1b c8 db 3d
       0.1368521 0.0618898 0.12084416 0.107315265
000060 32 a7 07 3e 82 a2 12 3e d9 8f c4 3d be 8e fd 3d
       0.13247374 0.14319804 0.09597749 0.123807415
000070 07 61 74 3d 93 1c c1 3d f1 f5 c8 3d 35 61 89 3d
       0.059662845 0.09429278 0.098125346 0.06707994
000080 75 18 a9 3d 77 68 ae 3d 13 7b 01 3e 20 72 96 3d
       0.08256618 0.08516019 0.12644605 0.07345986
000090 c5 bc c3 3d 1d 18 e6 3d 50 7a e7 3d bd 70 d4 3d
       0.09557489 0.11235068 0.11302626 0.103730656
0000a0 c2 f4 fa 3d f5 1a ee 3d 5d 9c b5 3d 53 93 e6 3d
       0.12253715 0.116262354 0.088677146 0.112585686
0000b0 0b 78 95 3d d5 4e b0 3d 08 c9 af 3d 04 e4 f8 3d
       0.07298287 0.08608786 0.085832655 0.121528655
0000c0 83 92 a7 3d 95 cb 92 3d 30 8a 8e 3d 29 95 35 3e
       0.08182242 0.071677364 0.06959951 0.17732681
0000d0 0b 18 93 3d 2d 70 9e 3d 99 d1 e5 3d 3f 0b bd 3d
       0.0718232 0.077362396 0.11221618 0.09230661
0000e0 53 df e6 3d 11 2d c9 3d f6 b5 ca 3d 58 25 ce 3d
       0.112730645 0.09823049 0.098979875 0.100657165
0000f0 a5 f2 e0 3d 14 6c f2 3d a3 ec 03 3e 78 7f 01 3e
       0.10983781 0.118370205 0.12883238 0.12646282

conv3.weight f4 [64, 64, 3, 3]
000000 8b 0f fd bc 32 42 79 3b 64 dc 04 bd 6f e9 da bc
       -0.0308912 0.003803384 -0.032436743 -0.026722638
000010 59 98 9b 3c d2 27 7a 3c c8 cd 11 3c c4 66 2d bc
       0.018993543 0.015268283 0.00889916 -0.010583583
000020 2e 59 0c 3d 8b 2f 93 bc 80 93 23 bd a0 46 5e bc
       0.034264736 -0.017967006 -0.03993559 -0.013566643
000030 52 8e 24 bc 85 7b e2 bc 81 40 f1 3c c6 00 f9 bc
       -0.010043697 -0.02764679 0.029449703 -0.030395877
000040 c6 e7 fc 3c 4e 19 b7 bc 14 36 9b 3c 8c 9d 19 3c
       0.030872237 -0.022350933 0.018946685 0.009375941
000050 2c e4 44 3c 50 05 79 bc f5 04 d9 3c 00 38 f3 3c
       0.012017291 -0.0151990205 0.026491622 0.029689789
000060 73 0f bc 3b 7a 88 59 3c 90 1d 48 3d 29 04 0c bc
       0.0057391464 0.013277167 0.048856318 -0.008545914
000070 21 b9 0b bc 71 86 0e 3c 5d f3 8f bc a4 81 0e bd
       -0.008528025 0.0086990455 -0.0175721 -0.034791604
000080 18 58 16 3d 87 38 34 3c 8a 07 ed 3c a0 44 09 3d
       0.036705106 0.010999805 0.028934259 0.03351271
000090 14 92 07 bd 37 65 bf bc 36 fa 8e bc d0 83 85 3c
       -0.033098295 -0.023363693 -0.017453294 0.016298205
0000a0 63 5d bf bc 8d e0 3b bc 94 b6 54 3b d0 15 57 b8
       -0.02335996 -0.011467111 0.0032457458 -5.128031e-05
0000b0 00 2f f2 3b ac e0 e2 bc 50 48 d4 3b 86 b6 7a 3b
       0.0073908567 -0.027695023 0.006478347 0.0038255765
0000c0 bb bd 0c bd d4 53 de bb cd 7c 1a bc e4 c9 69 bc
       -0.03436063 -0.0067848954 -0.009429169 -0.014269326
0000d0 16 30 b8 3c e4 a4 80 bb 78 28 b4 3c 44 53 23 bb
       0.022483867 -0.0039259065 0.021991953 -0.0024921456
0000e0 13 24 06 bb 68 6a 02 3d c2 5b 85 bc 49 91 ef bc
       -0.002046828 0.03183976 -0.016279105 -0.029244082
0000f0 7c 55 3e 3c f8 76 97 bc 64 c8 60 3c e0 7d 88 bc
       0.011617061 -0.018489346 0.013719652 -0.016661584
000100 de f0 33 3c 44 cd 30 bc ea 6c 22 bd 72 44 90 bc
       0.01098272 -0.010791127 -0.03965465 -0.017610762
000110 6e f0 de bc df 91 0a 3d 2e a0 aa bb 50 dc f5 bc
       -0.027214255 0.03383052 -0.005207083 -0.03001228
000120 f6 ff ae 3c 52 eb f6 3c de a6 a7 3c 4a 6b 5d 3c
       0.021362286 0.030141506 0.02046531 0.013514349
000130 6c e5 95 3c e5 fc b9 3c 3d e4 0a 3c 92 08 0d bd
       0.018297873 0.022703597 0.008477268 -0.034432
000140 f4 e0 04 3c 4d cd 17 bd 7e a6 d8 bb 80 e8 88 3c
       0.008110274 -0.037061024 -0.0066116443 0.016712427
000150 1e d1 9c 3c 50 b6 ea bb 71 54 d9 3b ba 04 23 3d
       0.019142684 -0.0071628466 0.0066323807 0.03979943
000160 4b 03 13 bc 7b cc 21 3d 8c e6 77 bc 84 65 31 3d
       -0.008972953 0.03950165 -0.01513065 0.043309703
000170 98 3c 2b bc 10 ee d2 bc fe 6f 1e 3d 97 e0 01 bb
       -0.010451458 -0.025748283 0.038681023 -0.0019817704
000180 d6 be ce bb 4c c0 81 bc d2 92 1a 3a 78 01 29 bd
       -0.0063093705 -0.015838765 0.0005896512 -0.041261166
000190 a5 77 20 bd b7 24 c5 3b db bc 7e bb 98 f2 aa 3c
       -0.039176602 0.0060163396 -0.003886989 0.02086763
0001a0 9e 95 72 bb c8 e0 ac ba 40 68 18 bd 46 90 c6 bc
       -0.0037015448 -0.0013189549 -0.037208796 -0.024238717
0001b0 73 27 e1 3b ce 61 f7 bc 23 10 8c 39 18 32 34 bc
       0.006871158 -0.030198004 0.00026714904 -0.010998271
0001c0 52 98 80 bc e0 2e be 3b 79 59 9f 3b 7c cd c7 bc
       -0.015697632 0.005803928 0.004862961 -0.024389975
0001d0 b4 37 b5 3b 6f c9 26 bd e7 8c a6 ba 3c fb a0 39
       0.005530322 -0.040719446 -0.0012706787 0.00030704762
0001e0 08 02 0b 3d 43 12 dd 3c 27 f6 da bc 9c 89 71 bc
       0.033937484 0.026986247 -0.026728703 -0.014742281
0001f0 f8 b9 22 bd 25 5c ae bc 35 c2 a1 3c c4 a8 f8 3c
       -0.039728135 -0.021284172 0.019745925 0.030353911
000200 35 8e 8c 3c ed 24 ca 3c d7 a1 05 3d 60 9e 00 3d
       0.017157653 0.02467581 0.032625046 0.03140104
000210 c9 0d 3d bc 5b 03 03 bd 23 23 17 bd 4a 2b 16 3d
       -0.011538931 -0.031985622 -0.036898743 0.036662377
000220 31 c0 db 3c 70 1e 8a 3c 61 68 98 bc 8c 09 27 3d
       0.026825042 0.016860217 -0.01860446 0.04078059
000230 96 0c 80 3c 97 da c6 3c fb fc e0 3b a3 f3 c2 ba
       0.015631001 0.024274154 0.006866095 -0.0014873635
000240 2c 77 52 3a 12 20 8e 3c af ec 31 3a 3b 82 0d bc
       0.0008028622 0.017349277 0.0006787283 -0.008637006
000250 d3 eb ba bc 88 a0 32 3d 9b 05 80 3c aa 49 2a 3c
       -0.022817528 0.043610126 0.015627673 0.010393539
000260 81 23 80 3a 63 8c b7 3b 25 06 17 bd 76 10 78 bc
       0.0009776206 0.005601452 -0.036871094 -0.015140643
000270 a4 71 1c bd b6 23 0e bd b7 28 0b bd 9c b0 3b bd
       -0.038194314 -0.034702025 -0.033974376 -0.045822725
000280 57 16 f5 3c 57 cf 3e bb 4a a7 a9 3b b1 46 f8 bc
       0.029917879 -0.0029115283 0.005177413 -0.030307146
000290 52 12 c5 3c d6 ba bf 3b ec 61 e7 bc 3e c3 94 3c
       0.024056587 0.00585113 -0.028244935 0.018159505
0002a0 90 9f 19 bc 4f a0 05 bd 15 51 c3 bc d6 c9 fe bc
       -0.009376422 -0.032623585 -0.023842374 -0.031102102
0002b0 ab b4 9a ba 88 a8 35 bd f4 ea d8 3c 01 f7 8d bc
       -0.0011803111 -0.044350177 0.026479222 -0.017329695
0002c0 9a 4d 82 bc 52 92 9f 3c 4e cc 0d 3d 5e 91 5d 3a
       -0.015906144 0.01947895 0.03461867 0.00084521424
0002d0 f1 50 a6 3c 8d eb 17 bc 55 30 68 ba 3a 96 6a bc
       0.020302268 -0.009272468 -0.00088572997 -0.014318043
0002e0 45 26 d4 bb d3 0d 9a ba 5d 5a 02 3d 09 a8 2c 3d
       -0.0064742886 -0.0011753388 0.03182446 0.04215244
0002f0 bf fa 0d 3d b4 ff 8c bc 10 ac a8 3c a7 29 4e ba
       0.03466296 -0.017211773 0.020589858 -0.0007864483
000300 62 a5 ea bc 9d 05 61 3c bd 7f ae bc c0 03 0d bc
       -0.028643314 0.0137342485 -0.021301145 -0.008606851
000310 0f d3 16 bd c9 5b 94 3a 96 d8 11 3d 17 cb 0b bd
       -0.036822375 0.0011318858 0.035606943 -0.03412923
000320 5b e3 6f 3c 59 e3 1e bd 0f 43 ed bb 7e 40 ec 3b
       0.014641608 -0.038791034 -0.00724066 0.0072098365
000330 18 19 09 3d 92 4c 8e 3b d1 bd 33 bd 07 0c ff 3c
       0.033471197 0.004342624 -0.043882195 0.031133665
000340 e3 f8 c1 3c 75 36 f7 bc 84 e5 12 bd f5 e7 fd 3b
       0.023678249 -0.030177334 -0.035863414 0.0077485987
000350 e2 fc a0 bc 5e c1 aa bc dc a5 10 bd 61 d9 00 bd
       -0.019651834 -0.020844158 -0.035314426 -0.03145731
000360 77 38 90 bc d3 5f 76 bb 0f 2e eb bc e5 86 9f 3c
       -0.01760505 -0.0037593737 -0.028708486 0.019473502
000370 ab e7 db 3b 32 46 1f bb 2b 92 fd 3b 3a 75 05 bd
       0.0067109666 -0.0024303314 0.007738372 -0.0325825
000380 9b d8 21 3c b8 7c e9 bc 36 14 60 3c d2 0e f4 3c
       0.009878303 -0.028501853 0.013676694 0.029792223
000390 66 d3 1d bd 2f 57 a1 3b d3 7b a7 3c e7 1e 52 ba
       -0.038531683 0.004923723 0.020444786 -0.0008015469
0003a0 c0 7f 90 3c 70 74 aa ba 5b 36 99 bc 71 df 27 3c
       0.017639041 -0.0013004672 -0.018702677 0.010246144
0003b0 ef 13 fd bc 5a 97 04 bd af 1f 0a 3d e1 ee 24 bc
       -0.030893294 -0.032370903 0.033721622 -0.010066719
0003c0 c0 dd 9c bb 81 cd 86 bc fe 6f bf 3c 65 a9 30 bc
       -0.004787177 -0.016455414 0.023368832 -0.010782574
0003d0 f7 a7 0d bc 0b 42 8a 3c 52 d5 5a bc 3c 92 a8 3c
       -0.008646003 0.016877195 -0.013356524 0.020577542
0003e0 d1 4f f1 3b bc 97 b6 3c f5 45 5c 3c ee 31 16 3d
       0.007364251 0.02228915 0.013444413 0.03666871
0003f0 c1 01 fe 3c 4d 61 22 3d 16 3d 88 3b 65 2e 18 3d
       0.031006696 0.039643575 0.0041576726 0.03715362

conv3.bias f4 [64]
000000 1d 1f b1 bc b6 c6 9b bc 9b 19 f3 3c 78 6b 1f 3d
       -0.021621281 -0.019015651 0.029675296 0.03892085
000010 38 7b 22 bd 56 77 b6 bb c5 80 b1 3a e6 d8 14 bd
       -0.03966829 -0.005568425 0.0013542405 -0.036339663
000020 d4 ab be bc d6 f4 38 bc 1b 9c 7c 3c 16 18 0a 3d
       -0.023275293 -0.011288842 0.015418078 0.033714376
000030 e2 3e a7 3c 97 cb 10 3b 92 81 ce bc 81 aa 21 3d
       0.020415727 0.0022094005 -0.025208268 0.039469246
000040 d4 d6 26 3c 01 5a 0b bd 46 96 2b b9 25 a2 08 3a
       0.010183055 -0.03402138 -0.00016363812 0.00052121497
000050 62 48 7b 3b 67 38 7d bc 74 b4 c8 ba d6 99 09 bd
       0.0038342704 -0.015455342 -0.0015312568 -0.033593975
000060 09 47 d2 3c 7c de fc bc 5f 46 82 bc 91 91 b1 3c
       0.025668638 -0.030867808 -0.015902696 0.021675857
000070 75 7d b5 3c 08 a4 ca 3c bd fb 1a bd d1 c5 c2 3c
       0.02215455 0.02473642 -0.037837733 0.023775967
000080 89 7c f2 3c cb a2 26 bc 33 34 86 bb b2 e2 c4 3b
       0.029600399 -0.010170649 -0.004095578 0.0060084695
000090 55 81 9f bc 69 1f 84 bb b7 cf 19 bd 6d 6c da 3c
       -0.01947085 -0.0040320647 -0.037551608 0.02666303
0000a0 ac 3b 9a bc b5 bf 0e 3d 58 46 06 bc 6e a1 b4 3b
       -0.018827282 0.034850795 -0.008195482 0.005512408
0000b0 c7 93 bc 3c 63 d2 23 3d 74 58 09 3d 6a d0 09 39
       0.023019684 0.039995562 0.03353162 0.00013142978
0000c0 2d b5 14 3d c0 e3 3d bc 7c dc f0 3c 91 a0 2e bc
       0.036305595 -0.011589944 0.02940201 -0.010658399
0000d0 d8 d4 29 bd 61 3e fd 3c aa d2 d8 bc 83 ad 77 bc
       -0.04146275 0.030913534 -0.02646764 -0.015117052
0000e0 e2 67 8f 3c 16 82 ef ba 3b f6 25 bd 7d 1a e6 3c
       0.01750559 -0.0018273022 -0.040518027 0.028088802
0000f0 2b d2 c5 3c a3 19 11 3d d5 89 e8 bc 18 62 00 3d
       0.024148067 0.03542484 -0.028386036 0.03134355

bn3.weight f4 [64]
000000 0d 6d 80 3f ae d1 80 3f 7b f1 80 3f 40 13 81 3f
       1.003328 1.0063989 1.0073694 1.0084
000010 94 c5 7f 3f c9 36 80 3f a8 da 80 3f 27 ce 80 3f
       0.99910855 1.0016719 1.0066729 1.0062913
000020 83 97 7e 3f d0 a1 7f 3f 48 c8 7f 3f 57 e9 7f 3f
       0.9944994 0.9985628 0.9991498 0.99965423
000030 cd 2a 81 3f 03 8e 7f 3f b8 5f 7e 3f 49 7a 80 3f
       1.0091187 0.9982607 0.99364805 1.0037318
000040 2d 60 7f 3f 20 07 81 3f bc ed 7e 3f 4b b3 7d 3f
       0.9975613 1.0080299 0.99581504 0.99101704
000050 4f 3a 80 3f e7 05 80 3f 95 bd 80 3f 7d 81 7f 3f
       1.0017794 1.0001801 1.0057856 0.9980696
000060 a3 b5 7f 3f 71 ca 7e 3f 34 87 7e 3f 62 fe 80 3f
       0.9988653 0.9952765 0.99425054 1.0077631
000070 f6 bd 7e 3f f3 b3 80 3f a7 77 7f 3f f3 2a 7f 3f
       0.9950861 1.0054916 0.9979195 0.9967491
000080 e7 a3 7f 3f 8f 7b 80 3f bb ad 7f 3f c9 44 80 3f
       0.9985947 1.0037707 0.99874467 1.0020992
000090 58 08 7e 3f e4 58 80 3f c6 52 80 3f 6a 94 7e 3f
       0.9923148 1.0027127 1.002526 0.9944521
0000a0 8d 0c 7f 3f 10 93 7e 3f c7 d5 7f 3f 5a be 7f 3f
       0.99628526 0.9944315 0.99935573 0.9989983
0000b0 5f ff 7d 3f 46 c2 80 3f 37 94 80 3f e4 01 81 3f
       0.9921779 1.0059288 1.0045232 1.0078702
0000c0 4d 59 80 3f 45 4a 80 3f 1e 03 81 3f 2e 87 7f 3f
       1.0027252 1.0022665 1.0079076 0.9981564
0000d0 1a f1 7f 3f 79 54 80 3f 2a 1b 7f 3f 89 b1 7f 3f
       0.99977267 1.0025779 0.99650824 0.9988027
0000e0 a0 d8 7f 3f 1c c7 7e 3f d5 29 7f 3f 52 7e 80 3f
       0.9993992 0.99522567 0.99673206 1.003855
0000f0 10 cc 7d 3f 11 48 7f 3f 34 6a 80 3f 54 08 7f 3f
       0.991395 0.9971934 1.0032411 0.9962208

bn3.bias f4 [64]
000000 e4 4a ee 3b a1 8e fd 3b e3 94 00 3c 23 0d ea 3b
       0.0072721113 0.00773795 0.007847997 0.0071426793
000010 5d 50 6d 3b fd 84 a2 3b 6e 12 e0 3b 6a 2f e3 3b
       0.003621123 0.004959701 0.0068381345 0.0069331424
000020 69 3a 97 bb ef 09 30 bb 84 2d 45 3a 4c af 09 3c
       -0.0046151173 -0.002686139 0.0007521736 0.00840361
000030 cf f5 9d 3b 9f 95 1b ba ca b9 bc 3a 86 1d 24 3c
       0.0048205624 -0.0005935076 0.0014398631 0.010016805
000040 8d a1 0a bb da dc 69 3c 58 37 7a 3b c9 37 30 bb
       -0.002115342 0.0142738465 0.003817996 -0.002688872
000050 49 33 be 3a b6 74 16 3c ea c7 f3 3b cc 43 2e bb
       0.0014511134 0.0091830995 0.007439603 -0.0026590703
000060 90 8a 6f 3a 8c 3a 9d bb e8 fc 5e 3b ca cf 31 ba
       0.0009137774 -0.004798239 0.0034025256 -0.0006782977
000070 63 fa 32 bb 31 c3 b3 3b 46 ae 17 3c 3f 5e 32 b9
       -0.0027309887 0.005485915 0.009257859 -0.00017010512
000080 68 71 c6 3b 4b 2f 5b bb 21 63 90 bb fb 35 68 3b
       0.0060559995 -0.0033444937 -0.0044063483 0.0035432565
000090 ef 51 f1 ba 9a 1e 0a 3c 13 0f 80 bb 29 ab c6 3a
       -0.0018411259 0.008430148 -0.003908047 0.0015157211
0000a0 09 4f 81 3b 65 81 82 bb 5f 05 e2 b9 58 25 3b bb
       0.0039461893 -0.00398271 -0.0004311008 -0.0028556194
0000b0 84 09 26 bc f0 3b c4 3b c3 6c bb 3a 76 12 bf 3b
       -0.010134105 0.0059885904 0.0014299381 0.005831058
0000c0 84 d2 cf 3b ee bb 26 3b 7b f1 66 3b 32 18 e2 37
       0.006342234 0.0025441605 0.0035239148 2.6952566e-05
0000d0 6e e7 2b 3b a7 ba 9c 3a 2b 00 a7 3b af 29 ef 39
       0.0026230472 0.0011957482 0.0050964556 0.0004561669
0000e0 f1 0e db 38 a9 0e 03 bc 06 05 61 bb fd 4a ce 3b
       0.00010445517 -0.007999101 -0.003433527 0.0062955604
0000f0 c7 b7 03 3b 8e f8 9a bb c8 69 f2 3b 55 18 b5 bb
       0.0020098554 -0.004729337 0.007397864 -0.0055265822

bn3.running_mean f4 [64]
000000 d6 80 fb 3d 75 66 e7 be 57 7f 48 be 88 65 f0 bd
       0.12280433 -0.45195356 -0.19579826 -0.117381155
000010 07 18 4a bd b0 0e 65 be ab cc db 3e b5 fc d4 3d
       -0.04933932 -0.22368884 0.42929587 0.103997625
000020 e4 dd cb 3e e9 21 b8 bd b1 ac 23 3e 5f 6b db 3d
       0.39817727 -0.08990843 0.15983845 0.10713839
000030 90 c2 73 be 74 59 d6 3d 86 1c 03 be c6 37 76 be
       -0.23804688 0.104662806 -0.1280385 -0.24044713
000040 bb b8 94 3d 70 e9 9d be 50 4a 83 bd 72 b8 90 3e
       0.07261797 -0.3084216 -0.06410658 0.2826572
000050 bf c2 69 be 91 37 30 be 7c b0 61 bd 30 15 bd bd
       -0.22828196 -0.17208697 -0.05509995 -0.09232557
000060 bf 8e 88 be f6 ec 59 3e 3f 2b ac be 1b 2c 68 be
       -0.26671407 0.212818 -0.33626744 -0.22673075
000070 69 3f 0d 3e 47 09 12 be af b1 e9 bd ca 1b 33 bd
       0.1379372 -0.14261352 -0.114108436 -0.043727674
000080 35 17 c3 3d b5 90 50 3e 60 a8 64 3e 9f c4 2b 3d
       0.09525911 0.20367701 0.22329855 0.04193556
000090 7e e2 b0 be cb 97 1c be 9a 67 01 bd 7d 9d c1 3d
       -0.345478 -0.1529228 -0.031592943 0.09453867
0000a0 f7 6a 01 3f d9 34 89 3e dc ac 61 be 5d 82 a9 3c
       0.5055384 0.26798132 -0.22038597 0.020692045
0000b0 7f 04 a2 3d 3e 71 40 be 96 a2 3b 3e 92 67 3c be
       0.07911014 -0.18793198 0.1832374 -0.18398884
0000c0 d0 fe 19 3d 4b d9 38 be 7b 3b 56 3e 42 13 c1 be
       0.037596524 -0.1805164 0.20921127 -0.37710005
0000d0 e2 e6 45 be 78 0a 06 be ae 0e 87 bc 4a 8e be 3c
       -0.19326356 -0.13089931 -0.016486492 0.023261208
0000e0 af 62 43 be fb d7 86 3d 39 9e aa bd 03 31 4d be
       -0.19080614 0.06584164 -0.0833096 -0.20038228
0000f0 c7 f6 52 3e 76 75 84 bd 67 51 96 3c 61 1e 52 3e
       0.2060195 -0.064677164 0.018349363 0.20519401

bn3.running_var f4 [64]
000000 a9 c2 af 3d 9a a4 b5 3d e6 cf 8a 3d ee d4 ac 3d
       0.0858205 0.08869286 0.06777935 0.084390506
000010 15 c8 bb 3d b3 a5 c7 3d 90 33 18 3e 8c 53 e3 3d
       0.09169022 0.097484015 0.1486342 0.1109992
000020 0b fa 16 3e aa 1a e6 3d a5 ff bd 3d 5d f6 d8 3d
       0.14743821 0.112355545 0.09277276 0.10593865
000030 91 b9 a7 3d 07 c5 ff 3d 0a 0b c0 3d b0 55 d4 3d
       0.08189691 0.12488752 0.093771055 0.10367906
000040 c5 a5 b7 3d 77 46 d9 3d 31 00 d8 3d 14 69 3c 3e
       0.08967165 0.10609143 0.105469115 0.18399459
000050 85 57 03 3e 55 04 e7 3d d6 78 da 3d 45 9c e3 3d
       0.12826355 0.11280123 0.10667579 0.111137904
000060 4f 51 f1 3d d5 3b c9 3d ec 00 f9 3d c0 ba bd 3d
       0.117830865 0.09825865 0.12158379 0.09264135
000070 f1 00 22 3e d2 6b 09 3e 04 0a cb 3d 69 c0 dc 3d
       0.15820672 0.13420036 0.0991402 0.10778887
000080 05 ff b2 3d 66 32 09 3e e7 14 93 3d 2c a4 b5 3d
       0.08740047 0.13398132 0.07181721 0.08869204
000090 d8 68 b9 3d 07 79 0a 3e 2d 9e 85 3d e4 64 a2 3d
       0.090532005 0.13522731 0.0652431 0.079293996
0000a0 7c 5a 12 3e 74 b1 f0 3d 33 cb eb 3d 50 c6 bd 3d
       0.1429233 0.117525965 0.115133666 0.09266341
0000b0 30 ce ee 3d 38 1d d8 3d d4 1e e0 3d 89 89 e4 3d
       0.11660421 0.10552448 0.1094338 0.11159045
0000c0 f2 80 09 3e 2d 5f ea 3d d9 f0 c0 3d 27 99 e8 3d
       0.13428095 0.114439346 0.09420938 0.113573365
0000d0 da 81 10 3e c1 b1 d5 3d 1a 55 e1 3d 74 1b d4 3d
       0.14112034 0.104342945 0.1100256 0.10356799
0000e0 4e e3 d5 3d c0 b1 f1 3d 7c 50 01 3e ed c2 20 3e
       0.104437456 0.11801481 0.12628359 0.15699358
0000f0 1e 48 af 3d 5b 76 b6 3d ab ec be 3d c6 23 e6 3d
       0.08558677 0.08909293 0.093224846 0.11237292
