v2/models/recent/resnet_v2_64_2.pth (torch, 963990 bytes, 39 tensors)

conv1.weight f4 [64, 3, 3, 3]
000000 5f a0 33 3e 5b ef 35 3e 9b 30 22 3e c4 eb 3c 3d
       0.17541645 0.17767088 0.15838854 0.04612328
000010 34 5e 40 be bf d3 2b 3e 03 54 25 3e 02 a9 d2 3d
       -0.18785936 0.16779993 0.16145329 0.10286142
000020 8f 2a 14 3e f1 3a 1f 3e c6 1e e0 3d 71 e7 23 3e
       0.1446936 0.15549828 0.109433696 0.16006257
000030 70 c9 03 3c ab 9f e0 bd f7 01 07 3e 3a c3 2a be
       0.008043632 -0.10967954 0.13184343 -0.16676036
000040 a0 86 5f bd 5c d0 0a 3d 30 50 5e bc 00 c2 e0 39
       -0.054571748 0.033890113 -0.013568923 0.0004286915
000050 71 99 2a 3e 7e af 44 be ca 4c b9 3d c9 ce e6 bd
       0.16660096 -0.1920757 0.090478495 -0.1126991
000060 b0 24 a6 3c 00 1b f6 3b e0 c4 e9 bb 40 00 80 3c
       0.020281166 0.007510543 -0.007134065 0.01562512
000070 81 bf 9e bd 4c c9 d9 bd b6 01 c3 3d 19 ec 3c 3e
       -0.0775137 -0.106340975 0.09521811 0.18449439
000080 85 9a 8e bd 54 8e 30 3d a0 ef 08 bd e4 34 93 bd
       -0.06963066 0.043104485 -0.03343165 -0.071878225
000090 00 34 5a 3c dc 1e 17 be 00 d2 af 3a 10 18 46 bd
       0.013318062 -0.14757866 0.0013414025 -0.04836279
0000a0 a0 e5 37 bc fe 58 0e be a4 97 e5 bd 00 49 24 bc
       -0.01122418 -0.13901135 -0.11210564 -0.01002717
0000b0 84 fb 3b bd e8 06 ae bc 2a b2 2d be bc 99 3c 3d
       -0.04589416 -0.021243528 -0.16962495 0.04604505
0000c0 a0 cf b7 bc 1a 92 92 3d 42 8d 9a 3d 60 91 2c 3c
       -0.02243787 0.07156773 0.07546474 0.010532707
0000d0 ea 40 cd 3d 67 8f c7 bd 98 bd 2d bd 44 00 0f 3d
       0.10022147 -0.09744149 -0.04241714 0.034912363
0000e0 a0 ef 0c bd 20 5c 8c 3b 32 54 8d bd 14 0d 73 3d
       -0.03440821 0.004283443 -0.069008246 0.059338644
0000f0 b6 e5 19 be e0 f7 a8 bb ef b2 01 3e d7 d8 94 bd
       -0.15029034 -0.005156502 0.12665914 -0.072679214
000100 0a fb e4 3d b8 01 23 bd e9 eb 2a 3e 6a 3a 94 3d
       0.111806944 -0.03979656 0.16691555 0.07237704
000110 4c d1 b4 bd ac 49 7a 3d f5 11 a4 bd c0 7a 45 bb
       -0.08828983 0.061105415 -0.080112375 -0.003013298
000120 45 c7 0f be e3 e4 11 3e 79 be 37 3e 38 1d ed 3c
       -0.14040859 0.1424747 0.17943753 0.028944597
000130 35 72 3d 3e 9e 44 d5 3d 71 a0 1b 3e b3 7f c2 bd
       0.18500598 0.10413478 0.15197922 -0.09497013
000140 98 14 a3 bc 7e b3 c3 3d fe aa f9 3d 33 7c f4 bd
       -0.01990728 0.0955572 0.12190817 -0.119377516
000150 50 17 5b bd 12 41 9e 3d f5 96 bc bd 80 99 07 3d
       -0.05348903 0.07727255 -0.0920848 0.033105373
000160 3b 71 36 be 82 b7 d0 3d 48 48 60 bd 5a 84 1e be
       -0.17816631 0.10191251 -0.054756433 -0.15480176
000170 fb 05 40 3e 8f 1a 01 3e ef 39 eb bd 34 51 6f 3d
       0.18752281 0.12607788 -0.11485659 0.05842705
000180 80 3d a1 bc f3 e5 0b 3e c9 3d 3e be a7 30 03 3e
       -0.019682646 0.13661937 -0.18578257 0.12811528
000190 81 96 bb bd d4 2f 1e be c3 f5 11 3e e0 12 d2 bc
       -0.09159566 -0.15447932 0.14253907 -0.025643766
0001a0 eb a7 c0 bd 12 7b c6 bd 23 6d 05 3e f2 4b dc 3d
       -0.09407028 -0.096914425 0.13029914 0.10756673
0001b0 c2 71 bf 3d 02 a2 06 be eb 1f 2a be fa 8d 8e 3d
       0.093478695 -0.13147739 -0.16613738 0.06960674
0001c0 48 d5 3d 3d ec ba d9 bd f3 6c 2d 3e f0 2b c3 3c
       0.04634598 -0.10631356 0.16936092 0.023824662
0001d0 d7 04 1b be ac d2 18 bd c9 5e 22 3e ed 21 17 3e
       -0.15138565 -0.037310287 0.1585647 0.14759035
0001e0 40 8f be bc 83 f5 43 3e 63 32 8f bd a3 66 c3 bd
       -0.023261666 0.19136624 -0.069920324 -0.09541061
0001f0 5c bc 1a be 9f 1c d9 bd 96 a9 fc bd 9c 5f 66 3d
       -0.15110916 -0.10601162 -0.123370335 0.056243524
000200 cd a8 92 bd 39 7b 35 3e 8a b5 91 3d 73 53 a4 bd
       -0.071611024 0.17722787 0.07114704 -0.08023729
000210 da 6e 99 3d bd de 0f be 2e 22 ac 3d 06 05 8a 3d
       0.074918464 -0.14049812 0.08404957 0.067392394
000220 20 d2 ef bb a2 2b f9 3d 11 16 38 3e 36 5a c1 bd
       -0.00731875 0.121665254 0.17977168 -0.094410345
000230 20 74 65 3d eb 67 27 3e 38 65 f0 bc dd fd 39 3e
       0.05601895 0.16348235 -0.02934514 0.18163247
000240 a0 ce ee 3b d5 87 1f 3e 3a 28 94 3d 6f 7f 06 3e
       0.007287815 0.1557916 0.07234235 0.1313455
000250 99 91 0a be 20 a6 63 bc 72 4b 82 3d 8c a5 34 3d
       -0.13532104 -0.013894588 0.06362046 0.04410319
000260 13 d3 e9 bd 8a 12 dd 3d 02 63 2d be 52 41 2f be
       -0.11417212 0.10794552 -0.169323 -0.17114761
000270 79 c9 01 3e c9 1b fc bd 8d 1a 25 3e 30 11 b3 3c
       0.12674512 -0.12309987 0.1612341 0.021858782
000280 99 95 15 3e 60 95 2c 3c ec 18 50 3d 70 d0 4e 3c
       0.14607848 0.010533661 0.050805017 0.012622938
000290 e9 9c 06 3e b4 c8 08 3d e0 47 7c bd 8d 4c d7 bd
       0.13145794 0.03339453 -0.061591983 -0.10512648
0002a0 ad ab 37 3e 06 0a fe 3d 3a 62 e6 3d 11 77 3f 3e
       0.17936583 0.124042556 0.11249204 0.18697764
0002b0 a2 1a ca bd 30 96 2e be f1 d7 11 3e d4 ef 11 3d
       -0.09868361 -0.1704948 0.14242531 0.03562911
0002c0 b8 44 fd bc 85 77 0b 3e e9 51 8d bd 9e d0 c4 3d
       -0.030916557 0.13619812 -0.06900389 0.09610103
0002d0 f6 30 e9 bd 5e f1 b5 3d 20 96 04 3c e8 fe 77 bd
       -0.11386292 0.08883928 0.008092433 -0.060545832
0002e0 74 4e 68 bd de e5 f7 3d c3 4e 33 3e 0a fe f7 bd
       -0.056715444 0.121043906 0.17510514 -0.12109001
0002f0 1e 2d 0c be 6e 19 cc bd 28 dc c9 bc 0e ba ee bd
       -0.13689086 -0.09965788 -0.024641111 -0.11656581
000300 30 4e 0a 3c 64 c1 5a bd 50 ca 36 3d c1 b4 09 3e
       0.008441493 -0.053407088 0.044626534 0.13447858
000310 60 f2 43 3c 5e f8 c8 3d ca 6a 8e 3d d8 ff 3d bd
       0.011959642 0.09812997 0.06953962 -0.04638657
000320 28 f8 a9 bc 75 65 1e 3e f1 c6 04 3e 1d 07 1c 3e
       -0.020748213 0.1546839 0.12966515 0.15237089
000330 0e 0f b9 bd 9d 59 44 be b8 0c 2d 3d f6 c8 ad 3d
       -0.090360746 -0.1917481 0.042248458 0.08485596
000340 16 dc d8 3d e7 07 16 3e 92 5a e8 bd 8c 9a 80 bd
       0.10588853 0.14651452 -0.113454 -0.062794775
000350 18 ae d4 3c cd c5 36 be cc 61 c2 bd 18 1f e5 3c
       0.02596192 -0.17848893 -0.094913095 0.027968928
000360 23 92 0e be d4 48 74 bd 68 66 4e bd cc 61 35 be
       -0.13922934 -0.059639767 -0.05039063 -0.17713088
000370 2d a0 15 3e 2f ad 18 3e 3d 1e 04 3e 2e 9c 8b 3d
       0.14611883 0.14909814 0.1290216 0.06816898
000380 d0 8d 68 bd a6 50 cc 3d 78 3a 8a 3c d0 ca c9 bd
       -0.056775868 0.0997632 0.016873583 -0.098531365
000390 da b2 e6 3d 6a 74 b6 3d 96 79 84 3d b8 aa 8c bc
       0.11264582 0.08908923 0.06468503 -0.017171249
0003a0 bd 5b 44 3e 39 4f 2b 3e 94 0e 37 3d f8 44 ca 3c
       0.1917562 0.1672944 0.044691637 0.02469109
0003b0 7f 2d 17 3e 3a b6 3f be ec e4 70 3d 0d d9 ee bd
       0.14763449 -0.18721858 0.058812067 -0.11662493
0003c0 10 fb ef bc be 55 a6 3d 7d 62 1e 3e 70 bf f4 bc
       -0.02929452 0.08121823 0.15467258 -0.02987644
0003d0 1f c8 39 3e e8 c4 d2 3c 70 1b 08 be 81 1c 1e 3e
       0.18142746 0.025728658 -0.13291717 0.15440561
0003e0 f6 ce cd 3d 21 e3 fe bd 32 2d f4 bd 12 94 bf 3d
       0.1004924 -0.12445665 -0.11922683 0.09354414
0003f0 9a 79 1e be 5a 88 a1 3d c0 be 4f 3b c5 58 2b be
       -0.15476075 0.07887335 0.003169939 -0.16733082

conv1.bias f4 [64]
000000 9a f0 a3 bd cb ae 37 be 8a 23 1b be 31 99 07 be
       -0.080048755 -0.17937772 -0.15150276 -0.13242032
000010 ea c8 cf 3d 9f f5 12 3e 40 a8 ba 3c e0 e2 2c 3d
       0.10145743 0.1435151 0.022785306 0.042208552
000020 17 57 22 3e f3 0d 3b be f8 28 91 bd 50 a5 d6 bc
       0.15853535 -0.1826704 -0.07087892 -0.026201874
000030 2f fc da bd 41 0f fe bd db fe f5 bd b8 e6 a6 3c
       -0.106926315 -0.12405253 -0.120115004 0.020373687
000040 0c d2 76 3d 8f bd e6 bd 66 44 f9 bd 58 6e 86 bd
       0.06025891 -0.11266624 -0.12171249 -0.06564015
000050 18 18 e3 bd 14 43 bb bd 2f fb 01 3e c3 24 03 be
       -0.1108858 -0.091436535 0.12693475 -0.12806992
000060 cd 2d 14 be 7a 41 99 bd 3a d9 14 be 2a 08 8c 3d
       -0.14470597 -0.07483192 -0.1453599 0.06837495
000070 80 32 cd ba 82 78 8f 3d 00 18 37 bc df d2 43 3e
       -0.0015655309 0.07005407 -0.011175156 0.1912341
000080 e0 3f 83 bc f1 f5 0b 3e e4 43 c3 bd 53 49 3b be
       -0.016021669 0.13668038 -0.095344335 -0.1828969
000090 27 92 16 be 3d ee 17 3e f2 fe f5 3d f4 fb 74 bd
       -0.1470419 0.14836974 0.120115176 -0.059810594
0000a0 d8 0f 9f 3c f7 de 39 be 14 c6 2f bd d6 04 8a bd
       0.019416735 -0.1815146 -0.04291351 -0.06739204
0000b0 00 69 36 be 0d d7 35 3e ba ae 8d 3d 56 a4 88 3d
       -0.17813492 0.17757817 0.06918092 0.066719696
0000c0 b2 f4 d9 bd ff e4 36 be a0 0a 97 3c c1 35 9d bd
       -0.10642375 -0.17860793 0.018437684 -0.07676268
0000d0 7d df e2 bd e2 0d 89 3d ea a0 89 3d 58 b9 33 be
       -0.11077783 0.06692101 0.06720145 -0.17551172
0000e0 95 9e 27 3e 6e 24 aa 3d 0c ce 77 bd ee 9f a5 bd
       0.16369088 0.0830773 -0.060499236 -0.08087145
0000f0 8f b3 31 3e 80 be ec ba b8 b7 ea 3c 79 07 0a be
       0.17353652 -0.0018062145 0.028652057 -0.13479413

bn2d_1.weight f4 [64]
000000 00 00 80 3f 00 00 80 3f 00 00 80 3f 00 00 80 3f
       1.0 1.0 1.0 1.0
000010 00 00 80 3f 00 00 80 3f 00 00 80 3f 00 00 80 3f
       1.0 1.0 1.0 1.0
000020 00 00 80 3f 00 00 80 3f 00 00 80 3f 00 00 80 3f
       1.0 1.0 1.0 1.0
000030 00 00 80 3f 00 00 80 3f 00 00 80 3f 00 00 80 3f
       1.0 1.0 1.0 1.0
000040 00 00 80 3f 00 00 80 3f 00 00 80 3f 00 00 80 3f
       1.0 1.0 1.0 1.0
000050 00 00 80 3f 00 00 80 3f 00 00 80 3f 00 00 80 3f
       1.0 1.0 1.0 1.0
000060 00 00 80 3f 00 00 80 3f 00 00 80 3f 00 00 80 3f
       1.0 1.0 1.0 1.0
000070 00 00 80 3f 00 00 80 3f 00 00 80 3f 00 00 80 3f
       1.0 1.0 1.0 1.0
000080 00 00 80 3f 00 00 80 3f 00 00 80 3f 00 00 80 3f
       1.0 1.0 1.0 1.0
000090 00 00 80 3f 00 00 80 3f 00 00 80 3f 00 00 80 3f
       1.0 1.0 1.0 1.0
0000a0 00 00 80 3f 00 00 80 3f 00 00 80 3f 00 00 80 3f
       1.0 1.0 1.0 1.0
0000b0 00 00 80 3f 00 00 80 3f 00 00 80 3f 00 00 80 3f
       1.0 1.0 1.0 1.0
0000c0 00 00 80 3f 00 00 80 3f 00 00 80 3f 00 00 80 3f
       1.0 1.0 1.0 1.0
0000d0 00 00 80 3f 00 00 80 3f 00 00 80 3f 00 00 80 3f
       1.0 1.0 1.0 1.0
0000e0 00 00 80 3f 00 00 80 3f 00 00 80 3f 00 00 80 3f
       1.0 1.0 1.0 1.0
0000f0 00 00 80 3f 00 00 80 3f 00 00 80 3f 00 00 80 3f
       1.0 1.0 1.0 1.0

bn2d_1.bias f4 [64]
000000 00 00 00 00 00 00 00 00 00 00 00 00 00 00 00 00
       0.0 0.0 0.0 0.0
000010 00 00 00 00 00 00 00 00 00 00 00 00 00 00 00 00
       0.0 0.0 0.0 0.0
000020 00 00 00 00 00 00 00 00 00 00 00 00 00 00 00 00
       0.0 0.0 0.0 0.0
000030 00 00 00 00 00 00 00 00 00 00 00 00 00 00 00 00
       0.0 0.0 0.0 0.0
000040 00 00 00 00 00 00 00 00 00 00 00 00 00 00 00 00
       0.0 0.0 0.0 0.0
000050 00 00 00 00 00 00 00 00 00 00 00 00 00 00 00 00
       0.0 0.0 0.0 0.0
000060 00 00 00 00 00 00 00 00 00 00 00 00 00 00 00 00
       0.0 0.0 0.0 0.0
000070 00 00 00 00 00 00 00 00 00 00 00 00 00 00 00 00
       0.0 0.0 0.0 0.0
000080 00 00 00 00 00 00 00 00 00 00 00 00 00 00 00 00
       0.0 0.0 0.0 0.0
000090 00 00 00 00 00 00 00 00 00 00 00 00 00 00 00 00
       0.0 0.0 0.0 0.0
0000a0 00 00 00 00 00 00 00 00 00 00 00 00 00 00 00 00
       0.0 0.0 0.0 0.0
0000b0 00 00 00 00 00 00 00 00 00 00 00 00 00 00 00 00
       0.0 0.0 0.0 0.0
0000c0 00 00 00 00 00 00 00 00 00 00 00 00 00 00 00 00
       0.0 0.0 0.0 0.0
0000d0 00 00 00 00 00 00 00 00 00 00 00 00 00 00 00 00
       0.0 0.0 0.0 0.0
0000e0 00 00 00 00 00 00 00 00 00 00 00 00 00 00 00 00
       0.0 0.0 0.0 0.0
0000f0 00 00 00 00 00 00 00 00 00 00 00 00 00 00 00 00
       0.0 0.0 0.0 0.0

bn2d_1.running_mean f4 [64]
000000 00 00 00 00 00 00 00 00 00 00 00 00 00 00 00 00
       0.0 0.0 0.0 0.0
000010 00 00 00 00 00 00 00 00 00 00 00 00 00 00 00 00
       0.0 0.0 0.0 0.0
000020 00 00 00 00 00 00 00 00 00 00 00 00 00 00 00 00
       0.0 0.0 0.0 0.0
000030 00 00 00 00 00 00 00 00 00 00 00 00 00 00 00 00
       0.0 0.0 0.0 0.0
000040 00 00 00 00 00 00 00 00 00 00 00 00 00 00 00 00
       0.0 0.0 0.0 0.0
000050 00 00 00 00 00 00 00 00 00 00 00 00 00 00 00 00
       0.0 0.0 0.0 0.0
000060 00 00 00 00 00 00 00 00 00 00 00 00 00 00 00 00
       0.0 0.0 0.0 0.0
000070 00 00 00 00 00 00 00 00 00 00 00 00 00 00 00 00
       0.0 0.0 0.0 0.0
000080 00 00 00 00 00 00 00 00 00 00 00 00 00 00 00 00
       0.0 0.0 0.0 0.0
000090 00 00 00 00 00 00 00 00 00 00 00 00 00 00 00 00
       0.0 0.0 0.0 0.0
0000a0 00 00 00 00 00 00 00 00 00 00 00 00 00 00 00 00
       0.0 0.0 0.0 0.0
0000b0 00 00 00 00 00 00 00 00 00 00 00 00 00 00 00 00
       0.0 0.0 0.0 0.0
0000c0 00 00 00 00 00 00 00 00 00 00 00 00 00 00 00 00
       0.0 0.0 0.0 0.0
0000d0 00 00 00 00 00 00 00 00 00 00 00 00 00 00 00 00
       0.0 0.0 0.0 0.0
0000e0 00 00 00 00 00 00 00 00 00 00 00 00 00 00 00 00
       0.0 0.0 0.0 0.0
0000f0 00 00 00 00 00 00 00 00 00 00 00 00 00 00 00 00
       0.0 0.0 0.0 0.0

bn2d_1.running_var f4 [64]
000000 00 00 80 3f 00 00 80 3f 00 00 80 3f 00 00 80 3f
       1.0 1.0 1.0 1.0
000010 00 00 80 3f 00 00 80 3f 00 00 80 3f 00 00 80 3f
       1.0 1.0 1.0 1.0
000020 00 00 80 3f 00 00 80 3f 00 00 80 3f 00 00 80 3f
       1.0 1.0 1.0 1.0
000030 00 00 80 3f 00 00 80 3f 00 00 80 3f 00 00 80 3f
       1.0 1.0 1.0 1.0
000040 00 00 80 3f 00 00 80 3f 00 00 80 3f 00 00 80 3f
       1.0 1.0 1.0 1.0
000050 00 00 80 3f 00 00 80 3f 00 00 80 3f 00 00 80 3f
       1.0 1.0 1.0 1.0
000060 00 00 80 3f 00 00 80 3f 00 00 80 3f 00 00 80 3f
       1.0 1.0 1.0 1.0
000070 00 00 80 3f 00 00 80 3f 00 00 80 3f 00 00 80 3f
       1.0 1.0 1.0 1.0
000080 00 00 80 3f 00 00 80 3f 00 00 80 3f 00 00 80 3f
       1.0 1.0 1.0 1.0
000090 00 00 80 3f 00 00 80 3f 00 00 80 3f 00 00 80 3f
       1.0 1.0 1.0 1.0
0000a0 00 00 80 3f 00 00 80 3f 00 00 80 3f 00 00 80 3f
       1.0 1.0 1.0 1.0
0000b0 00 00 80 3f 00 00 80 3f 00 00 80 3f 00 00 80 3f
       1.0 1.0 1.0 1.0
0000c0 00 00 80 3f 00 00 80 3f 00 00 80 3f 00 00 80 3f
       1.0 1.0 1.0 1.0
0000d0 00 00 80 3f 00 00 80 3f 00 00 80 3f 00 00 80 3f
       1.0 1.0 1.0 1.0
0000e0 00 00 80 3f 00 00 80 3f 00 00 80 3f 00 00 80 3f
       1.0 1.0 1.0 1.0
0000f0 00 00 80 3f 00 00 80 3f 00 00 80 3f 00 00 80 3f
       1.0 1.0 1.0 1.0

layers.0.conv1.weight f4 [64, 64, 3, 3]
000000 90 57 4b 3b 84 d3 0b 3c 4e 59 99 3c 18 73 c6 bc
       0.0031027533 0.008534316 0.018719342 -0.024224803
000010 86 a0 e2 bc d6 55 29 bd 70 07 04 bd 0b 79 2a 3d
       -0.027664434 -0.041341625 -0.032233655 0.04161934
000020 de f0 aa 3c a0 05 a6 bb 98 56 bd bc 1e 33 87 3c
       0.020866808 -0.0050665885 -0.02311258 0.016503867
000030 f8 de 95 3c 6e 3e d1 bc 6f f7 0e 3d af 7f 0a bd
       0.018294796 -0.025542464 0.03490394 -0.033813175
000040 f8 9d b0 bb 00 78 e8 3b c0 eb 8c 3b 73 58 fb bc
       -0.005389925 0.0070943832 0.0043005645 -0.030681824
000050 82 72 a3 3c 43 7b d7 bc bc 88 5e 3c 43 32 d5 bc
       0.019952063 -0.026303893 0.013582405 -0.026024943
000060 f0 db 24 bb 30 c2 5d bb e9 78 02 3d 20 07 f3 bc
       -0.0025155507 -0.0033837669 0.03185359 -0.029666483
000070 d8 16 d5 bb d0 1b 0e bd e4 44 00 bc a4 78 17 bd
       -0.0065029673 -0.034694493 -0.007828925 -0.036980286
000080 be c7 8b bc 39 4d 24 3d 01 39 27 3d 40 49 b1 bb
       -0.017063018 0.040112708 0.040825848 -0.0054103434
000090 36 1b ce 3c 4e bf 0e bd 40 46 bd 3b b0 ac 98 bc
       0.02515946 -0.03485041 0.0057761967 -0.018637031
0000a0 c0 a9 c1 bc c2 da b7 3c b6 4c cb bc 2e 5b 98 3c
       -0.023640513 0.022443179 -0.024816852 0.018598165
0000b0 b8 7d dc 3b f8 13 c5 bb ca 1f 8c 3c c8 af 84 bb
       0.006728854 -0.0060143434 0.017105002 -0.004049275
0000c0 98 be ec bb d8 b9 9f bb 96 be b0 bc eb 9c d9 bc
       -0.007224869 -0.004874449 -0.021575253 -0.026564082
0000d0 ea 5d cf 3c 40 ea 2c 3c 68 eb b8 bc 96 cf 8a 3c
       0.025313336 0.010553896 -0.022573188 0.016944688
0000e0 16 0f ce 3c 6e cc d7 3c 82 54 d4 3c 02 00 2a bd
       0.025153678 0.026342597 0.025919203 -0.041503914
0000f0 3f 32 0c bd cb 09 f3 bc 23 ed d2 bc 68 a6 82 bb
       -0.034227606 -0.029667756 -0.025747841 -0.0039871223
000100 77 2d 07 3d 9b e4 1c 3d 98 90 b4 bc 98 0a 15 bd
       0.033002343 0.038303953 -0.022041604 -0.036387056
000110 a0 19 37 bc 48 6f b6 3b 40 c0 08 3a 24 c3 3c 3c
       -0.011175543 0.005567465 0.0005216636 0.0115211345
000120 20 82 97 3a 60 05 c7 bc 40 3e 2d 3b 25 94 20 3d
       0.0011559166 -0.024294555 0.002643481 0.03920378
000130 08 3e fa bc 5e a1 de 3c ca f5 ed 3c 00 8f fa ba
       -0.030547157 0.027176555 0.029047865 -0.0019116104
000140 80 9a a9 3b ac 07 0f bc 00 ff 77 b9 86 03 cf bc
       0.0051758885 -0.008729856 -0.0002365075 -0.025270235
000150 c3 06 ce bc c6 87 b2 3c ee 2a ec 3c 52 22 ed 3c
       -0.025149709 0.021793257 0.028829064 0.02894703
000160 8e a1 28 bd 75 7b 0c 3d d8 da ae bc 86 49 08 bd
       -0.041169696 0.034297425 -0.021344587 -0.033273242
000170 c6 5a 8e bc ee f8 82 bc 44 c1 07 bc 00 30 18 3a
       -0.017377269 -0.01598784 -0.008285824 0.00058054924
000180 2e 9f f5 bc 80 17 a6 ba ef 9a 0d 3d 28 1d 87 3b
       -0.02998313 -0.0012671798 0.034571584 0.0041233487
000190 70 6f 1e bb c9 17 0c 3d c0 59 35 3c 77 07 11 3d
       -0.0024175309 0.03420237 0.011068761 0.03540751
0001a0 00 db 47 39 7e 70 c1 3c 00 61 4a 39 3b f2 8a bc
       0.00019059703 0.02361321 0.00019300357 -0.016961208
0001b0 66 fb d9 bc fc 34 33 3c fb 8d 0a 3d f8 ca ef bb
       -0.026609134 0.010937925 0.03382681 -0.007317897
0001c0 f6 25 87 bc c0 8d 1a ba a0 f6 04 bc fe 04 ba 3c
       -0.016497593 -0.0005895756 -0.008115441 0.022707459
0001d0 62 61 bf 3c 18 3c 8d bb 66 f7 96 3c 50 06 0f bb
       0.023361865 -0.0043101422 0.018428516 -0.002182383
0001e0 a0 01 d6 bc 5a e5 e4 3c 40 f2 c5 bc b0 66 93 bc
       -0.026123822 0.027941395 -0.024163365 -0.017993301
0001f0 60 fb 3b 3c eb 35 e2 bc 00 18 3c bb 80 fd 31 bc
       0.011473507 -0.0276136 -0.0028700829 -0.010863662
000200 88 f9 e9 3b a9 fa 29 3d 58 3a e5 bc 08 54 a7 3b
       0.007140342 0.041498814 -0.027981922 0.005106453
000210 ec 20 01 3c 0e ff 9a 3c b5 8a 29 3d b4 f2 6b 3c
       0.007881384 0.018920448 0.041392047 0.014401127
000220 3f 4a 0d 3d b2 6e a2 3c 03 15 85 bc 2c f2 60 3c
       0.034494635 0.019828174 -0.01624537 0.013729613
000230 6b 29 a9 bc d2 0c d0 3c fb 14 c5 bc e0 b5 98 3a
       -0.020649632 0.025396738 -0.024057856 0.0011650883
000240 28 5d bf bb db 75 0e bd 42 d4 e4 3c 30 f2 29 3c
       -0.0058399625 -0.034780364 0.027933244 0.010372683
000250 c8 01 d5 bb 98 c8 8e 3b 34 76 27 bd 0a a4 b3 3c
       -0.0065004565 0.0043574087 -0.04088421 0.021928806
000260 40 2b 7b 3b 65 42 02 3d 16 f6 eb bc f8 96 89 3b
       0.003832534 0.0318016 -0.028803866 0.004198905
000270 91 9e 12 3d 5b 23 df bc c0 8b 89 bb 30 97 07 bc
       0.035795752 -0.027238538 -0.0041975677 -0.008275792
000280 20 4d f9 bc c6 d2 ef 3c c8 56 8d 3b 88 d0 96 bc
       -0.030432284 0.02927531 0.0043133236 -0.018409982
000290 32 2f e3 3c 50 7d 2e 3b 66 97 8b bc 00 24 fe 3a
       0.027732465 0.0026624985 -0.017039966 0.0019389391
0002a0 50 4b d8 bc 48 ad e2 3b 70 d8 b2 bc 4b b8 f6 bc
       -0.0264031 0.0069176294 -0.021831721 -0.030117175
0002b0 f8 45 ef 3b 03 ef e6 bc 29 16 15 3d b8 67 ea bc
       0.007302042 -0.028190142 0.036398087 -0.02861391
0002c0 e3 63 e1 bc 52 e6 b0 3c a0 a1 51 bc 46 97 da 3c
       -0.02751345 0.0215942 -0.012794882 0.02668346
0002d0 5e 88 f3 3c f5 fc 16 3d e3 cd 23 3d 8e 22 09 bd
       0.02972811 0.036862332 0.03999127 -0.03348022
0002e0 a0 bc 05 bd 0c 28 00 bd de 31 cf 3c 4e ef 82 3c
       -0.03265059 -0.03128819 0.025292333 0.01598325
0002f0 4c a5 04 bc c1 3b 0a 3d 42 a6 02 bd 8c d0 29 bd
       -0.0080960505 0.033748392 -0.031896837 -0.04145865
000300 bc 63 56 bc 50 2a ba bc 96 63 d4 bc 87 db 29 bd
       -0.013085302 -0.022725254 -0.025926393 -0.041469123
000310 33 18 81 bc 60 2a 84 bc ee 39 80 3c 4e d0 f6 3c
       -0.01575861 -0.016133487 0.015652623 0.030128624
000320 d8 7d 9e bc 00 61 d3 bc 90 4b 7f 3c 6a cb cf 3c
       -0.019347116 -0.02580309 0.01558198 0.02536555
000330 88 8b 21 bd 27 25 20 3d 03 3a bc bc c9 ec 14 3d
       -0.039439708 0.03909793 -0.02297688 0.03635863
000340 30 cd 6e 3c d2 49 db 3c 7a 8f e9 3c 70 93 c7 bc
       0.014575288 0.026768599 0.028510798 -0.024362296
000350 be 74 ff 3c d0 13 2d 3c d0 04 97 bc 00 c8 fd 38
       0.031183597 0.010563806 -0.018434912 0.00012101233
000360 a0 c5 1d 3c 4f ac 05 bd 40 67 84 bc f0 a1 4e 3b
       0.009629637 -0.03263503 -0.016162515 0.0031529628
000370 16 e1 2a bc f2 f2 e5 3c e6 51 76 bc d0 96 40 bb
       -0.010429641 0.028069947 -0.015034175 -0.0029386766
000380 88 7b 9b bc 5a c6 f4 3c f8 d1 d2 bc ec 13 00 3c
       -0.018979803 0.029879738 -0.025734887 0.00781725
000390 e0 35 08 bd e0 dc 83 bc 1a 94 27 bd 0e e8 c8 bc
       -0.033254504 -0.016096532 -0.040912725 -0.024524715
0003a0 66 76 65 bc a0 c5 36 bc 92 5d 9b 3c ea 48 c4 3c
       -0.014005279 -0.011155516 0.018965516 0.02396055
0003b0 3b ab b2 bc 80 0a 8b ba 0c 78 11 bd ae 26 80 3c
       -0.021810165 -0.0010607988 -0.035514876 0.015643444
0003c0 d4 bb 70 3c 28 7f c4 bb 05 ee 1a 3d 02 19 22 bd
       0.014693219 -0.0059966035 0.03782465 -0.03957463
0003d0 ce 24 c8 bc c1 34 28 3d 10 9b 4e 3b 6e 32 e0 3c
       -0.024431612 0.041065935 0.003152553 0.027367797
0003e0 31 e4 0d 3d a6 6a d3 3c 0a 9a b0 3c 23 d1 f8 bc
       0.03464145 0.02580769 0.021557827 -0.030373162
0003f0 e0 d9 ae 3b 20 fc e8 ba 70 11 35 bc 73 28 0f 3d
       0.0053360313 -0.0017775334 -0.011051521 0.034950685

layers.0.conv1.bias f4 [64]
000000 c6 76 19 bd 52 4a 21 bd 60 e4 1a 3c 8a 3e d5 3c
       -0.037466787 -0.039377518 0.009453863 0.026030798
000010 e3 90 ac bc f2 5b c9 3c 86 8f fe bc fb e8 22 3d
       -0.021065181 0.024579976 -0.031074297 0.03977297
000020 8e 31 b7 3c 18 e1 a9 3c b6 7d 5b bc 13 79 dd bc
       0.022362497 0.020737216 -0.013396671 -0.027035272
000030 e7 78 1b 3d 40 74 a9 bc d0 23 4c 3b 66 1f 73 bc
       0.0379571 -0.020685315 0.0031149276 -0.014839029
000040 0d f3 21 3d 0c ac 42 bc 1a c0 ce 3c 62 86 d8 3c
       0.039538432 -0.0118818395 0.025238086 0.026431266
000050 b0 d0 32 bc 72 57 e7 3c 5e 9d 06 bd 18 35 f6 bc
       -0.010914013 0.02823994 -0.03286492 -0.030054614
000060 c0 d9 21 bb 68 05 be 3b 28 8d f5 3b c8 f0 db 3b
       -0.002469644 0.0057989843 0.007493634 0.006712053
000070 10 ce 6a 3b 40 92 4d bb c0 68 1b bc 4e b4 b0 3c
       0.003582839 -0.003136769 -0.009485424 0.021570351
000080 a0 74 ab 3b 50 dd 07 3c 12 32 16 bd 60 2d 8c 3a
       0.0052324086 0.008292511 -0.036668845 0.0010694675
000090 a3 ab 9c bc 00 12 80 3c c6 2c 91 3c 23 9a de bc
       -0.019124812 0.015633583 0.017721545 -0.027173107
0000a0 44 ae 1e 3c ea 0d d4 3c 22 a3 d0 3c a4 67 07 bc
       0.009685103 0.025885541 0.025468413 -0.008264456
0000b0 88 fa db 3b 64 a5 14 bd 98 b4 8b 3b e6 a7 24 bd
       0.0067132153 -0.03629054 0.004263472 -0.040199183
0000c0 57 32 0e bd 83 4b fd bc f2 01 b1 3c 7d 4b 22 3d
       -0.034715977 -0.030919796 0.021607373 0.039622772
0000d0 d6 b1 e7 3c 9c 9a 1d 3c 80 78 f1 bb 1b 17 d7 bc
       0.028283041 0.009619381 -0.007369101 -0.026256135
0000e0 80 49 12 3b c0 f3 8f bb 68 fa 94 bb 6b d0 f9 bc
       0.0022321641 -0.004393071 -0.0045464523 -0.03049489
0000f0 d8 ec cd bc 18 97 2a bd 44 2c 4b 3c 86 50 b3 3c
       -0.02513735 -0.041648 0.0124006905 0.021888983

layers.0.conv2.weight f4 [64, 64, 3, 3]
000000 d8 a4 85 bb 2e 6c 29 bd cf 3b 0e bd d8 eb ec bc
       -0.004078489 -0.041362934 -0.034725007 -0.028921053
000010 a5 79 26 3d 9a f9 fe 3c 58 4c 09 bd 80 9f 09 3c
       0.040643353 0.031124879 -0.033520073 0.008399844
000020 e0 56 c1 bb 46 69 8c 3c 91 7a 0c 3d 9c 13 40 3c
       -0.005900249 0.017140042 0.034296576 0.011723425
000030 32 32 ee 3c ed 69 1d 3d f2 4a fc 3c 83 41 b1 bc
       0.02907667 0.038431097 0.030797455 -0.021637684
000040 43 4e 20 bd f2 9c af 3c 45 71 12 3d 0d c6 22 3d
       -0.039137136 0.021437142 0.035752553 0.039739657
000050 90 fd 91 bc 4b e3 c0 bc 95 bd 0a 3d 96 13 73 bc
       -0.017821103 -0.023545882 0.033872206 -0.014836213
000060 a3 34 18 bd 0e d6 0d bd ab 23 f8 bc 20 48 c2 bb
       -0.037159573 -0.034627967 -0.030290445 -0.005929008
000070 00 8a f1 b8 e8 9c eb bc 80 21 29 bc dc 04 5e bc
       -0.0001151748 -0.028761342 -0.010322928 -0.013550963
000080 24 07 56 3c a6 e4 4f bc 84 3e 13 bd b0 35 66 3b
       0.013063226 -0.012688791 -0.03594829 0.0035127215
000090 dd 65 29 3d 83 cd d0 bc 1c 65 6e 3c 28 65 0b bd
       0.04135691 -0.02548862 0.014550474 -0.034032017
0000a0 6a b0 db 3c 00 03 12 ba ac b0 6b bc 53 a0 ee bc
       0.02681752 -0.0005569905 -0.014385384 -0.029129183
0000b0 ba 94 cf 3c be 8a de bc be b5 85 3c 78 21 af bb
       0.025339473 -0.027165767 0.016322013 -0.005344566
0000c0 20 a3 c8 3b 46 fd bd bc 5f c5 01 3d 60 fc f2 ba
       0.0061229616 -0.02319206 0.03168237 -0.0018538348
0000d0 fe fb 8f bc 63 e7 15 3d a8 fa 88 bc 8a c0 dc 3c
       -0.017576214 0.03659762 -0.016721085 0.026947279
0000e0 0b f1 81 bc 33 30 15 bd 2e 8d ac bc a0 f5 91 bc
       -0.015862009 -0.03642292 -0.021063413 -0.017817318
0000f0 1b 60 11 bd 4c bc 02 bd 72 c2 f0 3c 96 09 25 bd
       -0.035492044 -0.031917855 0.029389594 -0.040292345
000100 80 1b d9 bb db b5 db bc 40 5b 1a bc da ed d3 3c
       -0.0066255927 -0.026820114 -0.00942117 0.025870252
000110 e1 70 18 3d d0 b5 28 3c 20 48 be 3b 46 2e 52 bc
       0.037217025 0.010297254 0.005806938 -0.012828415
000120 20 3c e4 3b bf e9 0b 3d b0 70 3b 3c 11 0d 29 3d
       0.0069651753 0.034158465 0.011440441 0.041272227
000130 b0 97 5b bc 42 90 cc 3c 4a bf 0e bd a0 30 69 bc
       -0.013402864 0.024971131 -0.034850396 -0.0142327845
000140 0c 93 4e 3c 38 91 de bb 67 88 04 bd 8a bd d0 3c
       0.012608301 -0.006792214 -0.032356646 0.025481004
000150 25 56 14 3d 3b 9b cb bc b1 d8 14 3d 40 76 2a 3a
       0.036214966 -0.024854293 0.036339466 0.0006502606
000160 f0 1e 2b bc 67 07 03 bd c3 88 b9 bc e0 0a c0 bc
       -0.010444388 -0.03198948 -0.02264822 -0.023442686
000170 6a 63 f2 3c eb 04 18 bd 5a 52 01 bd 6e fa b4 bc
       0.02958842 -0.037114065 -0.031572677 -0.02209207
000180 f4 0a 08 3c 44 c8 55 3c 86 5e 8d bc 1e f6 cc 3c
       0.008303393 0.013048235 -0.017256986 0.025019702
000190 c0 47 fe bc 95 12 06 3d b2 a1 ca 3c 4c d9 2e bc
       -0.031040072 0.032732565 0.024735305 -0.010671925
0001a0 8e 7a d8 bc 21 dd 0e 3d 00 00 5e 38 86 b9 74 bc
       -0.026425626 0.034878854 5.2928925e-05 -0.01493681
0001b0 f0 17 09 bc a0 33 b7 bc 42 4f 26 bd ee 8e e0 3c
       -0.008367524 -0.022363484 -0.04060293 0.027411904
0001c0 fc a8 50 3c 80 3e f5 ba 00 d6 91 39 ee 3f a4 bc
       0.0127356015 -0.0018710643 0.00027815998 -0.020050015
0001d0 45 1d 13 3d ba 8f cd 3c 9a 45 c7 3c be cd b2 3c
       0.035916585 0.025092948 0.02432518 0.021826621
0001e0 92 29 c7 3c f3 28 9e bc 40 db 87 bb 00 24 16 bd
       0.024311814 -0.019306635 -0.0041460097 -0.036655426
0001f0 9a 1c fa 3c 77 5a 14 3d f6 37 b8 bc 8b a5 e0 bc
       0.030531216 0.036219086 -0.022487622 -0.027422687
000200 80 fa 01 3c 7c 75 4a 3c 00 00 d2 b7 00 d8 5f 3c
       0.007933259 0.012357112 -2.503395e-05 0.013662338
000210 e7 c9 05 bd db da ff bc 43 56 be bc cc be 26 bd
       -0.032663252 -0.031232288 -0.023234492 -0.0407093
000220 20 93 87 bb 93 69 f1 bc 17 93 13 3d 14 d0 4a 3c
       -0.0041374117 -0.029469287 0.036028948 0.012378711
000230 bb 54 18 3d 19 c5 1c 3d 08 a4 f9 bb 16 99 fa bc
       0.03719018 0.038273904 -0.007618431 -0.030590575
000240 e0 7f 85 3c 4f 5f 22 bd 30 fa 07 bd 5f c4 20 3d
       0.016296327 -0.039641675 -0.03319758 0.039249774
000250 27 cb 13 3d b6 a9 a6 3c 80 6b ab bb 46 21 fb bc
       0.036082413 0.020344596 -0.005231321 -0.030655514
000260 60 3c c2 bb c0 e5 57 3b 5c f2 17 3c de 06 8c bc
       -0.0059276074 0.0032943338 0.009274092 -0.017093118
000270 c3 b7 c6 bc 50 de 06 3b 5e 54 97 bc 0d 6f 0c 3d
       -0.024257546 0.0020579286 -0.018472847 0.034285594
000280 48 26 8f 3c 68 55 95 3b 80 52 16 bb 4d 83 16 3d
       0.017474309 0.0045573004 -0.0022937357 0.036746312
000290 d3 2d 00 bd 50 65 53 3b ac 67 0e 3c d8 94 a5 bb
       -0.0312937 0.0032256432 0.0086917095 -0.005053144
0002a0 ba 15 a5 3c f0 be 2e bc b7 18 15 bd 94 87 20 bc
       0.020151962 -0.01066564 -0.036400523 -0.009797949
0002b0 15 4f 15 3d 52 90 a7 3c e8 cf ac 3b 90 9c 29 bc
       0.03645237 0.02045456 0.005273808 -0.010352269
0002c0 c0 1b ef bc 7e 1f e9 3c 00 76 1d ba 11 7f 24 3d
       -0.029188037 0.0284574 -0.0006006658 0.040160242
0002d0 ec 4b 4c 3c 8a 6f 87 3c 98 7a 8c bb d8 09 9b bc
       0.012469273 0.016532678 -0.0042870753 -0.018925592
0002e0 80 10 e1 ba 59 71 1f 3d 20 bf eb 3a ba bc 27 bd
       -0.0017171055 0.038926456 0.0017986037 -0.040951468
0002f0 00 24 55 b9 50 62 7c 3b d3 51 f4 bc 2b 13 c9 bc
       -0.00020326674 0.0038510747 -0.029824173 -0.024545273
000300 50 92 07 3c e8 47 a9 3b fc b0 29 bd 30 e3 cd bc
       0.00827463 0.0051660426 -0.04142855 -0.025132746
000310 33 36 1e bd 7c ef 2c bc ca 84 88 3c a0 43 54 bc
       -0.038625907 -0.010555144 0.016664881 -0.012955576
000320 77 a9 09 bd 48 d4 a4 3b ee d7 fa 3c 4c 44 1a bd
       -0.03360888 0.0050301887 0.030620541 -0.03766279
000330 c3 48 c1 bc 40 e3 ed 3b a6 ed 68 bc e0 c6 ad bc
       -0.023594266 0.0072597563 -0.014216816 -0.021212995
000340 f2 8a c1 3c 00 81 b6 3b 22 30 b0 3c 12 36 e5 3c
       0.023625825 0.005569577 0.021507327 0.027979884
000350 4c d1 41 bc 90 1b 6d 3c 2a 6a fd 3c 30 26 9f 3c
       -0.011829685 0.014471903 0.030934412 0.019427389
000360 00 01 62 3c 8c 12 41 bc cd 01 02 3d 1f a0 09 3d
       0.013794184 -0.011784207 0.03174 0.03359997
000370 70 32 d9 bc 10 79 7a bc 40 40 4f ba 46 f5 51 bc
       -0.026513308 -0.015287653 -0.00079059973 -0.012814825
000380 68 1c 8f 3c f4 53 3e 3c 00 e4 26 3c 9c bf 58 bc
       0.0174696 0.011616696 0.010186195 -0.013229277
000390 4d 58 01 3d cb 25 b9 bc 21 d9 01 3d 00 2b f0 bb
       0.03157835 -0.022601029 0.03170121 -0.0073293447
0003a0 cc 0b 52 3c 00 91 43 b9 eb 4b dc bc 71 a9 18 3d
       0.012820195 -0.00018650666 -0.02689167 0.037270967
0003b0 16 2e ef bc 0a 2d a8 3c ed 81 20 3d 40 cc ad 3b
       -0.02919678 0.020529289 0.039186407 0.0053038895
0003c0 c3 47 e2 bc 86 8e be 3c 46 77 21 bd fa a8 12 bd
       -0.02762211 0.02326132 -0.03942039 -0.03580568
0003d0 c6 7e fc 3c 04 0b 7a 3c 2c 7d 52 bc 68 60 16 bd
       0.030822169 0.015261415 -0.012847226 -0.036713034
0003e0 30 3a 20 3c 33 68 12 3d 65 48 05 3d 6e 1c 2a bd
       0.009779498 0.035743903 0.032539744 -0.04153102
0003f0 ae a5 d5 bc 68 a6 f5 bc 0e 2d 99 bc 9e b4 b9 bc
       -0.026079979 -0.029986575 -0.018698242 -0.022669133

layers.0.conv2.bias f4 [64]
000000 30 67 75 bc 20 58 1c 3c f8 af 93 3c 80 fb 32 bb
       -0.014978215 0.009542495 0.018028244 -0.002731055
000010 23 2a e7 bc c9 57 0a 3d 02 66 f5 3c eb c8 06 3d
       -0.028218335 0.033775125 0.029955868 0.032906454
000020 60 e3 02 bc 8a 00 f2 3c 40 8f 79 3a 85 ef 1a 3d
       -0.007988781 0.029541273 0.0009519942 0.03782608
000030 4c f5 29 bd 58 17 c6 bc 1a d8 a9 3c a3 ea 17 3d
       -0.0414937 -0.024181053 0.020732928 0.037089
000040 00 be 66 3b 90 a3 5f 3b 22 9a eb 3c c0 c2 03 3a
       0.0035208464 0.003412459 0.02876002 0.00050262734
000050 46 78 5f bc 1e 4f ac 3c f0 17 ea bc 9b 7e 8c bc
       -0.013639515 0.02103382 -0.028575867 -0.017150214
000060 7b 0a 81 bc 9b 4c b9 bc 30 dc 5b bc ac 89 3b 3c
       -0.015752068 -0.022619536 -0.013419196 0.011446398
000070 90 b5 a0 bc e1 14 1f 3d 36 49 f8 3c 3d ce 0a 3d
       -0.019617826 0.03883827 0.030308347 0.03388809
000080 a0 27 91 ba a6 da fb bc 54 71 71 3c 88 2e 11 bd
       -0.0011074431 -0.030743908 0.014736492 -0.035444766
000090 e5 7e 28 3d c6 43 d2 bc 28 89 9f 3c 2b ed 0b 3d
       0.04113664 -0.025667083 0.01947458 0.034161728
0000a0 b0 a8 31 bc 70 c8 63 3c 98 b6 fa bc d0 08 14 bc
       -0.010843441 0.0139027685 -0.030604646 -0.009035304
0000b0 0d 8e 14 3d 17 30 08 bd 60 e4 58 bc d6 d8 e8 3c
       0.036268283 -0.033248987 -0.013238043 0.028423708
0000c0 82 90 e2 3c d4 bb 45 3c f0 d8 32 3c cb 3e ea bc
       0.027656797 0.0120687075 0.01091598 -0.028594395
0000d0 bc b5 4c 3c 00 3e ff b9 c9 03 0e 3d 94 cf 0b bd
       0.012494501 -0.00048683584 0.03467158 -0.03413351
0000e0 48 cf da bb 2b 05 c7 bc 04 ef 35 3c 58 01 11 bd
       -0.006677542 -0.024294456 0.011104349 -0.035401672
0000f0 ee 8d cb bc 71 1a 0f 3d a3 62 bf bc c2 b2 f8 3c
       -0.02484795 0.034937326 -0.023362463 0.030358676

layers.0.bn2d_1.weight f4 [64]
000000 00 00 80 3f 00 00 80 3f 00 00 80 3f 00 00 80 3f
       1.0 1.0 1.0 1.0
000010 00 00 80 3f 00 00 80 3f 00 00 80 3f 00 00 80 3f
       1.0 1.0 1.0 1.0
000020 00 00 80 3f 00 00 80 3f 00 00 80 3f 00 00 80 3f
       1.0 1.0 1.0 1.0
000030 00 00 80 3f 00 00 80 3f 00 00 80 3f 00 00 80 3f
       1.0 1.0 1.0 1.0
000040 00 00 80 3f 00 00 80 3f 00 00 80 3f 00 00 80 3f
       1.0 1.0 1.0 1.0
000050 00 00 80 3f 00 00 80 3f 00 00 80 3f 00 00 80 3f
       1.0 1.0 1.0 1.0
000060 00 00 80 3f 00 00 80 3f 00 00 80 3f 00 00 80 3f
       1.0 1.0 1.0 1.0
000070 00 00 80 3f 00 00 80 3f 00 00 80 3f 00 00 80 3f
       1.0 1.0 1.0 1.0
000080 00 00 80 3f 00 00 80 3f 00 00 80 3f 00 00 80 3f
       1.0 1.0 1.0 1.0
000090 00 00 80 3f 00 00 80 3f 00 00 80 3f 00 00 80 3f
       1.0 1.0 1.0 1.0
0000a0 00 00 80 3f 00 00 80 3f 00 00 80 3f 00 00 80 3f
       1.0 1.0 1.0 1.0
0000b0 00 00 80 3f 00 00 80 3f 00 00 80 3f 00 00 80 3f
       1.0 1.0 1.0 1.0
0000c0 00 00 80 3f 00 00 80 3f 00 00 80 3f 00 00 80 3f
       1.0 1.0 1.0 1.0
0000d0 00 00 80 3f 00 00 80 3f 00 00 80 3f 00 00 80 3f
       1.0 1.0 1.0 1.0
0000e0 00 00 80 3f 00 00 80 3f 00 00 80 3f 00 00 80 3f
       1.0 1.0 1.0 1.0
0000f0 00 00 80 3f 00 00 80 3f 00 00 80 3f 00 00 80 3f
       1.0 1.0 1.0 1.0

layers.0.bn2d_1.bias f4 [64]
000000 00 00 00 00 00 00 00 00 00 00 00 00 00 00 00 00
       0.0 0.0 0.0 0.0
000010 00 00 00 00 00 00 00 00 00 00 00 00 00 00 00 00
       0.0 0.0 0.0 0.0
000020 00 00 00 00 00 00 00 00 00 00 00 00 00 00 00 00
       0.0 0.0 0.0 0.0
000030 00 00 00 00 00 00 00 00 00 00 00 00 00 00 00 00
       0.0 0.0 0.0 0.0
000040 00 00 00 00 00 00 00 00 00 00 00 00 00 00 00 00
       0.0 0.0 0.0 0.0
000050 00 00 00 00 00 00 00 00 00 00 00 00 00 00 00 00
       0.0 0.0 0.0 0.0
000060 00 00 00 00 00 00 00 00 00 00 00 00 00 00 00 00
       0.0 0.0 0.0 0.0
000070 00 00 00 00 00 00 00 00 00 00 00 00 00 00 00 00
       0.0 0.0 0.0 0.0
000080 00 00 00 00 00 00 00 00 00 00 00 00 00 00 00 00
       0.0 0.0 0.0 0.0
000090 00 00 00 00 00 00 00 00 00 00 00 00 00 00 00 00
       0.0 0.0 0.0 0.0
0000a0 00 00 00 00 00 00 00 00 00 00 00 00 00 00 00 00
       0.0 0.0 0.0 0.0
0000b0 00 00 00 00 00 00 00 00 00 00 00 00 00 00 00 00
       0.0 0.0 0.0 0.0
0000c0 00 00 00 00 00 00 00 00 00 00 00 00 00 00 00 00
       0.0 0.0 0.0 0.0
0000d0 00 00 00 00 00 00 00 00 00 00 00 00 00 00 00 00
       0.0 0.0 0.0 0.0
0000e0 00 00 00 00 00 00 00 00 00 00 00 00 00 00 00 00
       0.0 0.0 0.0 0.0
0000f0 00 00 00 00 00 00 00 00 00 00 00 00 00 00 00 00
       0.0 0.0 0.0 0.0

layers.0.bn2d_1.running_mean f4 [64]
000000 00 00 00 00 00 00 00 00 00 00 00 00 00 00 00 00
       0.0 0.0 0.0 0.0
000010 00 00 00 00 00 00 00 00 00 00 00 00 00 00 00 00
       0.0 0.0 0.0 0.0
000020 00 00 00 00 00 00 00 00 00 00 00 00 00 00 00 00
       0.0 0.0 0.0 0.0
000030 00 00 00 00 00 00 00 00 00 00 00 00 00 00 00 00
       0.0 0.0 0.0 0.0
000040 00 00 00 00 00 00 00 00 00 00 00 00 00 00 00 00
       0.0 0.0 0.0 0.0
000050 00 00 00 00 00 00 00 00 00 00 00 00 00 00 00 00
       0.0 0.0 0.0 0.0
000060 00 00 00 00 00 00 00 00 00 00 00 00 00 00 00 00
       0.0 0.0 0.0 0.0
000070 00 00 00 00 00 00 00 00 00 00 00 00 00 00 00 00
       0.0 0.0 0.0 0.0
000080 00 00 00 00 00 00 00 00 00 00 00 00 00 00 00 00
       0.0 0.0 0.0 0.0
000090 00 00 00 00 00 00 00 00 00 00 00 00 00 00 00 00
       0.0 0.0 0.0 0.0
0000a0 00 00 00 00 00 00 00 00 00 00 00 00 00 00 00 00
       0.0 0.0 0.0 0.0
0000b0 00 00 00 00 00 00 00 00 00 00 00 00 00 00 00 00
       0.0 0.0 0.0 0.0
0000c0 00 00 00 00 00 00 00 00 00 00 00 00 00 00 00 00
       0.0 0.0 0.0 0.0
0000d0 00 00 00 00 00 00 00 00 00 00 00 00 00 00 00 00
       0.0 0.0 0.0 0.0
0000e0 00 00 00 00 00 00 00 00 00 00 00 00 00 00 00 00
       0.0 0.0 0.0 0.0
0000f0 00 00 00 00 00 00 00 00 00 00 00 00 00 00 00 00
       0.0 0.0 0.0 0.0

layers.0.bn2d_1.running_var f4 [64]
000000 00 00 80 3f 00 00 80 3f 00 00 80 3f 00 00 80 3f
       1.0 1.0 1.0 1.0
000010 00 00 80 3f 00 00 80 3f 00 00 80 3f 00 00 80 3f
       1.0 1.0 1.0 1.0
000020 00 00 80 3f 00 00 80 3f 00 00 80 3f 00 00 80 3f
       1.0 1.0 1.0 1.0
000030 00 00 80 3f 00 00 80 3f 00 00 80 3f 00 00 80 3f
       1.0 1.0 1.0 1.0
000040 00 00 80 3f 00 00 80 3f 00 00 80 3f 00 00 80 3f
       1.0 1.0 1.0 1.0
000050 00 00 80 3f 00 00 80 3f 00 00 80 3f 00 00 80 3f
       1.0 1.0 1.0 1.0
000060 00 00 80 3f 00 00 80 3f 00 00 80 3f 00 00 80 3f
       1.0 1.0 1.0 1.0
000070 00 00 80 3f 00 00 80 3f 00 00 80 3f 00 00 80 3f
       1.0 1.0 1.0 1.0
000080 00 00 80 3f 00 00 80 3f 00 00 80 3f 00 00 80 3f
       1.0 1.0 1.0 1.0
000090 00 00 80 3f 00 00 80 3f 00 00 80 3f 00 00 80 3f
       1.0 1.0 1.0 1.0
0000a0 00 00 80 3f 00 00 80 3f 00 00 80 3f 00 00 80 3f
       1.0 1.0 1.0 1.0
0000b0 00 00 80 3f 00 00 80 3f 00 00 80 3f 00 00 80 3f
       1.0 1.0 1.0 1.0
0000c0 00 00 80 3f 00 00 80 3f 00 00 80 3f 00 00 80 3f
       1.0 1.0 1.0 1.0
0000d0 00 00 80 3f 00 00 80 3f 00 00 80 3f 00 00 80 3f
       1.0 1.0 1.0 1.0
0000e0 00 00 80 3f 00 00 80 3f 00 00 80 3f 00 00 80 3f
       1.0 1.0 1.0 1.0
0000f0 00 00 80 3f 00 00 80 3f 00 00 80 3f 00 00 80 3f
       1.0 1.0 1.0 1.0

layers.0.bn2d_2.weight f4 [64]
000000 00 00 80 3f 00 00 80 3f 00 00 80 3f 00 00 80 3f
       1.0 1.0 1.0 1.0
000010 00 00 80 3f 00 00 80 3f 00 00 80 3f 00 00 80 3f
       1.0 1.0 1.0 1.0
000020 00 00 80 3f 00 00 80 3f 00 00 80 3f 00 00 80 3f
       1.0 1.0 1.0 1.0
000030 00 00 80 3f 00 00 80 3f 00 00 80 3f 00 00 80 3f
       1.0 1.0 1.0 1.0
000040 00 00 80 3f 00 00 80 3f 00 00 80 3f 00 00 80 3f
       1.0 1.0 1.0 1.0
000050 00 00 80 3f 00 00 80 3f 00 00 80 3f 00 00 80 3f
       1.0 1.0 1.0 1.0
000060 00 00 80 3f 00 00 80 3f 00 00 80 3f 00 00 80 3f
       1.0 1.0 1.0 1.0
000070 00 00 80 3f 00 00 80 3f 00 00 80 3f 00 00 80 3f
       1.0 1.0 1.0 1.0
000080 00 00 80 3f 00 00 80 3f 00 00 80 3f 00 00 80 3f
       1.0 1.0 1.0 1.0
000090 00 00 80 3f 00 00 80 3f 00 00 80 3f 00 00 80 3f
       1.0 1.0 1.0 1.0
0000a0 00 00 80 3f 00 00 80 3f 00 00 80 3f 00 00 80 3f
       1.0 1.0 1.0 1.0
0000b0 00 00 80 3f 00 00 80 3f 00 00 80 3f 00 00 80 3f
       1.0 1.0 1.0 1.0
0000c0 00 00 80 3f 00 00 80 3f 00 00 80 3f 00 00 80 3f
       1.0 1.0 1.0 1.0
0000d0 00 00 80 3f 00 00 80 3f 00 00 80 3f 00 00 80 3f
       1.0 1.0 1.0 1.0
0000e0 00 00 80 3f 00 00 80 3f 00 00 80 3f 00 00 80 3f
       1.0 1.0 1.0 1.0
0000f0 00 00 80 3f 00 00 80 3f 00 00 80 3f 00 00 80 3f
       1.0 1.0 1.0 1.0

layers.0.bn2d_2.bias f4 [64]
000000 00 00 00 00 00 00 00 00 00 00 00 00 00 00 00 00
       0.0 0.0 0.0 0.0
000010 00 00 00 00 00 00 00 00 00 00 00 00 00 00 00 00
       0.0 0.0 0.0 0.0
000020 00 00 00 00 00 00 00 00 00 00 00 00 00 00 00 00
       0.0 0.0 0.0 0.0
000030 00 00 00 00 00 00 00 00 00 00 00 00 00 00 00 00
       0.0 0.0 0.0 0.0
000040 00 00 00 00 00 00 00 00 00 00 00 00 00 00 00 00
       0.0 0.0 0.0 0.0
000050 00 00 00 00 00 00 00 00 00 00 00 00 00 00 00 00
       0.0 0.0 0.0 0.0
000060 00 00 00 00 00 00 00 00 00 00 00 00 00 00 00 00
       0.0 0.0 0.0 0.0
000070 00 00 00 00 00 00 00 00 00 00 00 00 00 00 00 00
       0.0 0.0 0.0 0.0
000080 00 00 00 00 00 00 00 00 00 00 00 00 00 00 00 00
       0.0 0.0 0.0 0.0
000090 00 00 00 00 00 00 00 00 00 00 00 00 00 00 00 00
       0.0 0.0 0.0 0.0
0000a0 00 00 00 00 00 00 00 00 00 00 00 00 00 00 00 00
       0.0 0.0 0.0 0.0
0000b0 00 00 00 00 00 00 00 00 00 00 00 00 00 00 00 00
       0.0 0.0 0.0 0.0
0000c0 00 00 00 00 00 00 00 00 00 00 00 00 00 00 00 00
       0.0 0.0 0.0 0.0
0000d0 00 00 00 00 00 00 00 00 00 00 00 00 00 00 00 00
       0.0 0.0 0.0 0.0
0000e0 00 00 00 00 00 00 00 00 00 00 00 00 00 00 00 00
       0.0 0.0 0.0 0.0
0000f0 00 00 00 00 00 00 00 00 00 00 00 00 00 00 00 00
       0.0 0.0 0.0 0.0

layers.0.bn2d_2.running_mean f4 [64]
000000 00 00 00 00 00 00 00 00 00 00 00 00 00 00 00 00
       0.0 0.0 0.0 0.0
000010 00 00 00 00 00 00 00 00 00 00 00 00 00 00 00 00
       0.0 0.0 0.0 0.0
000020 00 00 00 00 00 00 00 00 00 00 00 00 00 00 00 00
       0.0 0.0 0.0 0.0
000030 00 00 00 00 00 00 00 00 00 00 00 00 00 00 00 00
       0.0 0.0 0.0 0.0
000040 00 00 00 00 00 00 00 00 00 00 00 00 00 00 00 00
       0.0 0.0 0.0 0.0
000050 00 00 00 00 00 00 00 00 00 00 00 00 00 00 00 00
       0.0 0.0 0.0 0.0
000060 00 00 00 00 00 00 00 00 00 00 00 00 00 00 00 00
       0.0 0.0 0.0 0.0
000070 00 00 00 00 00 00 00 00 00 00 00 00 00 00 00 00
       0.0 0.0 0.0 0.0
000080 00 00 00 00 00 00 00 00 00 00 00 00 00 00 00 00
       0.0 0.0 0.0 0.0
000090 00 00 00 00 00 00 00 00 00 00 00 00 00 00 00 00
       0.0 0.0 0.0 0.0
0000a0 00 00 00 00 00 00 00 00 00 00 00 00 00 00 00 00
       0.0 0.0 0.0 0.0
0000b0 00 00 00 00 00 00 00 00 00 00 00 00 00 00 00 00
       0.0 0.0 0.0 0.0
0000c0 00 00 00 00 00 00 00 00 00 00 00 00 00 00 00 00
       0.0 0.0 0.0 0.0
0000d0 00 00 00 00 00 00 00 00 00 00 00 00 00 00 00 00
       0.0 0.0 0.0 0.0
0000e0 00 00 00 00 00 00 00 00 00 00 00 00 00 00 00 00
       0.0 0.0 0.0 0.0
0000f0 00 00 00 00 00 00 00 00 00 00 00 00 00 00 00 00
       0.0 0.0 0.0 0.0

layers.0.bn2d_2.running_var f4 [64]
000000 00 00 80 3f 00 00 80 3f 00 00 80 3f 00 00 80 3f
       1.0 1.0 1.0 1.0
000010 00 00 80 3f 00 00 80 3f 00 00 80 3f 00 00 80 3f
       1.0 1.0 1.0 1.0
000020 00 00 80 3f 00 00 80 3f 00 00 80 3f 00 00 80 3f
       1.0 1.0 1.0 1.0
000030 00 00 80 3f 00 00 80 3f 00 00 80 3f 00 00 80 3f
       1.0 1.0 1.0 1.0
000040 00 00 80 3f 00 00 80 3f 00 00 80 3f 00 00 80 3f
       1.0 1.0 1.0 1.0
000050 00 00 80 3f 00 00 80 3f 00 00 80 3f 00 00 80 3f
       1.0 1.0 1.0 1.0
000060 00 00 80 3f 00 00 80 3f 00 00 80 3f 00 00 80 3f
       1.0 1.0 1.0 1.0
000070 00 00 80 3f 00 00 80 3f 00 00 80 3f 00 00 80 3f
       1.0 1.0 1.0 1.0
000080 00 00 80 3f 00 00 80 3f 00 00 80 3f 00 00 80 3f
       1.0 1.0 1.0 1.0
000090 00 00 80 3f 00 00 80 3f 00 00 80 3f 00 00 80 3f
       1.0 1.0 1.0 1.0
0000a0 00 00 80 3f 00 00 80 3f 00 00 80 3f 00 00 80 3f
       1.0 1.0 1.0 1.0
0000b0 00 00 80 3f 00 00 80 3f 00 00 80 3f 00 00 80 3f
       1.0 1.0 1.0 1.0
0000c0 00 00 80 3f 00 00 80 3f 00 00 80 3f 00 00 80 3f
       1.0 1.0 1.0 1.0
0000d0 00 00 80 3f 00 00 80 3f 00 00 80 3f 00 00 80 3f
       1.0 1.0 1.0 1.0
0000e0 00 00 80 3f 00 00 80 3f 00 00 80 3f 00 00 80 3f
       1.0 1.0 1.0 1.0
0000f0 00 00 80 3f 00 00 80 3f 00 00 80 3f 00 00 80 3f
       1.0 1.0 1.0 1.0

layers.1.conv1.weight f4 [64, 64, 3, 3]
000000 80 ac d8 bc 10 58 40 3c 2b ec a3 bc a6 e8 dc 3c
       -0.026449442 0.011739746 -0.020010075 0.026966404
000010 16 c8 cb 3c d0 fb 06 bd a0 27 26 bd 6e 36 ba bc
       0.024875682 -0.03295499 -0.040565133 -0.022731032
000020 f6 f6 18 bd 7a 8a d9 3c e8 e4 03 bd f0 54 33 bb
       -0.037344895 0.026555289 -0.032200724 -0.002736386
000030 3f db 10 3d d0 8e 4e bc e6 a4 85 bc 38 7f d2 bb
       0.03536534 -0.012607291 -0.016313981 -0.006423857
000040 d2 22 ee 3c d9 25 24 3d b8 9c f9 bb 20 19 ce 3b
       0.029069338 0.040075157 -0.0076175593 0.006289616
000050 d0 46 2d bc 73 8e ea bc 70 0c 40 3c 02 62 ec 3c
       -0.010575965 -0.028632378 0.011721715 0.028855328
000060 b3 de a1 bc b2 c7 cf 3c 12 ac 87 3c 7b 6b 07 3d
       -0.019759512 0.025363777 0.016561542 0.033061486
000070 dc 3c 10 bd c0 89 50 ba 2b a5 97 bc 52 82 82 3c
       -0.03521429 -0.00079550967 -0.018511375 0.015931282
000080 76 38 ed bc e9 36 1a 3d 32 66 f5 3c 58 ba e5 bc
       -0.028957587 0.037650023 0.029955957 -0.028042957
000090 0c dd 63 3c 1b 7c b2 bc f2 c3 c8 3c 7b b6 bf bc
       0.013907682 -0.021787694 0.024507497 -0.023402443
0000a0 60 43 e3 3b 1e dc b4 3c 3e 42 ec 3c f0 ea 5a 3c
       0.006935522 0.022077616 0.02884018 0.0133616775
0000b0 5e b3 d6 3c 00 60 f6 3b 00 51 8e bb c3 78 23 3d
       0.026208576 0.0075187683 -0.004343152 0.03991009
0000c0 e8 21 9a 3b 6a 77 ce 3c 56 1c e7 bc 5a e5 df 3c
       0.004703749 0.025203425 -0.028211754 0.027331043
0000d0 00 67 d7 3a cb b6 13 bd 80 3d e5 3b 86 41 e8 bc
       0.0016433895 -0.036062997 0.0069958568 -0.028351557
0000e0 7e 24 8a 3c a1 76 0c 3d cd 15 08 3d 96 16 01 bd
       0.016863104 0.03429282 0.033223916 -0.03151568
0000f0 4c 8c 0a bc 30 d3 03 bb 42 46 9d 3c e4 a2 01 3c
       -0.008456301 -0.0020114891 0.01919854 0.007912371
000100 62 dc c8 3c 98 4b ea bb 6c 44 28 3c 9f bd 0b 3d
       0.02451915 -0.0071501248 0.010270219 0.034116384
000110 70 58 3e 3b 4e 88 f7 bc 1f b7 27 bd a8 be db bc
       0.0029044412 -0.030216362 -0.040946122 -0.02682431
000120 57 69 13 bd c8 ed f8 bb a0 0a 1a 3c b8 2d a1 3c
       -0.03598913 -0.007596705 0.009401947 0.01967512
000130 e0 ba c2 bc f8 b5 cd 3b 65 21 10 3d de 32 a8 bc
       -0.02377075 0.006277796 0.035188098 -0.020532068
000140 92 19 b6 3c 24 2f 66 3c 30 43 11 3b 2a 50 cf 3c
       0.02222899 0.014049325 0.002216529 0.02530678
000150 fc 42 34 3c 76 1e 96 bc 30 c3 79 bc d3 62 f7 bc
       0.011002298 -0.018325072 -0.01524429 -0.03019849
000160 a0 c9 55 bc 29 0b 1d 3d a2 8d c1 3c 3e c0 fd bc
       -0.013048559 0.03834072 0.023627106 -0.030975457
000170 ae 38 c4 bc c6 94 cc bc c8 c8 f0 bc 10 3b 5a bc
       -0.023952808 -0.024973284 -0.029392615 -0.013319746
000180 ad d3 29 3d 34 dd 02 3c a0 70 83 ba a8 ea 85 bb
       0.041461635 0.007987309 -0.0010028072 -0.004086811
000190 0e 4a b6 bc ed 64 1a 3d be 67 f9 bc a0 fd 97 3a
       -0.022252109 0.037693907 -0.030444976 0.0011595972
0001a0 80 14 90 b9 4e dd ce 3c b5 16 07 3d d8 99 f3 3b
       -0.00027481094 0.02525201 0.03298064 0.007434111
0001b0 ce 53 11 bd 9e 81 8d 3c fe ed b1 bc e6 28 90 3c
       -0.035480313 0.01727372 -0.021719929 0.017597627
0001c0 b5 df 01 3d 16 0e cd 3c 00 10 60 3a 55 91 0c 3d
       0.031707484 0.02503113 0.0008547306 0.034318287
0001d0 2b 98 c2 bc ba 8a d7 3c 47 0b 12 bd 84 bf 03 3c
       -0.0237542 0.026311267 -0.035655286 0.008041266
0001e0 9f de 08 bd c0 02 31 bc b8 d4 07 bd 38 87 e4 bb
       -0.033415433 -0.010803878 -0.03316185 -0.006974127
0001f0 40 03 ee bc 0b ee 00 3d a6 45 de 3c 3b 5d 01 bd
       -0.029054284 0.031477015 0.02713282 -0.031583052
000200 d0 e1 43 bb 3a 63 ec 3c 40 67 73 3a 96 a5 80 bc
       -0.0029889233 0.028855909 0.00092851 -0.015703958
000210 de be fa bc e8 05 fd bc 5a 31 d3 3c 38 7d 0d bd
       -0.03060859 -0.030886605 0.025780369 -0.034543246
000220 80 87 f8 ba 8b 08 26 bd 20 52 d0 ba 45 02 01 3d
       -0.0018961281 -0.04053549 -0.0015893616 0.031496305
000230 06 a3 ff bc 08 f1 28 bd 46 6d ee bc bc 71 52 bc
       -0.031205665 -0.04124549 -0.02910484 -0.012844499
000240 20 5c f6 3b 1e 8b f3 bc a8 e2 95 bb 71 da 19 3d
       0.0075183064 -0.029729422 -0.0045741387 0.037561838
000250 c8 2a 10 bd 99 d5 02 3d 88 99 cc bb aa 10 03 bd
       -0.03519705 0.031941984 -0.0062438883 -0.031998314
000260 e0 54 05 bd 5c cf 50 3c e0 5b ea 3b a0 6b 0a bd
       -0.032551646 0.012744751 0.0071520656 -0.033794045
000270 d6 ed d2 bc b1 7b 09 3d 38 85 f6 3b 30 ff 54 bc
       -0.025748175 0.033565227 0.007523205 -0.013000295
000280 60 c8 8e 3c b6 0d b6 bc bc f8 60 3c a0 1d 8a 3a
       0.01742953 -0.022223335 0.013731178 0.0010537393
000290 3c ba 37 bc f8 2c e9 bb 10 8a 9f bc bf eb 03 bd
       -0.011213835 -0.0071159564 -0.019475013 -0.032207247
0002a0 e6 df eb 3c 9c d4 4c bc d6 aa 13 bd 00 e5 0c b9
       0.028793287 -0.012501862 -0.036051594 -0.0001343675
0002b0 55 77 17 3d c0 b8 d7 bb f3 25 22 3d 86 2b 7c bc
       0.03697904 -0.006583303 0.039586972 -0.015391236
0002c0 48 d3 8c bb 06 0e 8f bc 00 ff 41 39 00 f6 d0 3a
       -0.0042976476 -0.017462742 0.00018500909 0.0015942454
0002d0 d3 03 80 bc d8 a5 9e bb b4 08 38 3c 80 4b 9d 3a
       -0.015626824 -0.0048415475 0.011232544 0.001200065
0002e0 e2 c5 bc 3c 73 8b 94 bc 33 02 09 bd 00 99 c1 3b
       0.023043577 -0.0181329 -0.033449363 0.0059081316
0002f0 20 8e 8f 3c 72 3e ea 3c 8e 32 92 bc f0 8b 0f bd
       0.017523825 0.02859423 -0.017846372 -0.035045564
000300 a8 97 d1 3b a3 11 09 3d e6 9b 4c bc 93 58 aa bc
       0.0063962527 0.033464085 -0.012488341 -0.020794189
000310 e0 12 42 bc 31 0a 08 3d 40 2a 79 3b d6 d5 ef bc
       -0.01184532 0.033212844 0.0038019568 -0.02927677
000320 ac 7f 20 bd a0 08 cb 3a c8 8e a1 3b 03 30 9e bc
       -0.039184257 0.0015490241 0.004930351 -0.019310003
000330 ac db 12 bd 76 c0 e1 3c 28 28 f6 3b c3 b6 95 bc
       -0.035854027 0.027557593 0.007512111 -0.018275624
000340 5a 79 cb 3c c0 7c 35 3a 0d de 22 3d 1f 17 26 bd
       0.024838138 0.0006923191 0.039762545 -0.040549394
000350 50 6c 85 3c 33 24 0d 3d 30 66 09 bd 0c c1 43 bc
       0.016286999 0.03445835 -0.03354472 -0.011947881
000360 7a 6a e5 3c 6b 81 17 3d 01 2c 0f 3d fa cb d7 3c
       0.028004874 0.036988657 0.034954075 0.02634238
000370 cc a5 53 3c 00 98 89 39 b7 87 23 bd 8b 08 26 3d
       0.012917947 0.00026243925 -0.03992435 0.04053549
000380 e0 e6 82 3a 6d 59 00 3d 44 eb 04 bc aa 1a a5 3c
       0.0009987019 0.031335283 -0.008112732 0.020154316
000390 c0 ff 33 3b 50 24 af bc f3 c9 dd bc 80 4b 83 3a
       0.0027465671 -0.02137962 -0.027073836 0.0010017008
0003a0 82 f1 c2 3c 73 e0 b2 bc f6 e7 58 bc 5c 11 02 3c
       0.0237968 -0.021835541 -0.013238898 0.007938709
0003b0 cb a9 1c bd 06 0f 27 bd 88 50 f5 3b 63 a2 1a 3d
       -0.038247865 -0.04078581 0.0074864067 0.03775252
0003c0 56 ae f3 bc 78 dc e7 3b 4c de 3f 3c ee 06 27 bd
       -0.029746216 0.0070758425 0.011710715 -0.040778093
0003d0 5a 97 22 bd 1a f5 d1 3c dd 9a 0d 3d 6d 3b 20 3d
       -0.03969512 0.025629569 0.034571517 0.039119173
0003e0 b1 53 25 3d a8 ce a8 bb 07 af 1e bd 23 d9 dd bc
       0.040363017 -0.0051515885 -0.038741138 -0.027081078
0003f0 4b 2b 82 bc 72 34 dc 3c fe 66 d4 bc cb 39 a4 bc
       -0.015889784 0.026880477 -0.025928017 -0.02004709
